models/best_autoencoder.pth (torch, 24918 bytes, 26 tensors)

encoder_l1.weight_ih_l0 f4 [64, 4]
0	0x3df54066	0.11975174
1	0x3e3fc5d2	0.18727806
2	0x3d1668fb	0.03672121
3	0x3e796749	0.24355806
4	0x3d67ff2d	0.05663984
5	0x3e97afd5	0.29626337
6	0x3e12cf57	0.14336906
7	0x3ddb935c	0.10721466
8	0xbe8a2886	-0.26984042
9	0x3e132e49	0.14373125
10	0xbccad14d	-0.024758006
11	0x3e2b6eb3	0.16741447
12	0x3d83df9b	0.06439134
13	0x3d2745b9	0.040837977
14	0x3ed02c1e	0.4065866
15	0x3e9de359	0.30837515
16	0x3e54ec6d	0.20793314
17	0x3b5f7ebe	0.0034102644
18	0x3e254701	0.16140367
19	0x3e552fac	0.20818967
20	0xbd4dc5fb	-0.050237637
21	0x3d404629	0.04694191
22	0xbdff1117	-0.124544315
23	0x3e0a8345	0.13526638
24	0x3e52cafa	0.20585242
25	0x3f044756	0.5167135
26	0x3edc88c4	0.43073094
27	0x3f11226c	0.5669315
28	0x3e4e71e2	0.2016063
29	0x3e86fc8a	0.26364547
30	0x3e4aba13	0.19797544
31	0x3f062a3c	0.52408195
32	0x3e8cf302	0.2752915
33	0x3ddf2480	0.10895634
34	0x3ea33339	0.31875017
35	0x3e9e9ed5	0.30980554
36	0x3e23cc84	0.15995985
37	0x3eb377ae	0.35052246
38	0x3e8c2ceb	0.2737802
39	0xbcf6adac	-0.03011211
40	0x3e7756bb	0.24154179
41	0x3e085aea	0.13315931
42	0xbd126ba7	-0.035747197
43	0xb9735da9	-0.00023209177
44	0x3de04d30	0.10952222
45	0xbe275c20	-0.16343737
46	0xbd4aefb2	-0.049544998
47	0xbe3e5dfb	-0.18590538
48	0x3e07b04c	0.13250846
49	0x3db48600	0.08814621
50	0x3eefbbde	0.4682302
51	0x3ef10213	0.47071895
52	0x3e69e5db	0.22841589
53	0x3c94ffea	0.018188436
54	0x3ec6c8ad	0.38824978
55	0x3d8345ae	0.06409775
56	0xbec31f1c	-0.38109672
57	0x3e2eff83	0.17089657
58	0x3bb40399	0.005493593
59	0xbe9573cd	-0.2918991
60	0x3edbe8ee	0.4295115
61	0x3e2687dc	0.16262764
62	0x3efeceef	0.49767253
63	0x3e6d0d6c	0.23149651
64	0x3e202724	0.15639931
65	0x3e497e66	0.19677123
66	0x3c037629	0.008023777
67	0x3d9b658f	0.0758773
68	0x3dec77cd	0.11546288
69	0xbcc1997b	-0.023632756
70	0x3e8c42de	0.27394766
71	0x3e9c17b6	0.3048684
72	0xbe27fe3f	-0.16405581
73	0x3d89890f	0.06715595
74	0x3e606940	0.2191515
75	0xbdf47039	-0.11935467
76	0x3e3b4fda	0.1829218
77	0x3d71240d	0.05887227
78	0xba6d11c0	-0.00090434775
79	0x3ecaf83f	0.39642522
80	0x3d1979ce	0.037469678
81	0xbda860ec	-0.082216114
82	0x3d90960a	0.07059868
83	0x3e7d6413	0.24745207
84	0x3dde058d	0.108409025
85	0xbd12b789	-0.035819564
86	0xbcd966ca	-0.026538271
87	0x3c9a489e	0.018833455
88	0x3e2974da	0.16548482
89	0x3e75ccd8	0.24003923
90	0x3e89ff5a	0.2695263
91	0x3e1d8c25	0.15385492
92	0x3d07c10b	0.033143084
93	0x3e9793e0	0.29605007
94	0x3b3b1923	0.0028548918
95	0x3edc7328	0.43056607
96	0x3eb11f1d	0.3459405
97	0xbc775d29	-0.015097895
98	0xbe359e76	-0.1773623
99	0x3eabf81e	0.33587736
100	0x3de883d4	0.11353269
101	0x3ac9db5c	0.0015400457
102	0x3e3f30a2	0.18670896
103	0x3eb0ba59	0.34517172
104	0x3df728e8	0.12068349
105	0x3c5e32db	0.01356193
106	0x3e7205e1	0.23635055
107	0xbdb5993d	-0.088671185
108	0x3dc18b0d	0.0945035
109	0x3dad422e	0.084598884
110	0x3d89c668	0.06727296
111	0xbd21ee1e	-0.039533727
112	0x3cd36dea	0.025809247
113	0x3ea93685	0.33049408
114	0x3d05b5ce	0.032644086
115	0x3ebceb38	0.36898208
116	0x3e71b276	0.23603234
117	0xbb8c434b	-0.004280483
118	0xbdcc3892	-0.099717274
119	0x3e1547e5	0.14578207
120	0x3dc0d821	0.09416223
121	0x3e732756	0.23745474
122	0x3d2ba446	0.04190471
123	0xbeac7a7e	-0.33687204
124	0x3eb7fd5f	0.35935494
125	0x3e4cc7af	0.19998048
126	0x3e9866d6	0.29765958
127	0x3edb5998	0.42841792
128	0xbe8d298d	-0.27570763
129	0xbe81b2f7	-0.25331852
130	0xbe9d4e4b	-0.30723795
131	0xbc2ffe49	-0.010741779
132	0xbe96eb79	-0.29476526
133	0xbe47e8ba	-0.19522372
134	0xbe3055a1	-0.17220165
135	0xbe907bb6	-0.28219384
136	0x3e8d5708	0.27605462
137	0xbdb91157	-0.090365104
138	0x3daa0383	0.08301451
139	0x3e82a381	0.2551537
140	0x3d494c7c	0.049145207
141	0x3ee04ac8	0.43807054
142	0x3e947d50	0.29001856
143	0x3e59e828	0.21279967
144	0xbe058e13	-0.13042478
145	0xbe53f81e	-0.20700118
146	0xbef0e302	-0.47048193
147	0xbea947da	-0.3306263
148	0x3dc80819	0.097671695
149	0xbe0423ed	-0.1290433
150	0xbdfe9a0a	-0.12431724
151	0x3e21a9dc	0.15787452
152	0xbed1acbc	-0.40952098
153	0xbe92e6e6	-0.28691787
154	0xbec4df99	-0.3845184
155	0xbdf04f36	-0.11733858
156	0x3ed1f251	0.41005185
157	0x3e5772cc	0.21039885
158	0x3ef38431	0.47561792
159	0x3f0dbcc9	0.5536619
160	0xbcc9a8bc	-0.024616592
161	0xbda0005f	-0.07812571
162	0x3eb6d788	0.35711312
163	0x3ecbd14f	0.39808127
164	0x3cea810a	0.028625984
165	0xbea320cb	-0.31860957
166	0xbec2d65e	-0.38054174
167	0xbe99ecb0	-0.3006339
168	0xbe538d28	-0.20659316
169	0x3d4b5f81	0.049651626
170	0xbe8dc15b	-0.2768658
171	0xbee498da	-0.44647866
172	0xbdf40bec	-0.119163364
173	0x3dd3b602	0.103374496
174	0xbe1879be	-0.14890191
175	0x3da08d8d	0.07839499
176	0xbe83499f	-0.25642106
177	0xbea656a6	-0.32487983
178	0xbe349d66	-0.17638168
179	0xbeca0fb8	-0.39465117
180	0xbeb2b6b5	-0.3490502
181	0xbe2f6b9c	-0.17130893
182	0xbd81caeb	-0.06337532
183	0xbe7cb0f6	-0.2467688
184	0xba40aed2	-0.0007350269
185	0x3e0cfb71	0.13767792
186	0xbd4bfe56	-0.0498031
187	0xbd66a0a6	-0.05630555
188	0x3f02dc27	0.51117176
189	0x3ea441e6	0.32081527
190	0x3e0e1839	0.13876428
191	0x3e410beb	0.18852203
192	0x3da0eadb	0.07857295
193	0x3e106289	0.14100088
194	0x3da5a538	0.080881536
195	0xbddfc15c	-0.10925552
196	0x3e905e25	0.28196827
197	0x3e9e8a82	0.30965048
198	0x3dbe4fd5	0.092925705
199	0x3eb0a6b5	0.34502187
200	0xbe89159b	-0.26774296
201	0x3e964c68	0.29355168
202	0xbdff5eba	-0.124692395
203	0xbd259a7d	-0.040430535
204	0x3efeaefb	0.49742875
205	0x3e93f266	0.28895873
206	0x3ea349be	0.31892198
207	0x3ea28509	0.31742123
208	0x3cb3194d	0.02186265
209	0x3e534029	0.20629944
210	0x3e363cbb	0.17796604
211	0x3eb021d2	0.34400803
212	0xbdca486a	-0.09877093
213	0xbbe23d24	-0.006904261
214	0xbdf72716	-0.12068002
215	0xbe9b4d8f	-0.3033261
216	0x3f1705d7	0.58993286
217	0x3f03a67d	0.51425916
218	0x3e38b596	0.1803802
219	0x3e9c6223	0.30543622
220	0x3e8ffed2	0.281241
221	0x3e4f8bb3	0.20268135
222	0x3e383c06	0.17991647
223	0x3e960af2	0.29305226
224	0x3e0d8207	0.13819133
225	0x3dfb5b2d	0.1227325
226	0x3de564f0	0.11200893
227	0x3e6051da	0.21906224
228	0x3dd4db5d	0.10393403
229	0x3ea949f8	0.33064246
230	0x3db78361	0.089606054
231	0x3dfcbe04	0.1234093
232	0x3bb3577b	0.005473075
233	0x3ecada74	0.39619792
234	0x3e856dd1	0.26060346
235	0x3ecfd05b	0.4058865
236	0x3e35a8c9	0.17740168
237	0x3e8ea2da	0.2785862
238	0xbe4683ba	-0.19386187
239	0xbe72cb53	-0.23710375
240	0x3ec67fcc	0.38769376
241	0xbd834b6b	-0.06410869
242	0xbc97e234	-0.01854048
243	0x3ea193af	0.31557986
244	0x3ec46613	0.38359126
245	0x3e91e6f5	0.2849652
246	0x3e9def9a	0.30846864
247	0x3d836d54	0.06417337
248	0xbecd2d39	-0.40073565
249	0x3dc81a39	0.097706266
250	0xbd982c14	-0.07430282
251	0xbe862432	-0.2619949
252	0x3e9b2492	0.30301338
253	0x3e935e70	0.28782988
254	0x3f114d63	0.5675871
255	0x3e26bc77	0.16282831

encoder_l1.weight_hh_l0 f4 [64, 16]
0	0x391503d2	0.0001421117
1	0xbe772983	-0.24136929
2	0xbee6643c	-0.44998348
3	0x3edb834d	0.42873612
4	0xbeb141f4	-0.3462063
5	0xbe5f325d	-0.21796556
6	0xbe6a660f	-0.22890495
7	0x3deff027	0.11715727
8	0x3d3dc65f	0.04633176
9	0x3d4e748e	0.050404124
10	0xbe3fb11d	-0.18719907
11	0xbe8f32ca	-0.27968436
12	0xbeba09fe	-0.36335748
13	0x3d88a297	0.066716366
14	0x3ea8e529	0.32987335
15	0x3ece842a	0.40335208
16	0x3ea3aeda	0.3196934
17	0xbe1cbdc6	-0.15306768
18	0x3c4b0d4f	0.01239331
19	0x3ed60aaf	0.41805026
20	0xbe332da2	-0.17497876
21	0xbe7bb43c	-0.24580473
22	0xbe366676	-0.17812523
23	0x3e86046c	0.2617525
24	0x3e1b2ed8	0.15154588
25	0x3d83e34b	0.06439837
26	0x3e20832b	0.15675037
27	0xbe6c49cb	-0.23075025
28	0xbe8d1e8d	-0.2756237
29	0x3e60eef7	0.21966158
30	0x3d5fbe8c	0.05462508
31	0x3e8c22a8	0.2737019
32	0xbdd2d29c	-0.10294077
33	0xbe259df6	-0.16173539
34	0xbea2e778	-0.31817222
35	0x3e54f970	0.20798278
36	0xbdd1f646	-0.10252051
37	0xbe89ad0a	-0.2688983
38	0x3cc47f29	0.023986416
39	0x3ebae1ab	0.36500296
40	0xbd7ff081	-0.06248522
41	0xbe7132e3	-0.23554568
42	0x3df97137	0.12179797
43	0xbe56af1e	-0.2096524
44	0xbe30c911	-0.17264201
45	0xbebf9191	-0.37415746
46	0x3b96de52	0.0046041394
47	0x3d5e6155	0.05429204
48	0x3d4120fc	0.047150597
49	0xbe362fc9	-0.17791666
50	0x3e01021f	0.12598465
51	0x3e2e84ef	0.17042898
52	0x3d883f0d	0.06652651
53	0x3c5c5324	0.013447557
54	0xbecf334e	-0.4046883
55	0x3e5b2ee9	0.21404614
56	0xbddd106b	-0.10794147
57	0xbebd6633	-0.36992034
58	0xbe866f2a	-0.26256686
59	0xbeb87354	-0.36025488
60	0xbeac6108	-0.3366778
61	0x3d5b08a9	0.053475056
62	0x3e9c5b35	0.30538335
63	0x3e9dce05	0.30821243
64	0xbde26b6a	-0.11055644
65	0x3b88b1e2	0.004171596
66	0x3d012c45	0.03153636
67	0x3e89576d	0.26824513
68	0xbdc6ef4d	-0.09713612
69	0xbe99bed3	-0.300284
70	0xbeb22e14	-0.3480078
71	0x3ec34bae	0.38143677
72	0xbe88f39b	-0.26748356
73	0x3e4e1842	0.20126441
74	0xbcbb2a17	-0.022847218
75	0xbd81cf54	-0.06338373
76	0xbe224a07	-0.15848552
77	0x3e44a2aa	0.19202676
78	0x3e5bb570	0.21455932
79	0xbe31bbf7	-0.17356859
80	0xbe33e8f6	-0.17569336
81	0xbe47ff88	-0.19531071
82	0xbeaca92f	-0.33722827
83	0xbc8189f7	-0.015812857
84	0xbeb15342	-0.34633833
85	0xbea0cfa6	-0.31408423
86	0xbe488855	-0.19583257
87	0x3e0751f5	0.13214858
88	0xbc0e676f	-0.008691653
89	0x3d523b16	0.05132588
90	0x3d7661b0	0.060151756
91	0xbe2b088a	-0.16702476
92	0xbe9dfcbb	-0.3085688
93	0xbd2961f3	-0.041353177
94	0x3ea9faab	0.33199057
95	0xbd1808c5	-0.03711774
96	0x3ecdcabd	0.4019374
97	0xbef945ea	-0.48686153
98	0xbe7e8969	-0.24857105
99	0x3f127f43	0.57225436
100	0xbf0bcb1d	-0.546068
101	0xbed2199f	-0.41035172
102	0xbe86b66b	-0.2631105
103	0x3ef83b29	0.48482636
104	0xbd6f381c	-0.05840312
105	0xbe386f90	-0.18011308
106	0xbe307404	-0.17231756
107	0xbee774fe	-0.45206445
108	0xbe732e9a	-0.23748246
109	0x3d7441e4	0.05963315
110	0x3e9be6ec	0.30449617
111	0x3d0c2b28	0.034220845
112	0x3e0b1589	0.13582434
113	0xbe47af28	-0.1950041
114	0xbd2334b7	-0.039845195
115	0x3eb999e3	0.3625022
116	0xbe6f5839	-0.23373498
117	0xbecce0d7	-0.4001529
118	0xbe0a88a9	-0.13528694
119	0x3ec55978	0.38544822
120	0x3cd8a539	0.026445972
121	0x3d8925b7	0.06696647
122	0xbe809d61	-0.2512007
123	0xbed7b160	-0.42127514
124	0xbe88a712	-0.26689965
125	0xbe1e7de2	-0.15477708
126	0x3c97d251	0.018532904
127	0x3b4d7b05	0.0031353843
128	0x3c0877a1	0.008329303
129	0xbe6efcb9	-0.23338594
130	0x3d9711da	0.07376452
131	0xbdab4cc3	-0.083642505
132	0x3d907bde	0.07054876
133	0xbe8288e7	-0.25495073
134	0xbe2cb3b8	-0.16865432
135	0xbdbc28d4	-0.09187475
136	0x3e34b06f	0.17645429
137	0x3dd56e5d	0.10421441
138	0xbd87ffed	-0.06640611
139	0xbe84e44e	-0.25955433
140	0x3e0572e7	0.13032113
141	0xbdaa69ba	-0.08320947
142	0x3e934212	0.28761345
143	0xbc467950	-0.012113884
144	0x3d102903	0.03519536
145	0xbd485ffe	-0.04891967
146	0x3d90aacc	0.07063827
147	0x3eeb5155	0.4596049
148	0xbe0f429f	-0.13990258
149	0xbe447380	-0.19184685
150	0xbd195b2f	-0.037440475
151	0x3e483633	0.19551925
152	0x3e3ef2b8	0.18647277
153	0xbdbd600c	-0.09246835
154	0xbda548f3	-0.080705546
155	0xbd81f7ca	-0.0634609
156	0xbb0a9f9d	-0.0021152266
157	0xbda1a80b	-0.0789338
158	0x3d0042b3	0.03131361
159	0x3eb51042	0.35363966
160	0x3d9afbc0	0.07567549
161	0xbc277a94	-0.010222096
162	0xbec70793	-0.38872966
163	0x3e0dbb6e	0.1384103
164	0xbc532090	-0.0128861815
165	0xbe3dbf1c	-0.18529934
166	0xbee3bd7d	-0.44480506
167	0x3e3a3384	0.18183714
168	0x3ccedec6	0.025252711
169	0xbeb031cd	-0.34412995
170	0x3d928137	0.07153552
171	0xbd6cb995	-0.057794172
172	0xbea91393	-0.33022746
173	0xbcaae522	-0.020861212
174	0x3eab8330	0.33498526
175	0x3ed27f87	0.4111292
176	0x3e86e297	0.2634475
177	0xbe5da68c	-0.21645564
178	0x3d2c1569	0.042012606
179	0xbc8b9eae	-0.017043438
180	0xbe303fc2	-0.17211822
181	0xbe32ee3e	-0.17473695
182	0xbe3ff696	-0.18746409
183	0xbdb74835	-0.08949319
184	0x3e0b1397	0.13581692
185	0x3e0d4b09	0.13798155
186	0x3e39aa23	0.18131308
187	0xbec55dea	-0.38548213
188	0x3d22308c	0.03959708
189	0xbe0c5cec	-0.13707322
190	0x3d1fe3d7	0.039035644
191	0x3e527d8d	0.20555706
192	0xbec132c3	-0.3773404
193	0xbdd43adb	-0.10362788
194	0x3eafbe0f	0.3432469
195	0x3e0e156a	0.13875356
196	0xbee2da97	-0.44307396
197	0xbe1b2ed2	-0.1515458
198	0x3ceb9802	0.028759006
199	0x3ecf3418	0.40469432
200	0x3e5c7375	0.21528418
201	0xbeb6afe6	-0.35681075
202	0xbdbe75c7	-0.09299808
203	0xbe418500	-0.18898392
204	0x3cd60cba	0.026129115
205	0xbbb31563	-0.005465196
206	0x3da97366	0.08273964
207	0x3e4c3b91	0.19944598
208	0xbd102014	-0.035186842
209	0xbec98345	-0.39357963
210	0x3c2c84a1	0.010529668
211	0x3e0a0f48	0.13482392
212	0xbed12c6f	-0.40854213
213	0xbee077cf	-0.43841407
214	0x3da04449	0.07825524
215	0x3ee5e8cb	0.4490417
216	0xbc09541f	-0.008381872
217	0x3c3eba36	0.011641076
218	0xbbef83f7	-0.0073094326
219	0xbe17d52a	-0.1482741
220	0xbe6ba91f	-0.23013733
221	0x3d63ba67	0.05559769
222	0x3e956eb7	0.2918603
223	0x3ed08410	0.40725756
224	0xbd27a280	-0.040926456
225	0x3e5ecf52	0.21758774
226	0xbcc530f3	-0.024071192
227	0x3d5a6ebc	0.05332826
228	0xbe7caf08	-0.24676144
229	0xbe007398	-0.12544096
230	0xbe7062bd	-0.23475166
231	0xbdd302a5	-0.10303239
232	0xbe9b8263	-0.30372915
233	0x3dcc8e2c	0.09988055
234	0xbd2262f5	-0.039645154
235	0xbeb4baac	-0.3529867
236	0x3e15b4a3	0.14619689
237	0x3ea82651	0.32841733
238	0xbe043df3	-0.12914257
239	0xbe4e6575	-0.2015589
240	0x3ea7a851	0.32745603
241	0xbe429e67	-0.19005738
242	0x3e0a4459	0.13502635
243	0x3e9d5fe7	0.3073723
244	0xbedb86fe	-0.42876428
245	0xbdfb7ebc	-0.12280032
246	0xbeb0ab8f	-0.3450589
247	0x3f06fd80	0.5273056
248	0xbd2e5458	-0.042560905
249	0x3d33021d	0.043703187
250	0xbe2247dd	-0.15847726
251	0xbec9c9d6	-0.394118
252	0xbed65026	-0.41858023
253	0x3e7ede08	0.24889386
254	0x3ec07534	0.3758942
255	0xbd7514f8	-0.05983445

encoder_l1.bias_ih_l0 f4 [64]
0	0x3e584557	0.21120201
1	0x3e79be83	0.2438908
2	0xbc9e987a	-0.019359816
3	0x3e46fad1	0.19431616
4	0x3ddaf011	0.1069032
5	0x3da3f7c4	0.08006242
6	0x3e6bd341	0.23029806
7	0x3eb9d716	0.3629691
8	0x3e5fb5a2	0.21846631
9	0x3ea69441	0.32534984
10	0x3eda81e7	0.42677233
11	0xbde1cc01	-0.11025239
12	0x3d881004	0.0664368
13	0x3e355d5f	0.177114
14	0x3e811767	0.25213167
15	0x3d4da69e	0.050207727
16	0x3e93e378	0.28884482
17	0x3ebb777f	0.36614606
18	0xbdf08b36	-0.117453024
19	0x3c876584	0.016527899
20	0x3e917b69	0.28414467
21	0x3ecca7f1	0.3997188
22	0x3cbc67ee	0.022998776
23	0x3ee43beb	0.44576964
24	0x3cf1e639	0.029528724
25	0xbd4410a3	-0.04786743
26	0xbe1b8aec	-0.15189713
27	0x3dae9fd9	0.08526582
28	0xbdee1ef3	-0.11626997
29	0x3e487af5	0.19578154
30	0xbde423c3	-0.111396335
31	0x3ea82905	0.32843795
32	0x3e457503	0.19282918
33	0x3de365b7	0.11103385
34	0xbe300dbd	-0.1719274
35	0x3ea6c28a	0.32570297
36	0x3db2520c	0.087070554
37	0xbe418342	-0.18897727
38	0x3de0ce0f	0.109768026
39	0x3dd7d877	0.10539334
40	0xbdda3116	-0.10653894
41	0x3c2137a1	0.009839923
42	0x3e3e1b9f	0.18565224
43	0xbe403f7a	-0.18774214
44	0xbc705ada	-0.014670098
45	0x3e59b159	0.21259059
46	0x3e7d2644	0.24721628
47	0x3e1954ca	0.1497375
48	0x3dd0947f	0.101845734
49	0x3b3eb561	0.002909981
50	0x3cce8788	0.02521111
51	0x3d9b821f	0.07593178
52	0x3edf3c0c	0.436005
53	0x3d4da9db	0.050210815
54	0x3f1386f1	0.5762778
55	0x3d4fb82f	0.05071276
56	0x3e582a65	0.21109922
57	0x3dac9028	0.08425933
58	0x3e4df448	0.20112717
59	0x3e7efdd0	0.2490151
60	0x3e397d8d	0.181143
61	0x3e01db5e	0.12681338
62	0x3e454595	0.19264825
63	0x3e63581c	0.2220158

encoder_l1.bias_hh_l0 f4 [64]
0	0x3e86de0d	0.26341286
1	0x3e973d52	0.2953897
2	0x3ebbf493	0.36710033
3	0xbc2dc17a	-0.01060521
4	0x3ee6ac46	0.4505331
5	0x3c2830ad	0.010265511
6	0x3e0dc792	0.13845661
7	0x3ec2f4ec	0.38077486
8	0x3eb8a335	0.36062017
9	0x3eeeb4a0	0.4662218
10	0x3e9118a7	0.2833912
11	0x3e7bf399	0.24604644
12	0x3d9805b6	0.07422964
13	0x3e377800	0.1791687
14	0xbbca2c70	-0.006169848
15	0x3d496296	0.049166285
16	0xbd5b8555	-0.053593952
17	0x3e6c5dbb	0.2308263
18	0x3cf08e62	0.029364768
19	0x3da13933	0.07872238
20	0x3e833707	0.2562792
21	0x3e5546df	0.20827816
22	0xbddf2e4f	-0.108975045
23	0x3e405add	0.18784662
24	0x3e726515	0.23671372
25	0xbe00b965	-0.12570722
26	0x3e86090e	0.26178783
27	0x3eb4e0a4	0.35327637
28	0x3d9af22b	0.07565721
29	0x3e63ed49	0.22258486
30	0x3e32fbb2	0.17478827
31	0x3e78f223	0.24311118
32	0x3db63025	0.088959016
33	0xbe51c8f6	-0.20486817
34	0xbe976ccb	-0.2957519
35	0x3c8ab589	0.016932266
36	0xbe907977	-0.2821767
37	0xbec36e15	-0.38169923
38	0xbe18bee3	-0.14916568
39	0xbd890b9a	-0.06691666
40	0x3c1e06ab	0.009645144
41	0x3e0d9965	0.13828047
42	0xbccc7b50	-0.024961144
43	0xbeb48ca7	-0.3526356
44	0xbe0a1c60	-0.13487387
45	0xbdb79bb0	-0.08965242
46	0x3e9318a4	0.28729737
47	0x3dc263cb	0.0949169
48	0x3dc9f4a5	0.09861115
49	0x3eab7b4a	0.334925
50	0x3de4f4b2	0.111794844
51	0xbd4639ee	-0.04839509
52	0xbc565765	-0.01308236
53	0x3ea4387c	0.32074344
54	0x3f06e6f2	0.52696145
55	0x3e7e9ee6	0.24865302
56	0xbdd1b5df	-0.10239767
57	0x3ed1df99	0.40990904
58	0x3e427036	0.18988118
59	0x3ddc13bb	0.10745951
60	0x3e75d909	0.24008574
61	0x3e8f3f39	0.27977923
62	0x3e372dc5	0.17888553
63	0x3ec54d22	0.3853541

encoder_l2.weight_ih_l0 f4 [16, 16]
0	0xbc9fb58a	-0.019495744
1	0x3e393535	0.18086703
2	0x3e8d7d32	0.2763458
3	0x3eb7af2a	0.35875827
4	0xbf0030b4	-0.50074315
5	0xbd5d957a	-0.05409763
6	0xbf3cc3e9	-0.73736435
7	0x3f2593e2	0.64678776
8	0xbdd6279f	-0.10456776
9	0xbe0c9d92	-0.13731983
10	0xbf10c312	-0.56547654
11	0xbe8c4262	-0.27394396
12	0x3e056e1a	0.13030282
13	0xbe2f4af2	-0.17118433
14	0xbe9832b4	-0.29726183
15	0xbe27687c	-0.16348451
16	0x3cd992e4	0.0265593
17	0x3f2e64b1	0.6812239
18	0xbeca82f6	-0.3955304
19	0x3eb11e5f	0.34593484
20	0x3c0157ae	0.00789444
21	0x3eecbde1	0.46238616
22	0x3e930da3	0.28721341
23	0xbf08034a	-0.5313002
24	0x3e4f13eb	0.20222442
25	0xbe4cb32a	-0.1999022
26	0x3f2cf9a5	0.6756843
27	0xbe189d72	-0.1490381
28	0xbea3168a	-0.31853133
29	0x3eae76ca	0.34075004
30	0xbe08f2eb	-0.13373916
31	0xbf0dd27f	-0.55399317
32	0xbeb43f5d	-0.35204592
33	0xbedffd33	-0.43747863
34	0xbf1c26a2	-0.6099645
35	0x3e84ad9c	0.25913703
36	0x3e4840fc	0.1955604
37	0xbf236039	-0.638187
38	0x3ee48e98	0.4464004
39	0xbd9b7cb2	-0.07592143
40	0x3d9d0bb6	0.07668249
41	0x3e570602	0.20998386
42	0xbee1ad4b	-0.44077525
43	0xbe8a23c9	-0.26980427
44	0x3e8fe7d7	0.28106567
45	0x3ec02fd7	0.375365
46	0x3ec73248	0.3890555
47	0xbed390d3	-0.4132143
48	0xbe4c9fdd	-0.19982858
49	0xbf2d4b93	-0.6769344
50	0xbe6850dc	-0.22687095
51	0xbce38de7	-0.027777625
52	0xbe06631c	-0.13123745
53	0xbedd2bfa	-0.43197614
54	0xbec01d39	-0.37522295
55	0xbea0ceac	-0.31407678
56	0x3e934ddd	0.28770342
57	0xbf0c410e	-0.54786766
58	0xbe57047f	-0.20997809
59	0x3e28464d	0.16433068
60	0xbea2ac62	-0.31772143
61	0xbeecabfb	-0.4622496
62	0xbea4b9de	-0.32173055
63	0xbe9ec794	-0.3101164
64	0xbe898066	-0.26855773
65	0xbe47ad09	-0.19499601
66	0xbe879791	-0.26482823
67	0x3eae46c0	0.34038353
68	0xbe69efe9	-0.22845425
69	0x3d7b3b28	0.061335713
70	0x3e53f923	0.20700507
71	0x3e919c4b	0.28439555
72	0x3e325f7a	0.17419234
73	0xbe1dd00e	-0.15411398
74	0xbf2d96ad	-0.6780804
75	0xbea0b954	-0.31391394
76	0xbe89656a	-0.26835185
77	0x3e26af78	0.16277874
78	0x3e488cc0	0.19584942
79	0x3ef10f13	0.47081813
80	0x3ef2bce7	0.47409746
81	0xbe8541dc	-0.2602681
82	0xbdd10d9e	-0.102076754
83	0xbee5f295	-0.44911638
84	0x3eaea47d	0.3410987
85	0x3d2fe4de	0.042942874
86	0xbdd1523a	-0.102207616
87	0xbeb0557b	-0.34440216
88	0xbedacfa8	-0.42736554
89	0x3ef4e704	0.478325
90	0xbe6c4fee	-0.23077366
91	0xbde1fe2b	-0.11034807
92	0x3d85ece3	0.06539323
93	0x3eaa541a	0.3326729
94	0x3e1977f8	0.1498717
95	0xbefd286a	-0.49444896
96	0x3f079d19	0.52974087
97	0xbed1af5d	-0.40954104
98	0xbe608938	-0.21927345
99	0x3f061a11	0.52383524
100	0x3e3aca4d	0.18241234
101	0xbf2c5d5d	-0.6732996
102	0xbd4c87fd	-0.049934376
103	0x3eb76ec9	0.3582671
104	0x3ed9e08c	0.42554128
105	0xbd21f4f0	-0.03954023
106	0x3dc603a6	0.09668665
107	0x3d07f42b	0.03319184
108	0xbe162dd1	-0.14665915
109	0x3dbf85ee	0.09351717
110	0x3eafb9ac	0.34321344
111	0x3e87eb4a	0.265467
112	0xbf1c90fe	-0.6115874
113	0xbe6a035e	-0.22852847
114	0x3e972d95	0.29526964
115	0x3e8830f9	0.26599863
116	0xbe6486a3	-0.22316985
117	0x3e97a6fb	0.29619583
118	0xbf077a44	-0.5292094
119	0x3e06344a	0.13105884
120	0x3f09df69	0.5385652
121	0xbf1175c4	-0.5682032
122	0x3e601abf	0.21885203
123	0x3e6a2f85	0.2286969
124	0x3ebb66ac	0.3660177
125	0xbf76aac9	-0.9635435
126	0xbf15e58a	-0.58553374
127	0xbedf8186	-0.43653506
128	0x3e9ea91c	0.30988395
129	0x3ed333f1	0.41250566
130	0x3e28231f	0.16419648
131	0xbe8eb3b1	-0.2787147
132	0x3d8bc24a	0.06824167
133	0xbebbe325	-0.36696735
134	0x3e319f2a	0.17345873
135	0xbe50c94c	-0.20389289
136	0xbf24d1cc	-0.64382625
137	0xbd88f20e	-0.06686793
138	0x3e94cbf6	0.2906186
139	0x3ee84695	0.4536635
140	0x3e8082b4	0.2509972
141	0x3ef74a7a	0.4829901
142	0x3c188dc9	0.009311148
143	0xbe03206b	-0.12805335
144	0xbd39f4f8	-0.045399636
145	0x3df4c8b5	0.11952344
146	0xbec72708	-0.38896966
147	0xbec88e8b	-0.39171252
148	0x3f2cf178	0.6755595
149	0xbe4acea3	-0.19805388
150	0x3f161c57	0.58636993
151	0x3e71ec01	0.23625185
152	0xbdcdbb30	-0.10045469
153	0x3f436aa5	0.763346
154	0x3ee0c8fa	0.43903333
155	0xbd27a6cf	-0.040930565
156	0xbdc47b74	-0.09593859
157	0x3cd8a632	0.026446436
158	0xbde91bda	-0.113822654
159	0x3e725ac4	0.23667437
160	0x3ed86e9a	0.42271882
161	0x3e2ca54e	0.16859934
162	0xbeea2510	-0.457314
163	0x3ec363cc	0.38162076
164	0xbecdc407	-0.4018862
165	0xbf295675	-0.6614755
166	0x3d812cc7	0.06307369
167	0x3d72ee04	0.05930902
168	0xbef9f5cd	-0.48820344
169	0xbd7c62af	-0.06161755
170	0x3e6ec0a4	0.23315674
171	0xbef25eed	-0.47338048
172	0x3e8c2a39	0.27375963
173	0x3f1cbc06	0.612244
174	0xbe2ab15f	-0.16669224
175	0x3e25455e	0.16139743
176	0xbefb8010	-0.4912114
177	0x3e9f2302	0.31081396
178	0xbe6893d5	-0.22712643
179	0x3e135ed9	0.1439165
180	0xbee00c6d	-0.4375948
181	0x3ef61aa8	0.48067212
182	0xbf0aac67	-0.54169315
183	0x3eda0e5e	0.42589086
184	0x3f1db07d	0.61597425
185	0xbf0e84fc	-0.5567167
186	0xbe90adf6	-0.28257722
187	0x3dd796c4	0.10526803
188	0xbe8ee321	-0.2790766
189	0xbf3c7202	-0.7361146
190	0xbed1befe	-0.40966028
191	0x3ed55456	0.41665906
192	0xbe7426dd	-0.2384295
193	0xbeb5e8e6	-0.3552925
194	0x3d2020e8	0.03909388
195	0xbea9293e	-0.33039278
196	0xbe849eaf	-0.25902316
197	0xbef406cd	-0.4766144
198	0xbf123822	-0.571169
199	0x3efce53e	0.49393648
200	0x3da8467a	0.08216567
201	0xbf5deef9	-0.8669277
202	0xbf805b49	-1.0027858
203	0xbdcfd5d0	-0.101482034
204	0xbf0a9ac0	-0.5414238
205	0xbe79fc56	-0.24412665
206	0x3e55e681	0.20888712
207	0xbeb1a524	-0.34696305
208	0x3ebfa3d4	0.37429678
209	0x3f15dc87	0.58539623
210	0x3e8a11b2	0.26966625
211	0xbebe2655	-0.3713862
212	0xbdfffa1c	-0.124988765
213	0x3e994711	0.29937032
214	0x3eeada68	0.45869756
215	0x3ba60b7f	0.0050672884
216	0xbe3bb697	-0.18331371
217	0x3e8b791b	0.27240834
218	0x3e7cd690	0.24691224
219	0xbeb22f7a	-0.34801847
220	0x3efa7fc2	0.48925596
221	0x3f00e0c5	0.5034297
222	0x3ca8e485	0.02061678
223	0xbe84740b	-0.25869784
224	0x3e39fa7b	0.18161957
225	0xbb202157	-0.0024433935
226	0x3e87d7e7	0.26531908
227	0xbe718114	-0.23584396
228	0xbed5f330	-0.417871
229	0xbe88e440	-0.2673664
230	0xbc34d704	-0.011037592
231	0x3efa3eb3	0.4887596
232	0x3ed84841	0.42242625
233	0xbe5a889f	-0.2134118
234	0xbddeecd9	-0.10885019
235	0x3ce03a32	0.0273715
236	0x3d09da3c	0.03365539
237	0xbc3541c8	-0.011063047
238	0x3f290e1a	0.6603714
239	0xbe40eb7c	-0.1883983
240	0xbe01e648	-0.12685502
241	0xbf02e1aa	-0.51125586
242	0x3d18dbb9	0.03731892
243	0x3ec59d7d	0.38596717
244	0xbee11446	-0.4396078
245	0xbeb44f75	-0.3521687
246	0x3b98ece3	0.004666911
247	0x3ed492c8	0.41518235
248	0x3f0220b8	0.50831175
249	0xbe66ac19	-0.22526588
250	0x3e856db2	0.26060253
251	0xbdf51c31	-0.11968268
252	0xbf1950fd	-0.59889203
253	0xbf3ab7ec	-0.7293689
254	0xbdf2ea6b	-0.11861118
255	0x3f2c372e	0.672717

encoder_l2.weight_hh_l0 f4 [16, 4]
0	0xbed82981	-0.42219165
1	0xbd26ab8d	-0.040690947
2	0xbe86d395	-0.263333
3	0x3f09e6fb	0.53868073
4	0xbeab6e13	-0.33482417
5	0x3ed27fb1	0.41113046
6	0xbf0d3b99	-0.55169064
7	0xbe2540d3	-0.1613801
8	0xbee95da1	-0.45579246
9	0x3eb25378	0.34829307
10	0x3f37016c	0.71486545
11	0x3d79fd52	0.0610326
12	0xbeb46bee	-0.35238594
13	0x3e852f5f	0.26012704
14	0xbf112575	-0.5669778
15	0xbc3e79a7	-0.011625684
16	0xbedb851b	-0.4287499
17	0xbe7c2f0d	-0.24627323
18	0x3ede316b	0.43397078
19	0x3eb60e55	0.3555781
20	0x3ee1ae46	0.44078273
21	0xbe6af437	-0.22944723
22	0x3d016f8d	0.031600524
23	0x3d2d1062	0.042251952
24	0xbf268c85	-0.65058166
25	0x3f215fb3	0.6303665
26	0x3f29f3d7	0.66387695
27	0x3dd3e4ec	0.10346398
28	0xbe3e0bd2	-0.18559197
29	0xbe429b8f	-0.19004653
30	0xbf078f80	-0.5295334
31	0xbef4e46c	-0.47830522
32	0xbee97780	-0.45598984
33	0xbe57c86d	-0.2107255
34	0xbef32604	-0.4748994
35	0x3b94e4a5	0.004543858
36	0xbe6a47de	-0.22878978
37	0xbd1da124	-0.038483754
38	0xbe54ac8f	-0.20768951
39	0xbe6080d2	-0.21924141
40	0xbe713af3	-0.23557644
41	0x3f2c153f	0.6721992
42	0x3f08c170	0.5342016
43	0x3e7cbd2f	0.24681543
44	0x3ed59bd5	0.41720453
45	0x3d56d656	0.0524505
46	0x3d35bd2b	0.044369858
47	0xbe141f02	-0.14464954
48	0x3e96fdc2	0.29490477
49	0x3caf9313	0.021432435
50	0x3c1f8188	0.0097354725
51	0x3e8ece43	0.2789174
52	0xbe91143c	-0.2833575
53	0xbe0fd862	-0.14047387
54	0x3eb310ae	0.34973663
55	0xbeffef16	-0.49987096
56	0x3e5700f7	0.20996462
57	0x3d12eefe	0.035872452
58	0x3f203564	0.6258147
59	0xbee74a59	-0.4517391
60	0xbdd701cb	-0.10498389
61	0x3f149692	0.5804225
62	0xbe8df121	-0.2772303
63	0xbea4deeb	-0.32201323

encoder_l2.bias_ih_l0 f4 [16]
0	0x3e251bda	0.16123906
1	0xbd106829	-0.035255585
2	0x3e160e78	0.14653957
3	0x3f1d4a27	0.6144127
4	0x3d4890bb	0.04896615
5	0x3d063e63	0.03277434
6	0x3ef47a2c	0.4774946
7	0xbef301bc	-0.4746226
8	0xbeb167d7	-0.34649536
9	0x3ed05df4	0.4069668
10	0xbe033278	-0.12812221
11	0x3dccd14b	0.10000857
12	0xbed9c44c	-0.42532575
13	0x3df3e67e	0.11909197
14	0x3f1ad606	0.60482824
15	0x3e8bf8d5	0.2733828

encoder_l2.bias_hh_l0 f4 [16]
0	0xbd9bfb90	-0.07616341
1	0xbe0c1580	-0.13680077
2	0xbe41c30a	-0.18922058
3	0xbc72b60d	-0.014813912
4	0xbd5366ff	-0.051611897
5	0x3e4dbd73	0.200918
6	0x3ed8229e	0.4221391
7	0x3ec98dd1	0.3936601
8	0xbdede37f	-0.11615657
9	0x3de1744c	0.1100851
10	0xbe89df53	-0.26928195
11	0xbde1ab99	-0.11019058
12	0x3ee298a2	0.44257075
13	0x3dbf4e4c	0.09341106
14	0x3f3cf7dd	0.7381571
15	0x3e8343a9	0.25637558

encoder_l3.weight_ih_l0 f4 [4, 4]
0	0x3e57b01f	0.21063279
1	0x3f2dfd94	0.67965055
2	0xbf39b505	-0.7254184
3	0x3e984565	0.29740444
4	0xbe68d96c	-0.2273919
5	0xbe800068	-0.2500031
6	0x3f7b137f	0.98076624
7	0xbedea3f4	-0.4348446
8	0x3f492f13	0.78587455
9	0x3f5436b6	0.8289598
10	0x3ea4127f	0.3204536
11	0xbf7876c7	-0.9705624
12	0xbfa80cce	-1.3128908
13	0x3f6adff3	0.9174797
14	0x3f651f97	0.8950133
15	0x3f9f5f85	1.2451025

encoder_l3.weight_hh_l0 f4 [4, 1]
0	0xbe486f95	-0.19573815
1	0xbf0c9957	-0.5492148
2	0xbe1db23c	-0.15400022
3	0xbd04484b	-0.032295506

encoder_l3.bias_ih_l0 f4 [4]
0	0xbe99cd2a	-0.3003934
1	0x3fbf4062	1.4941523
2	0x3f2aa8a1	0.6666356
3	0x3e0098c0	0.1255827

encoder_l3.bias_hh_l0 f4 [4]
0	0x3e50c76a	0.2038857
1	0xbddb695e	-0.107134566
2	0xbf10f250	-0.5661974
3	0xbcceab1e	-0.02522808

decoder_l1.weight_ih_l0 f4 [16, 1]
0	0xbdaf9dc8	-0.08575016
1	0xbddb1ddc	-0.106990546
2	0xbed910fa	-0.42395765
3	0xbeafbf12	-0.34325463
4	0xbed79826	-0.42108268
5	0xbef63716	-0.48088902
6	0x3c2fa2b9	0.010719948
7	0xbf041cc4	-0.5160639
8	0x3f1cda61	0.6127072
9	0x3f1e36cf	0.6180238
10	0x3f846fc6	1.034661
11	0xbf9e628a	-1.2373822
12	0xbe78daba	-0.24302188
13	0xbf1e4969	-0.61830765
14	0xbf14b685	-0.58091
15	0xbf2be4a8	-0.67145777

decoder_l1.weight_hh_l0 f4 [16, 4]
0	0x3ea54c92	0.3228498
1	0xbce04f6b	-0.02738162
2	0xbf080cc2	-0.53144467
3	0x3e965a80	0.2936592
4	0x3cb88900	0.022526264
5	0xbe40f232	-0.1884239
6	0xbe7fba2f	-0.24973367
7	0x3c33ddb4	0.010978151
8	0xbd445f82	-0.047942646
9	0xbdc89e86	-0.09795861
10	0xbda80330	-0.08203733
11	0xbe831a92	-0.2560621
12	0xbeb60551	-0.3555093
13	0xbc6c6bf6	-0.014430037
14	0x3eb239d4	0.34809744
15	0xbebffbc6	-0.37496775
16	0x3eb88d15	0.36045137
17	0x3ed014e9	0.40640953
18	0xbe585d8b	-0.21129434
19	0x3e5c1d20	0.21495485
20	0xbe0fa881	-0.14029123
21	0xbf054e81	-0.5207291
22	0x3e9b03de	0.30276388
23	0xbc0c2872	-0.008554565
24	0xbf459842	-0.7718545
25	0x3e0b5ea0	0.13610315
26	0xbe47b280	-0.19501686
27	0xbe4ca552	-0.1998494
28	0xbf1cf9fa	-0.61318934
29	0xbe4e23fe	-0.20130917
30	0xbde4d806	-0.11174016
31	0xbf03cc04	-0.5148318
32	0x3e026ac4	0.1273604
33	0xbe4a76d8	-0.19771898
34	0xbea5d260	-0.32387066
35	0x3ecc3bb1	0.3988929
36	0x3da4ea9e	0.08052562
37	0x3e375460	0.1790328
38	0xbe90f0bf	-0.28308675
39	0x3f21efa3	0.6325628
40	0xbd9beaff	-0.07613181
41	0xbf2bea36	-0.6715425
42	0xbe813d8f	-0.25242278
43	0x3e2125a0	0.15737009
44	0xbf0bbe19	-0.5458694
45	0x3c453e92	0.012038844
46	0x3cad12d5	0.021127144
47	0xbe14946f	-0.14509748
48	0xbddc512f	-0.10757672
49	0x3d9ede6f	0.077572696
50	0xbf017ca1	-0.50580794
51	0x3ec2aea6	0.3802387
52	0xbe29af7a	-0.16570845
53	0xbef197a5	-0.47186008
54	0x3eacedca	0.3377517
55	0x3ebc2cd1	0.36752942
56	0xbded5739	-0.11588902
57	0xbeb4ae60	-0.35289288
58	0xbef26eed	-0.47350255
59	0xbd970b57	-0.0737521
60	0xbe69ff44	-0.22851282
61	0x3e3ace15	0.18242677
62	0xbea2cb09	-0.3179553
63	0x3cb98389	0.022645729

decoder_l1.bias_ih_l0 f4 [16]
0	0x3f7fa7cd	0.9986542
1	0x3f5d5cb1	0.8646956
2	0x3ea7e332	0.32790524
3	0x3e7605e3	0.24025683
4	0x3ec646b5	0.3872582
5	0x3d7ff419	0.06248865
6	0x3d16b73d	0.036795843
7	0xbe8c7fa9	-0.27441147
8	0x3cda90a1	0.026680293
9	0x3ed759f1	0.42060807
10	0x3daf9f8b	0.08575352
11	0xbe5734c7	-0.21016227
12	0x3ecf9e9d	0.405507
13	0x3ee96c91	0.45590642
14	0x3f093aaa	0.5360514
15	0x3f681310	0.9065409

decoder_l1.bias_hh_l0 f4 [16]
0	0x3f356cb5	0.70869
1	0x3f82439e	1.0176885
2	0x3f57ba46	0.84268606
3	0x3f4c8f1f	0.79905885
4	0x3e9a5eaf	0.30150363
5	0x3e159aee	0.14609882
6	0x3e000b25	0.12504251
7	0xbeb2b6cf	-0.34905097
8	0x3bed7845	0.0072470033
9	0xbedd598e	-0.43232387
10	0xbdbbd795	-0.091719784
11	0x3e687b0d	0.2270319
12	0x3f7d20ab	0.9887797
13	0x3f3ef412	0.7459117
14	0x3f1f2b40	0.6217537
15	0x3f883d21	1.0643655

decoder_l2.weight_ih_l0 f4 [32, 4]
0	0xbf7d0cfd	-0.98847944
1	0xbf425678	-0.7591319
2	0xbf5539fe	-0.83291614
3	0x3ef22639	0.47294787
4	0x3ec1a19e	0.37818617
5	0x3d5ce945	0.0539334
6	0xbe6c1bd1	-0.23057486
7	0xbe75a7eb	-0.23989837
8	0xbf226ed6	-0.6345037
9	0xbf2fc989	-0.68666893
10	0xbf708e83	-0.93967456
11	0x3eb5f858	0.35541034
12	0xbed70bd1	-0.42001203
13	0xbe1637bc	-0.14669698
14	0xbe931454	-0.28726447
15	0x3e7ed037	0.24884115
16	0xbf353e61	-0.7079831
17	0xbeff6eb9	-0.49889162
18	0xbf566b78	-0.83757734
19	0x3e5a88b3	0.21341209
20	0xbf4e2004	-0.805176
21	0xbf20a338	-0.6274905
22	0xbf41f29c	-0.7576082
23	0x3df23db8	0.11828178
24	0xbf5c1b9e	-0.8597964
25	0xbeef9879	-0.46796015
26	0xbe332183	-0.17493252
27	0x3f27903b	0.65454453
28	0xbef699c3	-0.48164186
29	0xbe8b3049	-0.27185276
30	0xbe516eaa	-0.20452371
31	0x3f37b2f4	0.71757436
32	0xbf1a64fd	-0.60310346
33	0xbed2f231	-0.41200402
34	0xbe92cd00	-0.28672028
35	0xbea67e96	-0.32518452
36	0xbea7a891	-0.32745793
37	0xbf179be2	-0.59222233
38	0xbc4d2509	-0.012521037
39	0x3e53a655	0.2066892
40	0xbf7181ed	-0.94338876
41	0xbeff762b	-0.49894843
42	0xbebbb0e3	-0.3665839
43	0x3e951d27	0.29123804
44	0xbf2ce86d	-0.67542154
45	0x3da994e0	0.08280349
46	0x3e6c2388	0.23060429
47	0x3e9d059c	0.30668342
48	0xbe8aaa28	-0.27082944
49	0xbe8a59be	-0.27021593
50	0x3eacb5ee	0.3373255
51	0xbe8f855c	-0.28031433
52	0xbec2560a	-0.37956268
53	0xbf194172	-0.59865487
54	0xbe07d5e1	-0.13265182
55	0x3e77ec40	0.24211216
56	0xbf0ee093	-0.55811423
57	0xbebdae5b	-0.37047085
58	0xbe52e075	-0.20593436
59	0x3e58d99f	0.21176766
60	0xbf5b4d67	-0.8566498
61	0xbecaa34a	-0.39577705
62	0xbe949c50	-0.29025507
63	0x3f1ec42e	0.62018096
64	0x3e952ec1	0.29137233
65	0x3f46f5c3	0.7771875
66	0x3e2c40d6	0.16821608
67	0xbf088d74	-0.5334084
68	0xbead9327	-0.3390133
69	0xbe78408d	-0.24243374
70	0xbecb59fa	-0.39717084
71	0x3cac3b6c	0.021024428
72	0x3f5285f1	0.8223563
73	0x3f61d5a0	0.8821659
74	0x3f0d4a53	0.55191535
75	0xbe92e119	-0.2868736
76	0x3ef3b816	0.47601384
77	0x3e9ef422	0.31045634
78	0x3e4e31a5	0.20136125
79	0xbefa2397	-0.48855278
80	0x3f28858c	0.65828776
81	0x3f2eb98e	0.68251884
82	0xbd69cd4d	-0.057080556
83	0xbe9ae152	-0.3025003
84	0x3e681eab	0.22667949
85	0x3f80d39b	1.0064577
86	0x3f14e296	0.5815824
87	0xbe7513a0	-0.23933268
88	0x3f0240a7	0.508799
89	0x3f425f28	0.75926447
90	0x3eb1e554	0.34745276
91	0xbcf7a0ee	-0.030228104
92	0xbe8a4354	-0.27004492
93	0xbf3818c3	-0.71912783
94	0xbf00ff26	-0.50389326
95	0x3e26b5cb	0.16280286
96	0xbf319fba	-0.6938435
97	0xbeabac4e	-0.33529896
98	0xbec4a636	-0.3840806
99	0x3e2fb74f	0.1715977
100	0x3e6ecfe3	0.2332149
101	0xbd8df47d	-0.06931398
102	0xbda32eae	-0.07967888
103	0xbd85c6ff	-0.06532096
104	0xbf6f4559	-0.9346519
105	0xbf649a69	-0.8929811
106	0xbedf7d79	-0.43650416
107	0x3f322367	0.6958527
108	0xbec74257	-0.389178
109	0xbeed77f8	-0.4638059
110	0xbec9f5ad	-0.39445248
111	0x3e72e02a	0.23718324
112	0xbf5e2561	-0.86775786
113	0xbf00f114	-0.50367856
114	0xbe0512df	-0.1299548
115	0x3e4b8138	0.19873512
116	0xbef09e60	-0.4699583
117	0xbe68f602	-0.22750095
118	0xbeb53b56	-0.35396832
119	0x3f2b0ed8	0.66819525
120	0xbf249ac0	-0.6429863
121	0xbf21f2bc	-0.6326101
122	0x3b030bc3	0.0019996024
123	0xbc404a38	-0.011736445
124	0xbf09dc22	-0.5385152
125	0xbe939831	-0.2882705
126	0xbbd80a3c	-0.006593017
127	0x3f208a24	0.62710786

decoder_l2.weight_hh_l0 f4 [32, 8]
0	0x3d9ec86e	0.07753073
1	0xbe1f0747	-0.1553012
2	0x3e92c379	0.2866476
3	0x3e3ecaf9	0.18632115
4	0x3e20e91e	0.15713927
5	0xbe3da279	-0.1851901
6	0xbe1b1eed	-0.15148516
7	0x3e9962c0	0.29958153
8	0x3d3c9aa8	0.04604593
9	0xbd2706ea	-0.04077808
10	0x3e5641b3	0.209235
11	0x3e16e76a	0.14736715
12	0x3dc15470	0.09439933
13	0x3da953ae	0.08267914
14	0x3e96da67	0.29463503
15	0xbe58b3ed	-0.21162386
16	0xbd8663ba	-0.0656199
17	0x3ec564b3	0.3855339
18	0xbf0b5c22	-0.5443746
19	0xbf1deb15	-0.6168683
20	0x3d1b4b1f	0.037913438
21	0x3dfd4204	0.12366107
22	0xbe302de2	-0.17205003
23	0x3f1c9d5f	0.6117763
24	0x3df7ec4b	0.12105616
25	0x3f23f7c9	0.64049965
26	0x3e5bbebe	0.21459481
27	0xbecd54ac	-0.40103662
28	0xbea173a0	-0.31533527
29	0xbda2ed1b	-0.079553805
30	0xbdbc1c2b	-0.0918506
31	0xbd4eedcf	-0.05051976
32	0x3eb9c22e	0.3628096
33	0x3f368ba3	0.7130682
34	0xbd2e3262	-0.042528518
35	0x3e32cc54	0.17460757
36	0x3e4727b9	0.19448747
37	0xbe6287ff	-0.22122191
38	0xbe57359e	-0.21016547
39	0x3e12f256	0.14350256
40	0x3e59fed3	0.21288614
41	0x3f27a757	0.65489715
42	0x3e10a13c	0.14124006
43	0xbe6ffbc8	-0.2343589
44	0x3e178eef	0.14800619
45	0xbe69b19c	-0.22821659
46	0x3ddef607	0.1088677
47	0xbd4e7b15	-0.05041035
48	0x3e614158	0.21997583
49	0x3e826113	0.25464687
50	0x3e6125ae	0.2198703
51	0xbd935958	-0.07194775
52	0xbdc50e8f	-0.096219175
53	0x3e6384d0	0.22218633
54	0x3e513f47	0.20434295
55	0x3ee01538	0.4376619
56	0x3e463ed0	0.19359899
57	0x3ec2c833	0.38043365
58	0xbee89a61	-0.45430282
59	0xbeea1b8b	-0.4572414
60	0x3e01f27d	0.12690158
61	0xbe4b819f	-0.19873665
62	0x3dbc32f4	0.09189406
63	0x3eb1905d	0.34680453
64	0x3d2e8614	0.042608336
65	0xbde64755	-0.11244074
66	0x3e3805ce	0.17970964
67	0xbe13d290	-0.14435792
68	0xbd9345c7	-0.07191043
69	0x3e2aa875	0.16665824
70	0x3dd8f6ca	0.10593946
71	0x3ee305a6	0.44340247
72	0xbde550bc	-0.111970395
73	0x3e89b78d	0.2689785
74	0xbee36f8f	-0.4442105
75	0xbe56b4d9	-0.20967425
76	0x3e2b2e1b	0.16716807
77	0x3e4fab01	0.20280077
78	0xbefac4df	-0.48978326
79	0x3f054def	0.5207204
80	0x3e99ad40	0.30014992
81	0x3eb0dbbb	0.3454264
82	0x3e4a3088	0.19745076
83	0xbdbcbe73	-0.09216013
84	0xbe561950	-0.20908093
85	0x3e5aedf9	0.21379842
86	0xbdfe0907	-0.124040656
87	0xbd84983f	-0.06474351
88	0xbe027760	-0.1274085
89	0x3e65e87b	0.22451966
90	0x3d774a5d	0.060373653
91	0x3e1d1bcd	0.15342636
92	0xbe0c0e95	-0.13677438
93	0xbe94dc5a	-0.29074365
94	0x3e589282	0.21149638
95	0xbe8c2219	-0.27369764
96	0x3e877e37	0.26463482
97	0xbd21d74f	-0.039511975
98	0x3e7e8a26	0.24857387
99	0x3eaf013d	0.34180632
100	0xbe7b3141	-0.24530508
101	0x3e8ea48c	0.27859914
102	0xbe8e5345	-0.27797905
103	0xbe837754	-0.25676978
104	0xbe0320da	-0.128055
105	0xbc354d24	-0.011065755
106	0xbe927fbb	-0.28613076
107	0xbe8aeb82	-0.27132803
108	0x3e8d1be7	0.2756035
109	0x3e5513ef	0.20808385
110	0x3e84470a	0.25835449
111	0x3ea82a20	0.3284464
112	0xbeaa0df6	-0.33213776
113	0x3eddc61e	0.43315214
114	0xbc8b0489	-0.016969936
115	0x3e64f1e6	0.22357902
116	0x3e89eb75	0.26937452
117	0x3df71d3e	0.120661244
118	0x3e78b09f	0.24286126
119	0x3d16bf56	0.036803566
120	0x3c8417f9	0.016124712
121	0x3f1bfdbc	0.6093404
122	0xbc22b497	-0.009930751
123	0xbec8b7da	-0.39202768
124	0xbeb9ec36	-0.36313027
125	0xbe6f634d	-0.23377724
126	0xbeaeff8b	-0.3417934
127	0x3e50aec2	0.20379165
128	0xbde13f2b	-0.109983765
129	0xbe22ee59	-0.15911235
130	0xbd428207	-0.047487285
131	0x3cda1b1c	0.026624255
132	0xbeb431ad	-0.3519415
133	0x3da343b9	0.079719014
134	0xbe8617ab	-0.26189932
135	0xbe9c2f6a	-0.30504924
136	0xbb1448c3	-0.0022626377
137	0xbe78bf3d	-0.24291702
138	0x3d4caa34	0.049967006
139	0xbdb1d9f6	-0.08684151
140	0xbecccfda	-0.40002328
141	0x3e79e3e3	0.24403338
142	0x3d401d7c	0.04690312
143	0xbe3be00c	-0.18347186
144	0xbe116adb	-0.14200918
145	0xbe5ff802	-0.21871951
146	0xbed9956d	-0.42496815
147	0x3d425e22	0.047453053
148	0xbea765b6	-0.32694787
149	0xbdd5f5f7	-0.10447305
150	0x3c9b3696	0.018946927
151	0xbea8ba58	-0.3295467
152	0xbbb18c8e	-0.0054183668
153	0x3e74aaca	0.23893276
154	0xbe5b6ff3	-0.21429424
155	0xbe1ae3d7	-0.15125977
156	0x3e5c02bc	0.21485418
157	0xbe9471e7	-0.2899315
158	0xbcb03f46	-0.021514546
159	0xbb44ca60	-0.0030027851
160	0x3bcf59e6	0.0063278554
161	0xbe0a38f4	-0.13498288
162	0x3d0c6b6c	0.034282133
163	0xbe1ce230	-0.15320659
164	0xbebe034c	-0.3711189
165	0xbeea8163	-0.4580184
166	0xbec8d427	-0.3922436
167	0xbd9ffd80	-0.07812023
168	0x3db0ba63	0.086293004
169	0xbcc06372	-0.02348492
170	0xbee454a6	-0.44595832
171	0xbe1fa7d8	-0.15591371
172	0x3e406cc4	0.18791491
173	0xbe99f991	-0.30073217
174	0x3e41daf4	0.1893118
175	0xbe7c1c5b	-0.24620192
176	0xbdaf2bfc	-0.08553311
177	0x3e65e152	0.22449234
178	0xbe7ccae4	-0.24686772
179	0xbee3c2e5	-0.4448463
180	0xbe8beb9d	-0.27328196
181	0xbdce233f	-0.100653164
182	0xbe06e1d6	-0.13172087
183	0xbe99ad95	-0.30015245
184	0xbe126621	-0.14296772
185	0xbdd8a9fa	-0.105792955
186	0x3ec73b31	0.38912347
187	0x3dcc1c6e	0.0996636
188	0x3d46f208	0.048570663
189	0xbe852582	-0.2600518
190	0xbe309d86	-0.1724759
191	0xbca6b0c3	-0.020347958
192	0x3e50d016	0.20391878
193	0xbd75fe74	-0.06005712
194	0xbea035f8	-0.31291175
195	0xbddaa9fc	-0.10676953
196	0xbea716f4	-0.326347
197	0x3da0d07c	0.07852265
198	0x3dff7fd4	0.12475553
199	0x3e8ead81	0.27866748
200	0xbe0f3846	-0.1398631
201	0x3eca86dc	0.39556015
202	0xbe9f83d9	-0.3115528
203	0x3e67a6e9	0.22622265
204	0xbeb54560	-0.3540449
205	0xbec427c2	-0.38311583
206	0x3d06099d	0.03272401
207	0x3e8ecb6e	0.2788958
208	0xbe5756d7	-0.2102922
209	0x3ec7094d	0.38874283
210	0xbea2c676	-0.3179204
211	0xbe5476b3	-0.20748405
212	0xbebebf92	-0.37255532
213	0xbefd94b9	-0.4952753
214	0xbdeece5b	-0.11660453
215	0x3eea4ebc	0.45763195
216	0x3d0f0893	0.034920286
217	0x3da66344	0.08124402
218	0x3e0f745c	0.14009231
219	0x3e09384b	0.1340038
220	0xbe32839a	-0.17433015
221	0xbe442214	-0.19153625
222	0x3e04d515	0.1297191
223	0x3d896bbd	0.067100026
224	0x3e91a692	0.28447396
225	0x3eeb904f	0.46008536
226	0xbdebcf72	-0.115141764
227	0xbe48a8ab	-0.19595592
228	0xbc97bb8e	-0.01852205
229	0x3eae526b	0.34047255
230	0x3da337c2	0.07969619
231	0xbd46dd87	-0.04855111
232	0xbd9fcca2	-0.078027025
233	0x3dcd6343	0.10028698
234	0xbe934fd8	-0.28771853
235	0x3d33a2f1	0.043856565
236	0x3e6eb688	0.23311818
237	0xbe43586d	-0.190767
238	0x3e8f68fd	0.28009787
239	0x3edc5c3a	0.43039113
240	0x3e004b53	0.12528734
241	0x3ebc5084	0.3678018
242	0x3d076536	0.033055507
243	0xbccbc24c	-0.024872921
244	0xbdb94993	-0.09047236
245	0x3d810e73	0.06301584
246	0x3d97c1c1	0.074100025
247	0xbdf9ef9a	-0.122039035
248	0x3e8a7ca8	0.2704823
249	0x3c610533	0.01373415
250	0xbddf5c69	-0.10906298
251	0xbe078c61	-0.13237144
252	0xbed1ee0a	-0.41001922
253	0x3deddf09	0.11614806
254	0xbc156796	-0.009118935
255	0x3eb39fd7	0.35082886

decoder_l2.bias_ih_l0 f4 [32]
0	0x3e6efc80	0.23338509
1	0x3eb3a796	0.35088795
2	0x3e3c4bb0	0.18388247
3	0x3f12bb9c	0.5731752
4	0x3f09eea6	0.53879774
5	0x3f096d61	0.53682524
6	0x3ed1e372	0.4099384
7	0x3efff068	0.49988103
8	0xbe91f41a	-0.28506547
9	0x3e03c420	0.12867785
10	0xbf0216f0	-0.5081625
11	0x3e20c23f	0.15699099
12	0x3da2e3e0	0.0795362
13	0xbd188cc0	-0.037243605
14	0xbe83931e	-0.2569818
15	0xbda73c88	-0.08165842
16	0xbe614f1c	-0.22002834
17	0xbc107f1f	-0.0088193705
18	0xbd24648d	-0.040134955
19	0x3cde6144	0.02714599
20	0xbe6d4ef4	-0.2317465
21	0xbd2251bf	-0.03962874
22	0x3b53d9cf	0.003232587
23	0xbdb04f56	-0.08608882
24	0xbdb8c381	-0.090216644
25	0x3f08c319	0.53422695
26	0x3ec7e939	0.39045122
27	0xbdd71c8d	-0.105034925
28	0x3ee9824e	0.45607227
29	0xbd5df811	-0.054191653
30	0x3d20c3d9	0.039249275
31	0x3ed573a0	0.41689777

decoder_l2.bias_hh_l0 f4 [32]
0	0xbe869ab4	-0.26289904
1	0x3e094373	0.13404636
2	0x3e315be6	0.17320213
3	0xbd9a8ded	-0.075466014
4	0xbc903ed6	-0.017608088
5	0xbe1c71fb	-0.15277855
6	0x3e3e6457	0.18592964
7	0xbda738b7	-0.081651144
8	0xbd5e636e	-0.054294042
9	0x3e8e8bc7	0.27841017
10	0x3c7bf47b	0.015378113
11	0xbe9844e2	-0.29740053
12	0xbd88499c	-0.06654665
13	0x3df8827d	0.12134264
14	0x3d4778c5	0.04869916
15	0x3d4cf68a	0.050039805
16	0xbdd9c448	-0.10633141
17	0xbe967d58	-0.29392505
18	0xbdb23417	-0.087013416
19	0xbdf18d20	-0.117944956
20	0x3bdf7604	0.0068194885
21	0xbdca3a26	-0.09874372
22	0xbe18609d	-0.14880605
23	0xbc32f408	-0.010922439
24	0x3f05d991	0.52285105
25	0x3f095d2e	0.53657806
26	0x3f1d1a17	0.61367935
27	0x3e826995	0.25471178
28	0x3eb1bc1b	0.34713826
29	0x3f0b037a	0.5430218
30	0x3e339b24	0.1753965
31	0x3cded1ea	0.027199704

decoder_l3.weight_ih_l0 f4 [64, 8]
0	0xbe6ce5b7	-0.23134504
1	0x3e2ade51	0.1668637
2	0xbe25bab1	-0.16184498
3	0xbc8afd06	-0.016966354
4	0xbd1df5e5	-0.03856458
5	0xbe8588b4	-0.2608086
6	0xbd15188b	-0.03640036
7	0x3eb55c2c	0.35421884
8	0xbe4a8e37	-0.19780813
9	0xbd3808ec	-0.044930384
10	0xbc16a85a	-0.009195412
11	0xbccfd253	-0.025368845
12	0xbea75226	-0.32679862
13	0xbe6da9ab	-0.23209254
14	0xbe3a6220	-0.18201494
15	0x3e88f8dc	0.26752365
16	0x3dbe017f	0.09277629
17	0x3cb6be1e	0.022307452
18	0xbe0cae86	-0.1373845
19	0x3e2acfac	0.16680783
20	0xbe489b5d	-0.19590516
21	0x3da4f97e	0.08055399
22	0xbe456230	-0.19275737
23	0xbe2b12d1	-0.16706397
24	0x3d8e2ee9	0.06942541
25	0xbdcf217e	-0.1011381
26	0xbdfe11e2	-0.124057546
27	0xbeaca509	-0.33719662
28	0x3d11a904	0.035561576
29	0xbe97bc6e	-0.29635948
30	0xbdc7e7e0	-0.097610235
31	0xbd13f97b	-0.036126595
32	0xbd8255fa	-0.06364055
33	0x3e699545	0.22810848
34	0x3e32dd13	0.17467146
35	0xbd88134e	-0.06644307
36	0x3c25081d	0.010072735
37	0x3d02d2e5	0.031939406
38	0x3e658d3c	0.22417158
39	0xbe904a07	-0.28181478
40	0x3e1253e9	0.14289822
41	0x3dbd234f	0.0923525
42	0x3e325f0c	0.1741907
43	0xbe82bfff	-0.25537106
44	0x3d9687f0	0.07350147
45	0xbe298400	-0.1655426
46	0x3e047fe1	0.12939407
47	0x3e854bf5	0.26034513
48	0xbe38413f	-0.1799364
49	0x3eeec321	0.46633247
50	0xbe8bda39	-0.27314928
51	0x3d682986	0.056680225
52	0xbe966e90	-0.29381227
53	0x3e84d2b9	0.2594202
54	0x3de6541d	0.11246512
55	0x3d62a348	0.0553315
56	0xbe31e4a3	-0.17372374
57	0x3d187115	0.03721722
58	0x3de993a4	0.11405113
59	0x3e8e61e0	0.27809048
60	0x3d5649d4	0.0523165
61	0x3e7ed983	0.24887662
62	0xbe127a1f	-0.14304398
63	0xbe9f37c7	-0.31097242
64	0x3da88a2c	0.08229479
65	0x3e1b9c6a	0.15196386
66	0xbd8bd7aa	-0.06828244
67	0x3d9af813	0.07566848
68	0xbe88a495	-0.26688066
69	0x3cdbdad1	0.026837738
70	0x3e235e0c	0.15953845
71	0xbb78b6aa	-0.0037950673
72	0xbdc52668	-0.09626466
73	0x3d2abcfa	0.04168413
74	0x3e3457a3	0.17611556
75	0x3da14314	0.07874122
76	0x3da76ae3	0.08174684
77	0xbe278435	-0.16359027
78	0x3e5b53a4	0.21418625
79	0xbdb237aa	-0.08702023
80	0x3d154f88	0.0364528
81	0x3e3a6fef	0.18206762
82	0xbe46d229	-0.19416107
83	0xbe54bf53	-0.2077611
84	0xbd001bc1	-0.03127647
85	0xbdd71af0	-0.10503185
86	0x3c40d68a	0.0117699
87	0x3e476e8b	0.19475763
88	0xbe9c52a7	-0.3053181
89	0x3ec0886a	0.37604076
90	0xbeb549ef	-0.3540797
91	0xbea1a762	-0.31573015
92	0xbea86e9a	-0.32896882
93	0x3c2b6c1d	0.010462788
94	0xbec8a2ee	-0.39186805
95	0x3ea08d87	0.31357977
96	0x3e81560c	0.2526096
97	0x3e1e645d	0.15467973
98	0x3e72b8f0	0.2370336
99	0x3dfb550d	0.122720815
100	0xbe5f5036	-0.21807942
101	0x3e60edeb	0.21965759
102	0xbe067176	-0.1312922
103	0xbd9b8201	-0.07593156
104	0xbc9f8bea	-0.019475896
105	0x3ea8d192	0.3297239
106	0xbe333733	-0.17501526
107	0xbe6e724a	-0.23285785
108	0xbbcb7b35	-0.006209756
109	0x3cac076b	0.02099963
110	0xbe43cbf9	-0.19120778
111	0xbe614308	-0.21998227
112	0xbd683be2	-0.056697734
113	0xbc87efff	-0.016593931
114	0xbd9caa5d	-0.07649682
115	0xbe27df48	-0.16393769
116	0xbe8ad385	-0.27114502
117	0x3e0a8455	0.13527043
118	0xbdc49d5c	-0.096003264
119	0xbdc91a0f	-0.098194234
120	0x3dce9775	0.10087482
121	0x3ebbde11	0.3669286
122	0x3dd0cc2f	0.10195195
123	0xbe16027d	-0.14649387
124	0xbd9286e9	-0.07154638
125	0xbeb1d264	-0.34730828
126	0xbeaccf13	-0.33751735
127	0xbead8037	-0.33886883
128	0x3dcbfc75	0.09960262
129	0x3ea57a65	0.32319942
130	0xbe04c5ff	-0.12966155
131	0xbe51272f	-0.20425104
132	0x3d89fdf8	0.06737894
133	0x3e21de90	0.15807557
134	0x3e465b0a	0.19370666
135	0x3e2321b9	0.15930833
136	0x3dd028fe	0.10164069
137	0x3ce2ee1f	0.027701436
138	0x3e969db2	0.29417187
139	0xbdba51ed	-0.09097657
140	0x3ed3ad43	0.41343126
141	0x3ec09e7c	0.37620914
142	0x3e8867fb	0.2664183
143	0x3c51a9ec	0.01279686
144	0x3ec2007b	0.37890992
145	0x3ed28ea4	0.4112445
146	0x3d75abbc	0.05997823
147	0xbd8bd77c	-0.0682821
148	0x3e45c240	0.19312382
149	0x3de21f63	0.11041143
150	0x3ec2a97e	0.38019937
151	0x3d95cc06	0.07314305
152	0xbd3f5a06	-0.046716712
153	0xbc30b6e9	-0.010785797
154	0x3e1b6290	0.15174317
155	0x3e796b19	0.24357261
156	0xbd154bd3	-0.036449265
157	0x3e809cda	0.25119668
158	0x3e7ed908	0.24887478
159	0xbe21b13d	-0.15790267
160	0x3dd82b98	0.1055519
161	0x3ea24620	0.31694126
162	0x3dedabf1	0.11605061
163	0x3e32b9d8	0.17453706
164	0x3ee9a0f4	0.4563061
165	0x3b816809	0.0039491695
166	0x3be1a00c	0.006885534
167	0xbe076bcf	-0.1322472
168	0x3e9196f8	0.28435493
169	0x3d497a43	0.049188863
170	0xbdb7df3d	-0.08978126
171	0x3eaf69a1	0.34260276
172	0x3cca999f	0.024731455
173	0x3eacadae	0.33726257
174	0x3ea18500	0.31546783
175	0xbd8b5178	-0.06802648
176	0x3e3f21d4	0.18665248
177	0x3e0eb863	0.13937525
178	0x3ded77d3	0.1159512
179	0x3e31ce30	0.1736381
180	0x3d977005	0.07394413
181	0x3e1e9c8f	0.1548941
182	0xbab65193	-0.0013909809
183	0xbe26a5ca	-0.16274181
184	0xbd6c48b5	-0.057686526
185	0x3ec2b64f	0.38029715
186	0x3d861f50	0.06548941
187	0xbe25222f	-0.16126321
188	0xbe29d95d	-0.16586824
189	0x3d926a10	0.07149136
190	0xbd0323e1	-0.03201664
191	0xbd084adc	-0.033274516
192	0xbca248d4	-0.019810118
193	0x3d95924f	0.07303297
194	0xbd85e1e7	-0.06537228
195	0x3cab3427	0.020898892
196	0x3dc8a887	0.09797769
197	0x3e006169	0.12537159
198	0x3d2b1666	0.041769408
199	0x3e186958	0.14883935
200	0x3e8669b6	0.26252526
201	0x3e430686	0.19045457
202	0x3e999b70	0.30001402
203	0xbdfe2475	-0.124092974
204	0x3dbd4d38	0.09243244
205	0x3e1e4c62	0.15458825
206	0x3ea92652	0.3303705
207	0x3cf5d44b	0.030008456
208	0x3ea52901	0.32257846
209	0x3e20f33b	0.15717785
210	0x3e68ec19	0.22746314
211	0xbdbf5d4e	-0.09343968
212	0x3db8a5e7	0.09016018
213	0x3ed53220	0.41639805
214	0x3dd10a5a	0.102070525
215	0x3e134690	0.14382386
216	0x3e134eaf	0.14385484
217	0x3eb1672c	0.34649026
218	0x3d017498	0.031605333
219	0x3eabf51e	0.33585447
220	0x3e8bd921	0.27314094
221	0x3ea08c4d	0.3135704
222	0xbd9950ed	-0.074861385
223	0xbd80ffcb	-0.06298789
224	0xbd0b8221	-0.034059647
225	0x3eff5fee	0.49877876
226	0x3e275291	0.1634009
227	0xbe5d96d2	-0.21639565
228	0xbe3671f7	-0.17816912
229	0x3db58625	0.08863477
230	0xbc5eb920	-0.013593942
231	0xbdd0f59f	-0.102030985
232	0x3df54f34	0.119779974
233	0x3ed7ebf6	0.4217221
234	0x3e1acb2e	0.1511657
235	0xbca13415	-0.019678155
236	0x3dbf22ec	0.09332833
237	0xbdb9ee5a	-0.09078665
238	0x3c1c3627	0.009534395
239	0x3e0936b5	0.13399775
240	0x3d4ba1b0	0.049714744
241	0x3d8b1f94	0.067931324
242	0x3e8aec4a	0.271334
243	0x3ebb72c5	0.36611
244	0x3d9eb0ba	0.07748552
245	0x3e2efbb4	0.17088205
246	0xbd4ea003	-0.050445568
247	0xbd75de6e	-0.06002658
248	0xbe4413c0	-0.19148159
249	0x3e9f6842	0.3113423
250	0x3d907a26	0.07054548
251	0xbd97be14	-0.074093014
252	0x3d688630	0.056768596
253	0xbe25b69c	-0.16182941
254	0x3da11dcf	0.07867014
255	0x3cbe9109	0.023262518
