models/best_model.pth (torch, 117602 bytes, 14 tensors)

conv1d.weight f4 [64, 5, 3]
0.20424268 -0.0719078 -0.033799335 0.14979659 -0.10298387 0.095915675 -0.06998262 0.2707598
0.11765998 0.16048236 0.2066373 -0.20097601 0.15732452 0.09499282 0.15117776 0.13779286
0.0731538 0.100742154 -0.03746554 -0.08057651 0.09167591 0.22174871 -0.16202681 -0.105093434
0.106797054 -0.03788923 0.19883326 -0.10536346 0.13283212 -0.1355689 -0.14739983 -0.13520758
0.08167231 -0.1045351 0.2218477 -0.1926333 -0.054519504 -0.18259017 0.14691097 0.18107228
0.14805353 0.083120525 -0.0644288 -0.21860296 -0.10994735 -0.010864771 0.1339543 0.1611009
0.16999476 0.060608882 -0.1827249 -0.10193 0.17155102 -0.08233712 -0.113779075 -0.014750758
-0.23668051 -0.24982929 -0.0076469965 0.061273094 -0.093291014 0.16718748 0.24376221 -0.066448
-0.08105803 -0.0186017 0.23920065 0.059735492 -0.17441632 0.022796325 -0.108407155 -0.03126164
-0.26932064 -0.09954901 -0.066746034 0.18332589 0.15216094 0.09046285 0.060179405 0.08581754
0.23251717 -0.102437034 -0.14402981 -0.103514574 -0.161861 -0.17145754 -0.20465791 -0.12626126
-0.108609945 -0.06544046 -0.17247026 0.051111005 -0.20317693 0.1595017 -0.11172707 0.12624045
-0.07461027 0.25612342 0.01180114 -0.16921254 0.26272607 -0.031474575 -0.1321017 -0.090174966
-0.22621197 -0.104095 0.15169428 0.058591854 -0.1715483 -0.14623721 -0.104848914 -0.08335036
-0.23228222 0.2728395 0.11118882 0.21906486 0.0019972667 -0.28506696 -0.13465554 -0.0986721
0.08652165 -0.2572212 0.247863 -0.19568408 -0.2073859 0.24279073 -0.20130892 0.15037681
0.02979669 0.24643342 -0.052843746 0.10886131 0.1282217 -0.10322736 -0.24754916 0.045732375
0.12820227 -0.21133389 0.005776039 0.08197726 0.06960413 -0.09690258 0.1183489 0.19978
0.08560981 -0.015000191 -0.19333866 0.086209066 -0.21634473 -0.22716255 -0.09406362 -0.102249935
-0.027840698 0.19090195 0.15494896 -0.10271582 0.2647762 0.31214365 0.101774536 -0.13552028
0.2143301 0.008556458 -0.1305558 -0.037153855 0.3082097 -0.2218509 -0.106490575 -0.036500752
-0.1394762 -0.11405578 -0.10605296 0.18599068 -0.014621892 0.053605128 0.16910954 0.09710119
0.13180469 0.15298623 0.20571528 0.057760965 0.14066906 0.032632776 0.1822784 -0.02043537
0.04336159 -0.29055282 0.048205357 0.10101165 0.0805049 0.24122572 0.034167364 0.23828946
-0.0612958 -0.21666105 0.057260875 -0.1681079 -0.04347035 -0.00879804 0.026014036 0.025147231
-0.029795645 0.124887325 -0.281481 0.02994225 0.21872231 -0.15475933 -0.13911436 0.23637044
0.17262867 0.1350713 -0.047813736 0.08385226 -0.05578125 0.04697879 -0.026461903 -0.1158865
-0.1494796 0.051327743 -0.0628858 -0.03753095 0.057978224 0.23565158 0.008410946 -0.29784065
0.05395292 0.13968356 -0.1955639 -0.08861717 -0.17046402 -0.14768627 0.12415857 0.26064846
0.17725949 0.0869428 -0.035429735 -0.2563247 0.22955559 -0.114784 -0.11737638 0.01916004
0.21272546 -0.23830406 -0.18243533 -0.23596275 -0.27276713 -0.20021525 -0.23180729 0.10507187
-0.15506262 0.031879283 -0.057509065 -0.06262348 0.19580945 -0.09501272 0.0782992 0.14097963
00000000: fe24 513e 6644 93bd 2c71 0abd 4764 193e
00000010: 35e9 d2bd 706f c43d 0c53 8fbd 07a1 8a3e
00000020: b7f7 f03d 7d55 243e ba98 533e a8cc 4dbe
00000030: ae19 213e 988b c23d 58ce 1a3e 9219 0d3e
00000040: a9d1 953d e751 ce3d 7775 19bd 4c05 a5bd
00000050: 94c0 bb3d 1812 633e 5bea 25be 3a3b d7bd
00000060: 6ab8 da3d bd31 1bbd f29a 4b3e ccc8 d7bd
00000070: 2505 083e 93d2 0abe fbef 16be db73 0abe
00000080: d043 a73d 8016 d6bd 0b2c 633e aa41 45be
00000090: d84f 5fbd ebf8 3abe d46f 163e 036b 393e
000000a0: 589b 173e 183b aa3d 3ff3 83bd 74d9 5fbe
000000b0: 142c e1bd 2702 32bc 512b 093e a2f7 243e
000000c0: 1b13 2e3e 0541 783d 3c1c 3bbe adc0 d0bd
000000d0: 12ab 2f3e 5da0 a8bd 0105 e9bd 2aad 71bc
000000e0: 605c 72be 40d3 7fbe a893 fabb 7ff9 7a3d
000000f0: 5c0f bfbd 3233 2b3e cd9c 793e e415 88bd
00000100: c101 a6bd 9862 98bc 04f1 743e 34ad 743d
00000110: 319a 32be 5cbf ba3c 9204 debd 350c 00bd
00000120: 65e4 89be 5ae0 cbbd 25b2 88bd c8b9 3b3e
00000130: 14d0 1b3e 9644 b93d ae7e 763d 1bc1 af3d
00000140: fb18 6e3e 82ca d1bd 8d7c 13be 73ff d3bd
00000150: e4be 25be 9192 2fbe d891 51be a24a 01be
00000160: e46e debd a605 86bd 0b9c 30be c659 513d
00000170: 9d0d 50be 6a54 233e 29d1 e4bd 2d45 013e
00000180: 45cd 98bd 9c22 833e 9259 413c 0d46 2dbe
00000190: 0884 863e 7ceb 00bd ab45 07be a7ad b8bd
000001a0: 1ca4 67be c22f d5bd bf55 1b3e 03fe 6f3d
000001b0: 5caa 2fbe 35bf 15be 07bb d6bd 98b3 aabd
000001c0: 64db 6dbe 9eb1 8b3e f7b6 e33d 8a52 603e
000001d0: 93e4 023b 4cf4 91be 24e3 09be 9914 cabd
000001e0: 4332 b13d 7fb2 83be cccf 7d3e 6861 48be
000001f0: f85c 54be 229e 783e ed23 4ebe 61fc 193e
00000200: 3018 f43c 0b59 7c3e af72 58bd aef2 de3d
00000210: 8d4c 033e de68 d3bd 877d 7dbe df51 3b3d
00000220: 7547 033e e967 58be ed44 bd3b b2e3 a73d
00000230: 9c8c 8e3d dc74 c6bd e860 f23d 2193 4c3e
00000240: 3254 af3d 5cc3 75bc 92fa 45be 618e b03d
00000250: 7989 5dbe 4d9d 68be 6da4 c0bd 6a68 d1bd
00000260: 2d12 e4bc cd7b 433e f1aa 1e3e ac5c d2bd
00000270: bf90 873e 4bd1 9f3e 2b6f d03d d4c5 0abe
00000280: 5a79 5b3e 6330 0c3c 6bb0 05be a42e 18bd
00000290: a9cd 9d3e e22c 63be bb17 dabd d081 15bd
000002a0: d9d2 0ebe 1496 e9bd 4b32 d9bd 5774 3e3e
000002b0: a990 6fbc 0d91 5b3d 0d2b 2d3e fddc c63d
000002c0: cff7 063e 6ca8 1c3e 07a7 523e c396 6c3d
000002d0: 8d0b 103e f2a9 053d 30a7 3a3e 1468 a7bc
000002e0: ec9b 313d 57c3 94be fb72 453d 32df ce3d
000002f0: c1df a43d e003 773e 14f3 0b3d 2702 743e
00000300: 4e11 7bbd 65dc 5dbe 618a 6a3d 7a24 2cbe
00000310: f70d 32bd a825 10bc 631b d53c 9101 ce3c
00000320: ff15 f4bc edc4 ff3d 471e 90be 7349 f53c
00000330: bef8 5f3e 3b79 1ebe ff73 0ebe 180b 723e
00000340: 92c5 303e 2250 0a3e 56d8 43bd bcba ab3d
00000350: e17a 64bd d56c 403d a2c6 d8bc e755 edbd
00000360: 2e11 19be 0a3d 523d 45ca 80bd 0eba 19bd
00000370: 937a 6d3d a64e 713e 10ce 093c 927e 98be
00000380: bdfd 5c3d 3509 0f3e e741 48be eb7c b5bd
00000390: 1f8e 2ebe 123b 17be d946 fe3d b773 853e
000003a0: 8383 353e 110f b23d c51e 11bd fe3c 83be
000003b0: 9f10 6b3e e013 ebbd 0763 f0bd 84f5 9c3c
000003c0: b4d4 593e fb05 74be 54d0 3abe 38a0 71be
000003d0: 22a8 8bbe 3a05 4dbe e45e 6dbe ec2f d73d
000003e0: bcc8 1ebe da93 023d a08e 6bbd bd40 80bd
000003f0: 4682 483e 0796 c2bd 555b a03d f75c 103e

conv1d.bias f4 [64]
-0.040371757 -0.33082247 0.2900923 -0.17521226 0.19626063 0.31291053 -0.12198876 -0.27390027
-0.016800724 -0.10754081 0.15129346 -0.26246136 -0.19802879 -0.0064047775 0.28023854 0.14727177
0.20194426 0.20489767 0.16233413 0.120717436 0.15449414 0.07706502 0.03280013 0.023197
-0.08208472 -0.16302644 0.088042095 0.13104221 0.03624498 -0.0650885 -0.27489865 -0.17632453
0.022750985 -0.34380722 0.0108711915 0.2079422 0.11202524 0.049729057 0.23587237 -0.04062594
-0.1561008 -0.12098592 0.24875402 -0.11454815 0.26162624 -0.13990495 0.1383199 -0.011524782
-0.03648205 -0.30221632 -0.021227598 0.27293602 -0.26823956 -0.027363272 0.13182737 -0.123908974
-0.2562674 -0.27598542 -0.20269194 -0.13582246 -0.16969036 -0.3145585 -0.40296775 -0.32300568
00000000: db5c 25bd 9061 a9be fa86 943e d86a 33be
00000010: 8cf8 483e cf35 a03e 3ed5 f9bd a83c 8cbe
00000020: aca1 89bc 5b3e dcbd acec 1a3e 5661 86be
00000030: 0fc8 4abe 2bdf d1bb 6d7b 8f3e 69ce 163e
00000040: 7aca 4e3e b2d0 513e eb3a 263e b43a f73d
00000050: b633 1e3e 44d4 9d3d 6e59 063d a307 be3c
00000060: 091c a8bd 67f0 26be 6a4f b43d ee2f 063e
00000070: 9e75 143d 1f4d 85bd 84bf 8cbe 6b8e 34be
00000080: 4660 ba3c 8007 b0be 151d 323c cdee 543e
00000090: 7d6d e53d b2b0 4b3d 8788 713e 6367 26bd
000000a0: e3d8 1fbe 77c7 f7bd 60b9 7e3e 3898 eabd
000000b0: e0f3 853e 3e43 0fbe bba3 0d3e 70d2 3cbc
000000c0: 346e 15bd 19bc 9abe 80e5 adbc 45be 8b3e
000000d0: b256 89be f128 e0bc c1fd 063e fdc3 fdbd
000000e0: 7b35 83be f64d 8dbe 7a8e 4fbe 0b15 0bbe
000000f0: 4fc3 2dbe d00d a1be ca51 cebe 0061 a5be

batchnorm.weight f4 [64]
0.9374853 0.9231506 0.9500576 0.9563377 0.96024686 0.99534065 0.90050477 0.9223938
0.9850947 0.9533474 0.8986938 1.0108252 0.95065486 0.9464152 0.9581089 0.871188
0.9047658 0.9473108 0.9602324 0.9423606 0.958196 0.9647722 0.92476285 0.89517677
0.9711094 0.9207531 0.9078813 0.88524055 1.0180098 0.9249989 1.0013691 0.96233916
0.951688 0.93039095 0.9352704 0.94416547 0.88991255 0.9441844 0.94762635 0.91195947
0.9498943 1.0212272 0.8359133 0.9027245 0.9706243 0.9262359 0.9573598 0.9746529
0.9070431 0.96608806 0.9519146 0.993451 0.96421224 1.0062969 0.9407031 0.934349
0.9481982 0.9782891 0.8986163 0.89699674 0.9625082 0.95363027 0.9594207 0.96303463
00000000: 09ff 6f3f 9953 6c3f fa36 733f 8cd2 743f
00000010: bdd2 753f a5ce 7e3f 7b87 663f 0022 6c3f
00000020: 2b2f 7c3f 930e 743f cc10 663f b862 813f
00000030: 1e5e 733f 4448 723f a046 753f 2d06 5f3f
00000040: bb9e 673f f682 723f cad1 753f 8b3e 713f
00000050: 554c 753f 50fb 763f 42bd 6c3f 4e2a 653f
00000060: a09a 783f 7ab6 6b3f e96a 683f 209f 623f
00000070: 254e 823f bacc 6c3f dd2c 803f dc5b 763f
00000080: d3a1 733f 1a2e 6e3f e26d 6f3f d4b4 713f
00000090: 4fd1 633f 12b6 713f a497 723f 2d76 693f
000000a0: 462c 733f 93b7 823f 6afe 553f f418 673f
000000b0: d67a 783f cc1d 6d3f 8815 753f da82 793f
000000c0: fa33 683f 8c51 773f adb0 733f ce52 7e3f
000000d0: 9dd6 763f 56ce 803f ebd1 703f 7f31 6f3f
000000e0: 1ebd 723f 2871 7a3f b80b 663f 94a1 653f
000000f0: f066 763f 1d21 743f 989c 753f 7089 763f

batchnorm.bias f4 [64]
-0.019943058 -0.040926237 0.052456364 -0.041280814 -0.004586927 0.048580114 0.008512155 -0.019793373
-0.029584095 0.1075986 -0.03648737 0.004374814 -0.04654956 -0.014532554 0.08596955 0.0011789708
0.023849785 0.0027452756 0.010735373 0.02511921 0.05641 0.0026735363 -0.027302856 -0.030958226
0.006593395 0.045103025 -0.013658666 0.012450696 0.032197647 -0.043364033 -0.041432653 -0.0075801644
0.062175836 -0.028479591 0.009196761 0.03157742 0.06758092 -0.005075637 0.065494016 0.008348915
-0.022971887 -0.047045644 0.07741766 -0.045305952 0.032750495 -0.037555557 0.07335805 -0.01724984
0.061738484 -0.04432035 -0.0017148901 0.02071122 -0.012988306 0.073641665 0.01897256 -0.003361779
-0.050247785 0.0035131401 -0.018935092 0.006534227 -0.031848107 -0.039791748 -0.06878314 -0.02919373
00000000: a05f a3bc 45a2 27bd 7cdc 563d 1216 29bd
00000010: ef4d 96bb f1fb 463d 9176 0b3c b625 a2bc
00000020: 585a f2bc a85c dc3d c873 15bd 9a5a 8f3b
00000030: c0aa 3ebd f319 6ebc ce10 b03d b287 9a3a
00000040: a060 c33c 15ea 333b 6be3 2f3c cdc6 cd3c
00000050: 2c0e 673d 7f36 2f3b 3daa dfbc 1b9c fdbc
00000060: 680d d83b f3bd 383d 99c8 5fbc 01fe 4b3c
00000070: aee1 033d 7c9e 31bd 49b5 29bd 0763 f8bb
00000080: 17ac 7e3d 084e e9bc 03ae 163c 5357 013d
00000090: de67 8a3d 8751 a6bb ba21 863d e3c9 083c
000000a0: 8a2f bcbc efb2 40bd 268d 9e3d bc92 39bd
000000b0: 6225 063d dbd3 19bd bf3c 963d 894f 8dbc
000000c0: 7ee1 7c3d 4189 35bd 2ac6 e0ba 94aa a93c
000000d0: e7cc 54bc 71d1 963d 586c 9b3c 4b51 5cbb
000000e0: 9fd0 4dbd b63c 663b c41d 9bbc 121d d63b
000000f0: 2973 02bd acfc 22bd 2dde 8cbd b027 efbc

batchnorm.running_mean f4 [64]
0.076226756 -0.26164067 0.30275398 -0.097446404 0.20600939 0.31338462 -0.0322025 -0.22751485
0.07474513 -0.05436116 0.23062155 -0.23214236 -0.1131749 0.0719742 0.29616463 0.23557472
0.22277088 0.2881335 0.19215417 0.17801657 0.2362645 0.1161354 0.16603628 0.16515061
0.0018758437 -0.101988435 0.20360902 0.2099725 0.16079149 0.094320066 -0.2527428 -0.11725159
0.116366625 -0.27059287 0.10501571 0.2819555 0.14777818 0.12539937 0.25502747 0.013755029
-0.041764952 -0.056381434 0.25254646 -0.044898517 0.28300563 -0.00706829 0.14507362 0.07105746
0.02846625 -0.26535684 0.048436467 0.2945607 -0.23733841 0.053777866 0.16726336 -0.0457526
-0.19563854 -0.22427213 -0.1032738 -0.09121625 -0.025730234 -0.2306978 -0.2402394 -0.28679323
00000000: c61c 9c3d c4f5 85be 9202 9b3e fb91 c7bd
00000010: 20f4 523e f373 a03e c5e6 03bd a7f9 68be
00000020: fa13 993d cfa9 5ebd 0e28 6c3e bab6 6dbe
00000030: 3ec8 e7bd 3667 933d e4a2 973e 803a 713e
00000040: 0d1e 643e 3c86 933e 10c4 443e fa49 363e
00000050: 52ef 713e 66d8 ed3d 6a05 2a3e 3e1d 293e
00000060: dfde f53a 50df d0bd e27e 503e 0803 573e
00000070: 86a6 243e e12a c13d 8167 81be 9a21 f0bd
00000080: a051 ee3d 268b 8abe 7a12 d73d 795c 903e
00000090: 2a53 173e b168 003e f692 823e c65c 613c
000000a0: ba11 2bbd 38f0 66bd c54d 813e 82e7 37bd
000000b0: 1de6 903e 1d9d e7bb 2e8e 143e 9386 913d
000000c0: 0e32 e93c dadc 87be 5165 463d a9d0 963e
000000d0: d708 73be 2e46 5c3d 1647 2b3e 1467 3bbd
000000e0: 7855 48be 98a7 65be 3781 d3bd 96cf babd
000000f0: 36c8 d2bc 0b3c 6cbe 5101 76be 90d6 92be

batchnorm.running_var f4 [64]
1.6909561 0.27874842 0.18420768 0.11424486 0.112981156 0.22247396 0.19613802 0.40722027
0.07513849 0.052271564 1.1602117 0.1510404 0.52147615 0.08446865 0.12430213 0.10966687
1.5574389 0.306163 0.20978242 0.16390808 0.6529407 1.1561333 0.50145864 1.5030713
0.07690327 0.10698247 0.23464665 0.9837218 0.15527213 2.7275152 0.09152738 0.30410218
0.12755182 0.24582867 0.12074528 0.2206838 0.07434853 0.13039775 0.13641869 0.25438514
0.34829682 0.038426876 0.19783047 0.1591948 0.13862628 0.48303613 0.09344123 0.11835518
0.046239078 0.19313808 0.05922131 0.33241996 0.17278425 0.070249036 0.0908573 0.07055663
0.15610713 0.1422342 1.05199 0.02704672 0.44634634 0.28699124 0.8248028 0.24960266
00000000: 4071 d83f 1db8 8e3e f0a0 3c3e 36f9 e93d
00000010: aa62 e73d 37d0 633e 68d8 483e 2d7f d03e
00000020: 35e2 993d b51a 563d d181 943f 56aa 1a3e
00000030: 767f 053f e6fd ac3d 1d92 fe3d 0699 e03d
00000040: 285a c73f 66c1 9c3e 34d1 563e 85d7 273e
00000050: 1f27 273f 2dfc 933f 985f 003f a464 c03f
00000060: 767f 9d3d a019 db3d 3647 703e 31d5 7b3f
00000070: a8ff 1e3e 9c8f 2e40 b572 bb3d 48b3 9b3e
00000080: f29c 023e 83ba 7b3e 4d49 f73d effa 613e
00000090: 0b44 983d fd86 053e 57b1 0b3e c53e 823e
000000a0: f653 b23e 8065 1d3d 1294 4a3e f603 233e
000000b0: 0cf4 0d3e 8350 f73e 1e5e bf3d 3364 f23d
000000c0: 3065 3d3d fdc5 453e 0b92 723d f332 aa3e
000000d0: 5bee 303e bade 8f3d 6413 ba3d ff7f 903d
000000e0: 8cda 1f3e d8a5 113e 9ca7 863f 1591 dd3c
000000f0: 8287 e43e 84f0 923e 4726 533f d797 7f3e

lstm.weight_ih_l0 f4 [200, 64]
0.004903803 0.08105917 0.033968043 -0.06574275 0.0032099271 0.059687182 -0.090287544 -0.065639056
0.07157112 -0.05373767 -0.11778275 0.06321207 -0.09034399 -0.12152497 -0.0073021487 -0.03442838
0.009028211 0.0196951 0.082341336 -0.04128361 0.038587462 0.12903634 0.008848824 -0.16225122
0.042038623 -0.04577513 0.013991002 0.021344164 0.10759279 0.070982054 -0.059991337 0.023761282
0.043374125 -0.12536706 0.014864179 -0.07752967 0.07094633 -0.05331058 -0.08312032 0.087574445
0.05511405 -0.09854157 0.076103225 0.066947706 -0.033742826 0.019456102 0.121499166 -0.1120203
0.05865502 -0.1507609 0.071555465 0.12603886 -0.046791278 0.12657718 -0.076217584 -0.08327256
0.10450661 0.11173868 0.11475653 -0.08078215 -0.039450016 -0.116341114 0.04243432 0.088083535
0.005577322 -0.0116950665 0.10182801 0.0288067 -0.08482542 -0.030946903 -0.097244866 -0.113809034
-0.20871533 0.03671576 0.108997606 0.025334226 -0.006082894 -0.10089217 0.039506454 0.029204898
-0.11505712 0.021354886 -0.17683442 -0.11665197 -0.16333409 0.01411514 -0.08856143 -0.12550604
0.09789899 0.0012958973 0.04664766 0.0072369636 -0.0065788287 -0.024676898 0.06745319 0.12162886
-0.040171213 -0.029865026 -0.015716545 -0.048222534 -0.044804167 0.00049214397 -0.23080811 0.029751731
-0.076404706 0.057494372 0.033331964 0.06519826 -0.032828942 0.05356648 -0.07270788 0.07632007
-0.18374982 0.1611061 -0.060842875 -0.101377755 -0.01905276 -0.10939834 -0.0015570879 -0.12091944
0.085695945 -0.051258467 0.076131314 0.014526507 -0.06232519 -0.0503703 0.07473292 0.075813234
0.06042609 0.06590534 -0.054901574 0.060514078 0.12794012 0.05911049 -0.07446247 0.07829858
0.16525269 0.055272926 -0.044658802 -0.034575477 0.0019230812 0.17995779 -0.039638113 0.25598216
0.16095786 -0.066874504 0.120981425 0.17664386 -0.056986026 0.04327892 0.020821825 0.010754883
0.21881475 0.117438115 -0.10349463 -0.17535156 -0.0067870896 0.07780285 -0.0057736547 -0.03787679
0.0049087475 -0.07178417 -0.056409147 -0.023092562 -0.07642491 -0.04454542 0.029776175 0.04605234
0.050463337 0.058016952 0.08989056 -0.08510083 0.044748772 -0.0614255 0.095271274 0.053383436
0.17348492 -0.065855935 0.15131804 -0.0023236517 -0.06926173 0.22047186 -0.089669466 0.030936915
0.033025395 -0.10010483 0.105940156 -0.045524824 0.13905278 0.013234917 0.07786563 -0.042066485
0.103127435 0.051810052 -0.059334684 0.05763421 -0.03326916 -0.014363515 0.15191753 -0.06432899
-0.12115477 0.048191134 0.102072984 -0.10869111 -0.042641256 0.11852049 -7.304971e-05 -0.069308065
-0.06785168 -0.0024681669 -0.035488706 -0.087164044 0.13397703 0.039673112 0.0119895 0.07503514
0.15503854 -0.024733428 0.02682045 0.039913557 0.09837891 0.008994961 -0.04087892 0.11923627
0.127987 0.022452537 -0.07462465 0.12937933 -0.03399397 -0.02023491 -0.018282183 0.14514782
-0.0040393434 0.19037068 -0.12707469 0.12349512 -0.0057800487 -0.048323512 -0.10702725 0.1343265
0.08590752 0.13479714 0.12905328 0.15312262 -0.025977997 0.12962973 -0.10207685 0.10717056
0.06989818 0.088887386 -0.09801679 0.024246052 0.04432924 -0.043042824 0.21953149 -0.09885397
00000000: 15b0 a03b 5a02 a63d 1322 0b3d 23a4 86bd
00000010: a45d 523b 8c7a 743d ade8 b8bd c56d 86bd
00000020: e193 923d 081c 5cbd 1538 f1bd 5475 813d
00000030: 4506 b9bd 15e2 f8bd dd46 efbb c604 0dbd
00000040: 10eb 133c 9e57 a13c 93a2 a83d 0119 29bd
00000050: e30d 1e3d 1a22 043e a8fa 103c 2f25 26be
00000060: b130 2c3d b47e 3bbd 843a 653c f5d9 ae3c
00000070: 9c59 dc3d 0a5f 913d 7ab9 75bd 05a7 c23c
00000080: 11a9 313d 3960 00be e388 733c e0c7 9ebd
00000090: 4f4c 913d 325c 5abd fd3a aabd 3b5a b33d
000000a0: 45bf 613d 2ad0 c9bd 02dc 9b3d e11b 893d
000000b0: eb35 0abd 6762 9f3c 8ed4 f83d e66a e5bd
000000c0: 3f40 703d 1161 1abe ac8b 923d 5510 013e
000000d0: 36a8 3fbd 739d 013e f717 9cbd ce8a aabd
000000e0: 9007 d63d 40d7 e43d 7905 eb3d 1d71 a5bd
000000f0: 5796 21bd 4044 eebd 9ccf 2d3d 2465 b43d
00000100: f8c1 b63b aa9c 3fbc 348b d03d 07fc eb3c
00000110: f3b8 adbd 5c84 fdbc 5128 c7bd b614 e9bd
00000120: 79b9 55be 4463 163d 233a df3d b989 cf3c
00000130: 0353 c7bb 8ea0 cebd 85d1 213d 1c3f ef3c
00000140: 11a3 ebbd 71f0 ae3c 1514 35be 3ae7 eebd
00000150: 0d41 27be 3043 673c b25f b5bd a884 00be
00000160: 447f c83d 19db a93a 9e11 3f3d 0d24 ed3b
00000170: 3793 d7bb 3527 cabc e624 8a3d 8d18 f93d
00000180: 928a 24bd 80a7 f4bc fcbf 80bc fe84 45bd
00000190: 9384 37bd 3903 013a f658 6cbe e7b9 f33c
000001a0: 127a 9cbd 387f 6b3d 1987 083d aa86 853d
000001b0: a477 06bd 8668 5b3d dee7 94bd b24d 9c3d
000001c0: ea28 3cbe fff8 243e 6136 79bd 249f cfbd
000001d0: 8914 9cbc 3d0c e0bd 3317 ccba 9da4 f7bd
000001e0: 5b81 af3d 66f4 51bd bcea 9b3d 9600 6e3c
000001f0: b348 7fbd 1651 4ebd 930d 993d f843 9b3d
00000200: 5981 773d 61f9 863d 79e0 60bd 9cdd 773d
00000210: bc02 033e d71d 723d c87f 98bd 025b a03d
00000220: 0038 293e dd65 623d 26ec 36bd 049f 0dbd
00000230: e60f fc3a db46 383e 935b 22bd 1810 833e
00000240: 23d2 243e 80f5 88bd 1cc5 f73d 21e2 343e
00000250: 2e6a 69bd 3d45 313d 8892 aa3c 4035 303c
00000260: f910 603e 6583 f03d fef4 d3bd 5c8f 33be
00000270: 3c66 debb 1a57 9f3d ed30 bdbb b124 1bbd
00000280: 8fd9 a03b 9403 93bd 470d 67bd 9d2c bdbc
00000290: aa84 9cbd 4275 36bd 2aed f33c 61a1 3c3d
000002a0: a5b2 4e3d 2fa3 6d3d 8b18 b83d 5849 aebd
000002b0: 7d4a 373d 4e99 7bbd 961d c33d 97a8 5a3d
000002c0: 08a6 313e 7adf 86bd 1ef3 1a3e 6848 18bb
000002d0: 18d9 8dbd 60c3 613e a0a4 b7bd 6a6f fd3c
000002e0: a345 073d c303 cdbd 27f7 d83d 3d78 3abd
000002f0: da63 0e3e 44d7 583c 0478 9f3d e84d 2cbd
00000300: 7a34 d33d c736 543d ed08 73bd d911 6c3d
00000310: 3e45 08bd f354 6bbc 4590 1b3e ebbe 83bd
00000320: fe1f f8bd 1164 453d a40b d13d 7299 debd
00000330: 99a8 2ebd dfba f23d 4432 99b8 63f1 8dbd
00000340: d2f5 8abd f8c0 21bb 9b5c 11bd 1083 b2bd
00000350: 4631 093e 4680 223d 9c6f 443c 06ac 993d
00000360: 6cc2 1e3e c29d cabc 8fb6 db3c 667c 233d
00000370: e27a c93d 9a5f 133c a870 27bd 2532 f43d
00000380: 060f 033e 62ee b73c cfd4 98bd 047c 043e
00000390: 433d 0bbd afc3 a5bc 84c4 95bc a1a1 143e
000003a0: 785c 84bb 88f0 423e de1f 02be 02eb fc3d
000003b0: 9066 bdbb e0ee 45bd 1a31 dbbd e38c 093e
000003c0: 48f0 af3d 4308 0a3e 8b26 043e 2dcc 1c3e
000003d0: cfcf d4bc a8bd 043e ab0d d1bd 3d7c db3d
000003e0: c726 8f3d 970a b63d 07bd c8bd a89f c63c
000003f0: 9492 353d ac4d 30bd ddcc 603e f373 cabd

lstm.weight_hh_l0 f4 [200, 50]
-0.03327064 0.055930812 0.03438228 -0.16717583 -0.13425253 -0.020627936 -0.057249412 -0.027559724
-0.078509554 0.047174048 -0.07668731 0.11421975 0.010806675 -0.08105133 -0.0516886 0.018856468
-0.18834388 -0.08192213 -0.13009678 -0.027583953 -0.10050769 -0.042554136 0.08225286 0.0065316055
0.0020483937 0.04675109 -0.0147627825 -0.11120076 -0.0011087336 0.06027559 0.10999908 0.09175522
-0.029187689 -0.0019097327 -0.22513826 0.06104985 -0.091564886 0.14200255 -0.07830525 0.17571372
0.14874773 -0.0816055 -0.03625613 0.023783918 0.08193242 0.12775506 0.054646116 0.102584764
0.13324963 0.19485757 0.055876944 0.17149775 -0.10182422 0.099948995 0.15508074 0.12592421
0.014330686 0.09317022 -0.09895637 0.08215037 0.076736026 -0.027819542 0.04902904 0.18382947
-0.026965689 0.1886081 0.027161093 0.096807934 -0.07425941 0.11995922 -0.1300088 0.079545915
-0.074732654 -0.07670411 0.12351044 -0.07378628 0.13645636 0.05392587 0.115653574 0.04608359
0.027746255 0.13603728 0.059014954 0.041292917 -0.119105235 0.05380304 -0.12065346 -0.0033389188
0.17540967 -0.017973157 -0.034273013 0.115438364 0.084186085 0.06140402 -0.1202233 -0.027046101
0.07931673 0.054886177 -0.027493915 -0.047963563 0.06882973 0.1361423 0.018871002 -0.014513559
0.08900996 0.06975621 -0.13695902 0.05585481 -0.008869663 0.1810597 -0.030412598 -0.070651576
-0.028582264 0.15783928 -0.14350772 0.07023047 0.070001304 -0.069536656 -0.12186333 0.0587941
-0.18236569 0.19855481 0.0018967293 -0.06573048 -0.03857664 -0.023477014 -0.108420864 0.066676304
-0.086259425 0.13237819 -0.014944794 -0.15733081 0.06003729 -0.13787103 -0.12456282 -0.0701949
-0.010121239 -0.016498541 -0.17578585 -0.053486634 -0.14567254 -0.07939008 0.2516253 0.0055439207
-0.00918872 0.16467199 -0.05681384 0.15924206 -0.13804324 0.18661268 -0.11833395 0.09152711
0.20681016 -0.04860567 0.016809655 0.025340976 -0.24288839 0.16492467 -0.1568711 -0.15620211
-0.04982813 -0.24516335 -0.18025516 0.015087356 0.06203301 -0.12691286 0.018485762 0.040875975
-0.07332043 -0.21811332 0.08347526 0.22190534 0.054802075 -0.035669312 -0.09340666 -0.13418695
-0.03680739 0.040748075 -0.04845649 0.08654082 0.14137317 -0.070728056 -0.08079049 -0.13375258
0.097744115 -0.08193029 0.088046394 -0.055809714 -0.32409534 0.0019942087 0.14062929 0.0383738
0.13577229 0.17247728 -0.01623572 -0.16265878 0.074822634 0.04169768 -0.095635384 0.14594337
-0.035864856 0.27170646 0.114235505 -0.02357731 0.07173807 -0.19402693 -0.11727272 0.033299036
-0.1345457 -0.0036602933 0.090313226 -0.10124617 -0.019289272 0.13848907 -0.16960144 -0.1596877
-0.103114896 0.07961954 -0.029741384 -0.14238326 0.14483126 0.05953634 -0.12069922 0.034124535
-0.09728664 -0.07759481 -0.19770852 0.22036333 0.12963246 -0.043534387 -0.017148424 -0.05884686
-0.24109513 -0.20580643 -0.20339805 -0.1222152 -0.01037484 -0.11539545 -0.10066261 0.026526202
-0.09429386 0.05022657 -0.0078041367 0.16022815 0.08217838 -0.0072884155 -0.04136372 0.25621077
-0.08075621 0.32980192 -0.1191791 0.061807897 0.17866898 0.14790307 -0.016265258 -0.044625662
00000000: cb46 08bd b517 653d 6fd4 0c3d 2430 2bbe
00000010: 7f79 09be ebfb a8bc 5c7e 6abd eec4 e1bc
00000020: 9ec9 a0bd 9339 413d 3d0e 9dbd 0bec e93d
00000030: 7b0e 313c 3dfe a5bd 6db7 53bd e178 9a3c
00000040: 38dd 40be cac6 a7bd 1738 05be bef7 e1bc
00000050: fad6 cdbd 3f4d 2ebd 3074 a83d 1407 d63b
00000060: 583e 063b 127e 3f3d 99df 71bc 39bd e3bd
00000070: ed52 91ba 89e3 763d 3347 e13d 29ea bb3d
00000080: 051b efbc ff4f faba a58a 66be 680f 7a3d
00000090: 5f86 bbbd 1e69 113e 815e a0bd 4cee 333e
000000a0: 5351 183e c920 a7bd 4f81 14bd 7ed6 c23c
000000b0: 2fcc a73d 39d2 023e 9bd4 5f3d f617 d23d
000000c0: 9772 083e be88 473e 39df 643d 1b9d 2f3e
000000d0: 3789 d0bd 0fb2 cc3d 7ccd 1e3e 47f2 003e
000000e0: 41cb 6a3c 07d0 be3d a3a9 cabd 743e a83d
000000f0: c727 9d3d cfe5 e3bc add2 483d cb3d 3c3e
00000100: 26e7 dcbc 7b22 413e f180 de3c 3d43 c63d
00000110: 5115 98bd 2ead f53d 0721 05be f8e8 a23d
00000120: 6f0d 99bd 0b17 9dbd 0bf3 fc3d 431d 97bd
00000130: 37bb 0b3e 60e1 5c3d c8db ec3d 25c2 3c3d
00000140: 1d4c e33c 5b4d 0b3e aab9 713d c322 293d
00000150: 72ed f3bd 9460 5c3d 2919 f7bd c3d1 5abb
00000160: 989e 333e 713c 93bc dc61 0cbd f36a ec3d
00000170: c169 ac3d c882 7b3d a237 f6bd c98f ddbc
00000180: cf70 a23d 54d0 603d eb3a e1bc 7175 44bd
00000190: 9af6 8c3d e368 0b3e 5c97 9a3c 47ca 6dbc
000001a0: db4a b63d 58dc 8e3d fc3e 0cbe 03c8 643d
000001b0: 1052 11bc b767 393e d723 f9bc c6b1 90bd
000001c0: 5a25 eabc 9fa0 213e b0f3 12be fed4 8f3d
000001d0: d85c 8f3d 3c69 8ebd 7b93 f9bd 15d2 703d
000001e0: 12be 3abe f451 4b3e ad9b f83a b49d 86bd
000001f0: 8a02 1ebd de52 c0bc c20b debd 968d 883d
00000200: c8a8 b0bd 268e 073e 02db 74bc 541b 21be
00000210: a9e9 753d 102e 0dbe cb1a ffbd 58c2 8fbd
00000220: 8ed3 25bc f327 87bc 3501 34be cd14 5bbd
00000230: 2f2b 15be 4497 a2bd 08d5 803e c7a9 b53b
00000240: 498c 16bc c69f 283e a1b5 68bd 5a10 233e
00000250: 355b 0dbe 6517 3f3e 1259 f2bd 9172 bb3d
00000260: 0bc6 533e bd16 47bd 67b4 893c e197 cf3c
00000270: bcb7 78be 03e2 283e d1a2 20be 72f3 1fbe
00000280: 9518 4cbd 1a0c 7bbe cf94 38be f530 773c
00000290: 5316 7e3d 72f5 01be 746f 973c 916d 273d
000002a0: 0629 96bd 1959 5fbe 14f5 aa3d 273b 633e
000002b0: 2478 603d fc19 12bd fe4b bfbd 4e68 09be
000002c0: 59c3 16bd 74e7 263d 507a 46bd 503c b13d
000002d0: 21c4 103e dfd9 90bd 7c75 a5bd 70f6 08be
000002e0: 112e c83d 11cb a7bd ab51 b43d ba98 64bd
000002f0: d3ef a5be 45b1 023b 2001 103e d92d 1d3d
00000300: e407 0b3e e29d 303e c600 85bc 0690 26be
00000310: 9c3c 993d 30cb 2a3d 7cdc c3bd 2e72 153e
00000320: 07e7 12bd 1c1d 8b3e 4ef4 e93d 3425 c1bc
00000330: 69eb 923d ffae 46be ae2c f0bd 9264 083d
00000340: 59c6 09be 88e1 6fbb 24f6 b83d 275a cfbd
00000350: 8904 9ebc 14d0 0d3e 00ac 2dbe 2c85 23be
00000360: e72d d3bd 920f a33d 34a4 f3bc ebcc 11be
00000370: a54e 143e 61dc 733d 2731 f7bd 2bc6 0b3d
00000380: 383e c7bd 07ea 9ebd 1a74 4abe eda6 613e
00000390: 5fbe 043e 1d51 32bd da7a 8cbc 6809 71bd
000003a0: a4e1 76be ecbe 52be 9447 50be f64b fabd
000003b0: 3cfb 29bc 7354 ecbd 3328 cebd 7a4d d93c
000003c0: 241d c1bd 60ba 4d3d d8b9 ffbb d912 243e
000003d0: 234d a83d a9d3 eebb 016d 29bd 0f2e 833e
000003e0: 8363 a5bd ccdb a83e 2c14 f4bd 472a 7d3d
000003f0: 00f5 363e e773 173e b83e 85bc 66c9 36bd

lstm.bias_ih_l0 f4 [200]
0.019087734 0.030198121 0.00557144 -0.059322894 0.04182634 0.020851878 0.09579103 -0.0069410186
-0.07611341 0.058520604 0.057139408 -0.061723802 0.0038126316 -0.15951234 -0.042387493 0.0848827
0.0036925643 -0.087144196 -0.029474193 -0.024459038 -0.042276572 -0.07035227 -0.09232619 -0.114642255
-0.011333483 -0.019486714 -0.019045992 0.043709747 0.055276256 -0.045953903 -0.076314546 -0.12747487
-0.14222993 -0.17975962 0.021189656 -0.11491289 -0.010823273 -0.16096383 -0.096654296 0.030102564
-0.0071429648 -0.07116104 0.09691379 -0.029826542 -0.17819645 -0.120744884 0.039007306 0.06431695
0.029720737 0.14334495 0.07619044 0.19246729 -0.1289888 -0.1268133 0.0399633 -0.023693422
-0.08691866 -0.025973618 0.011141685 -0.06579173 -0.00014452102 0.1055874 0.026495267 0.070100546
-0.050476085 0.074408844 0.047962822 0.06732715 -0.030539272 -0.021870643 0.056469887 -0.038686708
-0.028807975 0.20414478 -0.122160345 0.045478802 -0.095668115 0.20616722 0.01463982 0.1492559
0.13190545 -0.091690525 -0.10509203 0.057592604 0.03818984 0.0535531 0.16021878 0.0646788
0.16184515 0.04954592 -0.06814406 0.10253598 -0.08973309 0.1266897 0.12920329 -0.0005540901
-0.05971263 0.020658884 0.15391959 0.07138853 0.01496815 -0.07358798 -0.03360106 -0.009561748
-0.12396647 0.13675316 0.097329326 -0.0025623746 -0.0032052188 0.06269551 0.05785579 0.038388096
0.051121835 -0.1847142 0.06197776 0.105508044 0.16075917 -0.12572792 -0.10415307 0.034884907
0.07796616 0.0658398 -0.12713426 0.07743519 0.025237907 0.085494325 -0.0294226 -0.014624377
-0.030971533 0.031819545 -0.0014651769 -0.075145505 -0.09550343 0.049262617 0.0328366 -0.13266909
-0.08862296 -0.0087066125 0.10699137 -0.17343637 0.05561577 0.028487569 -0.07281534 -0.08930955
0.038829904 -0.038536105 -0.10055627 -0.08142769 -0.049925264 0.021072526 -0.026796987 -0.013242361
0.06910158 -0.035441574 0.14175627 -0.005081919 0.042102505 -0.027554112 -0.024821308 0.03757021
-0.004450654 -0.07613777 0.05987245 -0.051651407 0.12371786 -0.038146544 -0.05362024 -0.024551392
0.087487206 0.124212526 -0.07035281 0.022461472 0.020916445 -0.0066787307 -0.11750291 -0.13802613
0.052210137 -0.013564563 0.001717131 0.1486082 0.06196618 0.005613785 -0.085996725 -0.04972615
0.082174286 0.098081656 -0.013834259 -0.020884793 0.16692726 0.08577761 -0.031330697 -0.063029155
0.13047555 0.04715002 -0.09405255 0.060123567 -0.105530836 -0.06994889 -0.06828526 0.042670265
00000000: e15d 9c3c 0d62 f73c a090 b63b 90fc 72bd
00000010: 1952 2b3d 8fd1 aa3c 162e c43d 7c71 e3bb
00000020: 59e1 9bbd 4db3 6f3d 030b 6a3d 19d2 7cbd
00000030: 58dd 793b 3457 23be 829e 2dbd fbd6 ad3d
00000040: f3fe 713b a878 b2bd dd73 f1bc 525e c8bc
00000050: 332a 2dbd da14 90bd 8315 bdbd 8fc9 eabd
00000060: 13b0 39bc 9aa2 9fbc 5706 9cbc fe08 333d
00000070: 5b69 623d 293a 3cbd cd4a 9cbd c688 02be
00000080: b9a4 11be e812 38be ee95 ad3c 7357 ebbd
00000090: 1954 31bc b4d3 24be b0f2 c5bd a799 f63c
000000a0: 880f eabb e1bc 91bd bd7a c63d cb56 f4bc
000000b0: 2179 36be 1849 f7bd 20c6 1f3d 9bb8 833d
000000c0: e778 f33c 05c9 123e bc09 9c3d 2516 453e
000000d0: a415 04be 59db 01be 8fb0 233d b518 c2bc
000000e0: 6902 b2bd a0c6 d4bc 9d8b 363c d1bd 86bd
000000f0: 918a 17b9 353e d83d 9a0c d93c e090 8f3d
00000100: 03c0 4ebd aa63 983d aa74 443d d1e2 893d
00000110: 7f2d fabc 102a b3bc f84c 673d f475 1ebd
00000120: b4fe ebbc 540b 513e 342f fabd fb47 3a3d
00000130: a5ed c3bd 801d 533e dbdb 6f3c 8ad6 183e
00000140: 3912 073e 3ec8 bbbd 7d3a d7bd 39e6 6b3d
00000150: f36c 1c3d 7f5a 5b3d 6410 243e 5276 843d
00000160: bcba 253e aaf0 4a3d 1d8f 8bbd 62fe d13d
00000170: fbc5 b7bd f2ba 013e de4d 043e 5b40 11ba
00000180: 3b95 74bd d23c a93c 199d 1d3e 2634 923d
00000190: f93c 753c 4bb5 96bd 44a1 09bd e1a8 1cbc
000001a0: 22e2 fdbd 0509 0c3e 9954 c73d 83ed 27bb
000001b0: a60e 52bb 8166 803d 31fa 6c3d d63c 1d3d
000001c0: 2165 513d b825 3dbe 64dc 7d3d 9a14 d83d
000001d0: 0d9e 243e d2be 00be 344e d5bd 7ae3 0e3d
000001e0: b9ac 9f3d 04d7 863d 7c2f 02be 5796 9e3d
000001f0: babf ce3c a617 af3d aa07 f1bc 159b 6fbc
00000200: 03b8 fdbc 3655 023d 2e0b c0ba e3e5 99bd
00000210: 4d97 c3bd 99c7 493d ac7f 063d 68da 07be
00000220: f47f b5bd 2ea6 0ebc 4b1e db3d 4e99 31be
00000230: 5dcd 633d c35e e93c 3520 95bd ede7 b6bd
00000240: 1b0c 1f3d 09d8 1dbd 72f0 cdbd 90c3 a6bd
00000250: 6f7e 4cbd 4aa0 ac3c 5b85 dbbc 7df6 58bc
00000260: 2185 8d3d 2f2b 11bd 8e28 113e 3a86 a6bb
00000270: ad73 2c3d 29b9 e1bc 0e56 cbbc 38e3 193d
00000280: cbd6 91bb 1fee 9bbd d03c 753d 6d90 53bd
00000290: ca5f fd3d 8d3f 1cbd e6a0 5bbd 0020 c9bc
000002a0: 7e2c b33d 2363 fe3d 2215 90bd 1f01 b83c
000002b0: f758 ab3c 41d9 dabb 5ea5 f0bd b956 0dbe
000002c0: 4cda 553d e73d 5ebc 5b11 e13a bf2c 183e
000002d0: 40d0 7d3d d7f3 b73b 0d1f b0bd a6ad 4bbd
000002e0: fe4a a83d 09df c83d 16a9 62bc 9616 abbc
000002f0: fbee 2a3e 2cac af3d 9e54 00bd 6e15 81bd
00000300: 629b 053e 6120 413d a09e c0bd 2144 763d
00000310: 8d20 d8bd 5d41 8fbd 24d9 8bbd 04c7 2e3d

lstm.bias_hh_l0 f4 [200]
0.09724354 -0.1426006 0.036555637 -0.14742494 -0.15864998 0.026953483 0.017052524 -0.070086725
0.06874449 -0.011096294 0.019715004 -0.12624286 0.025235128 -0.14211953 -0.02042056 -0.029077241
-0.12998386 -0.008010152 0.049372245 0.041965522 0.04186351 -0.09781005 -0.1575951 0.099902466
0.09692687 0.021005489 0.057367947 -0.003913117 -0.072482295 -0.1457282 -0.038136605 -0.1779229
-0.051531635 -0.026091056 0.00018870068 -0.11085834 0.016323695 0.043253474 0.0031694265 -0.13275045
-0.17021896 -0.056628052 0.05296023 0.094344065 -0.033966582 -0.011410954 0.016818482 0.12745395
-0.069109745 0.03860476 -0.015319567 0.23191103 -0.1306693 0.036471102 -0.022265356 -0.07257364
0.078421794 0.20363262 0.08310006 -0.1164402 -0.005798455 -0.030330101 -0.033196613 0.036156293
-0.109487146 0.0054356153 -0.15280494 0.006910994 0.009302915 -0.09493024 0.04769547 0.095631
0.15175182 0.014456074 0.12725079 0.09170655 0.10625414 0.16980219 -0.007538105 -0.03381718
-0.019733775 -0.076882124 -0.078744374 -0.087702826 -0.07510816 -0.06773661 0.006554045 -0.036856756
0.21795058 -0.10701195 0.0734877 0.013291239 0.0702483 -0.0020479055 0.14748621 -0.070473336
0.038525954 -0.12521952 -0.06292997 0.030736951 0.029701998 0.00966356 0.09678895 -0.004103225
-0.044883043 0.14003366 0.041440412 -0.1280885 0.09682081 -0.05879844 -0.059922393 0.042388722
0.053283725 -0.096591726 0.11681286 0.120250955 -0.058774237 0.12757039 -0.08100705 0.077352576
0.009655396 -0.058166627 0.13580872 0.045394823 0.051356465 0.09818949 -0.02947114 -0.1636635
-0.049241528 -0.029022196 -0.035243165 0.124262564 0.11344818 0.10875577 0.11695533 0.044178776
-0.08415863 -0.10487988 0.10991808 0.07052287 -0.12946479 -0.10865142 0.04598795 0.0028534671
-0.09707803 0.055954773 -0.077632904 0.03675703 -0.18035157 -0.18922487 -0.013082517 0.032932658
0.0009957347 -0.09012447 -0.03455991 -0.21647523 0.054661337 0.17024392 0.0077002314 -0.038705055
-0.08922443 -0.017050546 -0.050715704 0.022502376 0.036866974 0.0008971719 -0.11535869 -0.029349407
0.010718011 0.07452568 0.048340015 0.13972206 -0.07362566 0.14358215 0.07716206 -0.027352417
0.010667751 -0.14052978 0.12256743 -0.028871818 0.06635973 0.049868297 0.04843487 0.17355503
-0.022537364 0.122075714 0.08239893 0.10979815 0.12586467 0.018131806 0.13860312 -0.004080091
0.1531725 -0.02250554 -0.007340243 -0.08517637 0.12456358 0.103859775 -0.09559359 -0.064663246
00000000: 9f27 c73d e405 12be 5dbb 153d 90f6 16be
00000010: 2475 22be 8dcd dc3c bcb1 8b3c a189 8fbd
00000020: e9c9 8c3d 3bcd 35bc 5c81 a13c cf45 01be
00000030: e6b9 ce3c c887 11be 0549 a7bc 6533 eebc
00000040: 7d1a 05be 033d 03bc 8d3a 4a3d 0ae4 2b3d
00000050: 1279 2b3d a350 c8bd 9c60 21be aa99 cc3d
00000060: 9881 c63d b413 ac3c a7fa 6a3d 9b39 80bb
00000070: 9971 94bd c639 15be 2135 1cbd 6c31 36be
00000080: d612 53bd e9bc d5bc f4dd 4539 b309 e3bd
00000090: 45b9 853c 8e2a 313d 27b6 4f3b bcef 07be
000000a0: e14d 2ebe d1f2 67bd d3ec 583d 7637 c13d
000000b0: 8b20 0bbd 03f5 3abc eac6 893c 4a83 023e
000000c0: 6989 8dbd 0620 1e3d ecfe 7abc 167a 6d3e
000000d0: 2cce 05be b962 153d d665 b6bc 7da1 94bd
000000e0: 9b9b a03d 1285 503e 5d30 aa3d 3378 eebd
000000f0: f700 bebb d576 f8bc 2cf9 07bd 9f18 143d
00000100: cc3a e0bd 3f1d b23b e678 1cbe 9f75 e23b
00000110: 416b 183c c96a c2bd 535c 433d 30da c33d
00000120: d464 1b3e 2bd9 6c3c 084e 023e a5d0 bb3d
00000130: c59b d93d a0e0 2d3e 3502 f7bb e283 0abd
00000140: baa8 a1bc 6074 9dbd bb44 a1bd 8a9d b3bd
00000150: 4fd2 99bd 7eb9 8abd 50c3 d63b 1cf7 16bd
00000160: 702e 5f3e 1529 dbbd b880 963d 7fc3 593c
00000170: 57de 8f3d 2736 06bb a006 173e 5354 90bd
00000180: 64cd 1d3d 8c39 00be 6ee1 80bd 0fcc fb3c
00000190: 9b51 f33c e953 1e3c 4939 c63d 5974 86bb
000001a0: 48d7 37bd fc64 0f3e 6cbd 293d a229 03be
000001b0: fd49 c63d a2d6 70bd 2f71 75bd cc9f 2d3d
000001c0: 0940 5a3d e2d1 c5bd 953b ef3d 2246 f63d
000001d0: 41bd 70bd d0a1 023e 06e7 a5bd 076b 9e3d
000001e0: ab31 1e3c 2140 6ebd 7111 0b3e ecef 393d
000001f0: 285b 523d 9217 c93d 766d f1bc 6897 27be
00000200: 7cb1 49bd f5bf edbc 235b 10bd 5f7d fe3d
00000210: 8557 e83d 58bb de3d 4786 ef3d cef4 343d
00000220: 5c5b acbd 43cb d6bd bb1c e13d 4b6e 903d
00000230: 6b92 04be a384 debd dc5d 3c3d 3c01 3b3b
00000240: d9d0 c6bd d530 653d 00fe 9ebd 8a8e 163d
00000250: 15ae 38be 2ac4 41be 0e58 56bc 65e4 063d
00000260: 5083 823a 2e93 b8bd b18e 0dbd afab 5dbe
00000270: 91e4 5f3d 6c54 2e3e 3952 fc3b 3189 1ebd
00000280: 4cbb b6bd 96ad 8bbc 45bb 4fbd e756 b83c
00000290: d301 173d 3030 6b3a 2d41 ecbd 2b6e f0bc
000002a0: 999a 2f3c eba0 983d 2e00 463d 4d13 0f3e
000002b0: 0dc9 96bd 3307 133e 2407 9e3d 2d12 e0bc
000002c0: cac7 2e3c 0ae7 0fbe a204 fb3d 9784 ecbc
000002d0: 9ce7 873d b342 4c3d a463 463d 69b8 313e
000002e0: 47a0 b8bc d502 fa3d c5c0 a83d dadd e03d
000002f0: abe2 003e 2789 943c faed 0d3e 49b2 85bb
00000300: 40d9 1c3e 8a5d b8bc 6c86 f0bb f370 aebd
00000310: 311b ff3d 6fb4 d43d 92c6 c3bd 2a6e 84bd

dense1.weight f4 [50, 50]
0.025874613 0.09902791 0.19765301 -0.07246081 -0.26704276 -0.066003166 0.05738635 0.06935367
-0.08176992 0.0004575245 0.07301532 0.06260211 -0.026857298 -0.158892 -0.09997397 0.07215038
-0.06500858 0.032800585 0.026489284 0.058903124 0.07896986 -0.012653616 -0.10622641 -0.03424757
0.05900673 0.07650926 -0.28893304 -0.1932793 -0.11288049 0.038027227 -0.09184128 -0.080099165
-0.14033721 -0.09358392 0.009565502 0.028418342 0.08647459 0.119623885 -0.018942095 -0.07717293
-0.06730427 0.07292026 -0.10382262 0.085511334 0.16085461 -0.14197248 0.06312541 -0.08809194
-0.10661709 0.13444702 0.04862738 -0.09532834 -0.13618575 0.00021581534 0.083240926 0.035823144
0.052847393 -0.1412681 0.033044565 0.020256728 0.14029305 0.037814446 0.13530403 0.079613484
-0.10910624 0.050396517 0.007264289 0.057162978 0.027956812 0.05618073 0.09912025 -0.09298679
0.025629139 -0.010527127 -0.011704187 -0.004817581 0.15807727 0.06506569 -0.07737905 0.101043254
-0.010614072 0.024748387 0.07986811 0.032473072 -0.008379436 0.05250638 -0.031921703 0.14499034
0.029106114 0.02582544 -0.05775288 0.10101979 -0.06884542 0.044602502 -0.14433245 0.12118186
-0.06737755 -0.056827247 0.1347133 -0.15437368 0.0752593 -0.031369627 0.032047804 -0.028185735
-0.038128037 0.060271572 -0.018691849 -0.0055990987 0.018726813 -0.083849415 0.098992445 0.0675655
-0.05017678 0.0023230335 0.015076706 0.11381579 -0.05700541 -0.016378848 0.069044076 0.15324423
-0.11547728 0.020415986 0.11944095 0.029235058 0.12906109 0.14374092 -0.050555535 0.0014224639
0.06872382 0.13965656 -0.024379248 -0.09803401 0.13531438 0.13795155 -0.09310791 0.14855558
-0.0723358 0.06096152 0.063303486 0.0005054034 -0.055077534 0.0848479 0.060867313 0.04897065
0.066837244 -0.022471063 -0.0118492795 -0.1996535 -0.047553968 -0.13023612 0.035802867 0.04234458
0.07322322 0.01303709 -0.06954101 -0.034980938 -0.037396215 0.119971484 -0.029408738 0.05788663
-0.10062929 -0.10084178 -0.016444128 0.07457022 -0.03199854 -0.058188304 0.12701423 -0.14764825
0.019374054 -0.13316199 -0.027172005 -0.011657948 -0.11101689 -0.053889062 -0.03766058 -0.056126237
-0.080182 0.081514485 0.14397989 -0.16403157 0.06841412 -0.062481478 0.04606248 0.03216473
0.047074415 -0.07293946 -0.120743915 -0.014473849 0.048458148 -0.0034366993 0.045888633 -0.0850686
0.099058345 0.08039341 -0.011086121 0.01859929 -0.017506529 0.053889565 -0.0064170994 0.12722841
-0.05644731 -0.2035358 -0.024428617 0.06137121 -0.07080866 -0.0437561 -0.13765557 -0.14079934
0.1261805 0.12325005 -0.047194492 0.058880847 0.034678005 0.012726034 0.04249219 0.036483955
0.0722263 0.04918839 -0.1405724 0.10570424 0.019699074 0.0391672 -0.11520596 -0.10869191
-0.0644482 -0.16182029 -0.14907064 -0.09769334 0.045892943 -0.010822921 0.10940906 -0.0961427
-0.008261279 0.024768125 -0.043359697 -0.10721315 0.22443365 -0.17056164 0.08094127 0.019989746
0.12133035 -0.037560545 -0.16707054 0.07589807 0.19162452 0.011821203 0.026311724 0.19284093
0.03018243 -0.014861393 0.070695914 -0.17633791 -0.07659053 -0.086312294 -0.015748397 -0.0074663577
00000000: fff6 d33c 25cf ca3d 8d65 4a3e 5566 94bd
00000010: d4b9 88be ab2c 87bd f30d 6b3d 4c09 8e3d
00000020: fd76 a7bd e6df ef39 0e89 953d 8935 803d
00000030: d603 dcbc 96b4 22be 27bf ccbd 94c3 933d
00000040: 3823 85bd e859 063d 0e00 d93c 6744 713d
00000050: f3ba a13d 1d51 4fbc 3b8d d9bd 2e47 0cbd
00000060: 0ab1 713d e3b0 9c3d 08ef 93be 02eb 45be
00000070: e32d e7bd 70c2 1b3d 4817 bcbd 080b a4bd
00000080: 8fb4 0fbe eda8 bfbd a0b8 1c3c 95cd e83c
00000090: 9719 b13d 5efd f43d 742c 9bbc d70c 9ebd
000000a0: d2d6 89bd 3857 953d f4a0 d4bd 9120 af3d
000000b0: 12b7 243e 3c61 11be e547 813d 8c69 b4bd
000000c0: 105a dabd 7bac 093e 812d 473d 813b c3bd
000000d0: 4774 0bbe 7d4c 6239 387a aa3d 4abb 123d
000000e0: 8276 583d 96a8 10be bd59 073d 70f1 a53c
000000f0: fba8 0f3e 52e3 1a3d 248d 0a3e 650c a33d
00000100: 1873 dfbd 946c 4e3d 4609 ee3b ba23 6a3d
00000110: af05 e53c c41d 663d 8fff ca3d dc6f bebd
00000120: 33f4 d13c f979 2cbc ebc2 3fbc ccdc 9dbb
00000130: 02df 213e 2941 853d e878 9ebd c4ef ce3d
00000140: a5e6 2dbc 21bd ca3c e491 a33d 7c02 053d
00000150: e749 09bc ee10 573d 55c0 02bd 5978 143e
00000160: f26f ee3c e08f d33c 498e 6cbd 77e3 ce3d
00000170: d4fe 8cbd 1db1 363d e3cb 13be 322e f83d
00000180: 3efd 89bd b0c3 68bd 49f2 093e 2214 1ebe
00000190: 8c21 9a3d 707d 00bd 8f44 033d c5e5 e6bc
000001a0: 252c 1cbd 53df 763d a61f 99bc a578 b7bb
000001b0: f968 993c 3eb9 abbd 8dbc ca3d c85f 8a3d
000001c0: 2b86 4dbd 093e 183b 4a04 773c 4118 e93d
000001d0: 817e 69bd ef2c 86bc fb66 8d3d 0eec 1c3e
000001e0: 5a7f ecbd 6d3f a73c 759d f43d 5c7e ef3c
000001f0: 9728 043e d230 133e 5213 4fbd f871 ba3a
00000200: 13bf 8c3d 2102 0f3e fdb6 c7bc 0ec6 c8bd
00000210: da8f 0a3e 2c43 0d3e 5caf bebd f41e 183e
00000220: cb24 94bd c9b2 793d 42a5 813d 0c7d 043a
00000230: fb98 61bd bcc4 ad3d 0150 793d 7395 483d
00000240: f7e1 883d 3c15 b8bc 7b23 42bc f871 4cbe
00000250: f3c7 42bd 9e5c 05be 07a6 123d 8371 2d3d
00000260: 0ef6 953d 8599 553c 846b 8ebd 2c48 0fbd
00000270: c62c 19bd 9cb3 f53d 98ea f0bc 881a 6d3d
00000280: bb16 cebd 2386 cebd d6b5 86bc 46b8 983d
00000290: e710 03bd dc56 6ebd 0510 023e 1a31 17be
000002a0: 56b6 9e3c 9e5b 08be d397 debc fa00 3fbc
000002b0: d35c e3bd c7ba 5cbd fb41 1abd a0e4 65bd
000002c0: 7636 a4bd 11f1 a63d 776f 133e e4f7 27be
000002d0: b41c 8c3d 94ec 7fbd 03ac 3c3d 2abf 033d
000002e0: 1ad1 403d 4961 95bd 9648 f7bd b923 6dbc
000002f0: 0d7c 463d 3f3a 61bb b8f5 3b3d 7238 aebd
00000300: 1adf ca3d 4da5 a43d 90a2 35bc 8a5d 983c
00000310: da69 8fbc 4ebb 5c3d 8846 d2bb 2a48 023e
00000320: 4b35 67bd b06b 50be 861e c8bc 6160 7b3d
00000330: 2104 91bd 9939 33bd 95f5 0cbe b42d 10be
00000340: 7635 013e 866a fc3d 034f 41bd 0b2d 713d
00000350: 860a 0e3d db80 503c 4a0c 2e3d 3370 153d
00000360: 62eb 933d c479 493d 36f2 0fbe 777b d83d
00000370: f45f a13c c96d 203d 1af1 ebbd dd99 debd
00000380: 6bfd 83bd 38b4 25be f9a5 18be 7213 c8bd
00000390: 3dfa 3b3d 9f52 31bc db11 e03d 77e6 c4bd
000003a0: 515a 07bc 86e6 ca3c f099 31bd 9192 dbbd
000003b0: efd1 653e b6a7 2ebe 89c4 a53d 89c1 a33c
000003c0: 0c7c f83d 16d9 19bd 8a14 2bbe 7370 9b3d
000003d0: 3839 443e b8ad 413c af8b d73c 1878 453e
000003e0: 2541 f73c 337d 73bc 05c9 903d ed91 34be
000003f0: 7fdb 9cbd 80c4 b0bd c802 81bc 59a8 f4bb

dense1.bias f4 [50]
-0.03140073 0.24594769 0.14709812 0.09152274 0.008939165 0.14105605 0.28707966 0.1143249
0.06535793 -0.013952536 0.27929366 0.22856452 0.13211587 -0.08247099 0.24237952 0.26941696
0.060065575 0.10572104 0.0008384404 0.2367669 0.06557189 0.26307583 0.022662219 0.25349793
0.018321745 0.18564974 0.1222042 -0.20581621 0.12475701 0.17939211 0.18682916 0.26934355
0.1474996 0.06293955 0.04589924 0.06301582 -0.028330248 0.016528238 0.10668046 0.005836773
0.2556115 0.082560584 0.1570121 0.0066006053 0.28601253 0.010176909 0.09674783 0.099177346
0.23318157 0.04316447
00000000: 0d9e 00bd b6d9 7b3e e4a0 163e 4670 bb3d
00000010: 9375 123c ff70 103e 1bfc 923e 2c23 ea3d
00000020: 61da 853d 2d99 64bc 94ff 8e3e d10c 6a3e
00000030: 6249 073e 8de6 a8bd 5632 783e 05f1 893e
00000040: 5207 763d 4684 d83d c8ca 5b3a 0673 723e
00000050: 8e4a 863d e0b1 863e 1ea6 b93c 7bca 813e
00000060: 7c17 963c f71a 3e3e 3246 fa3d 7cc1 52be
00000070: 9a80 ff3d 91b2 373e 2550 3f3e 66e7 893e
00000080: 230a 173e 73e6 803d d700 3c3d 700e 813d
00000090: d614 e8bc 3a66 873c 497b da3d 6742 bf3b
000000a0: 83df 823e 8615 a93d c8c7 203e e449 d83b
000000b0: 3c70 923e 0dbd 263c ba23 c63d 7e1d cb3d
000000c0: 26c7 6e3e 3acd 303d

dense2.weight f4 [22, 50]
0.014214004 -0.015767753 0.17285474 -0.09587058 -0.105593644 0.0771269 0.19253057 0.17746127
0.06965654 0.066264905 -0.041385394 -0.045663092 -0.14868331 -0.023265632 -0.048110597 -0.031149544
-0.11485095 -0.054415002 0.10226063 -0.01805679 0.13128488 -0.025775855 0.040535804 0.121126585
-0.02588096 -0.13017848 -0.05901732 -0.021270707 0.07895503 -0.18774119 -0.048640154 -0.10881128
0.03353895 0.07402775 0.11317031 -0.03395245 0.072031215 0.013880022 0.06896052 0.26376536
-0.07363705 0.026421325 -0.06767177 -0.08714886 0.040914357 0.09173067 -0.03415434 0.09195202
0.050683353 -0.008570118 0.090810224 -0.05349069 0.019162701 0.0683562 -0.14424245 0.012647675
-0.01775526 -0.085246034 0.0075252955 0.06788345 -0.0018180567 -0.11404463 -0.05987361 -0.09862723
-0.13301696 0.22621594 -0.043314833 0.09023049 0.030813027 -0.0736225 -0.16054744 -0.04824311
0.15081708 0.05814698 0.041115813 -0.15833853 0.046095297 -0.28040162 0.096992806 -0.15848258
-0.16465873 -0.11962489 -0.0037755615 0.14249845 0.061564993 -0.12818144 -0.0013534492 -0.049442414
0.17631017 0.24859212 0.04887285 -0.0021506867 0.05511665 -0.0044546146 -0.07380378 -0.117970504
0.13381954 0.104084715 0.021326277 0.054989953 0.13608032 0.08696322 0.06545114 -0.13493171
-0.13246545 0.058443714 0.051515833 -0.2442362 0.0059380517 0.11433084 -0.077331565 0.009795385
-0.08788873 0.0150516685 0.023934036 0.13746151 -0.09878767 0.116155304 0.13822497 0.053490385
-0.19868454 -0.18562843 0.07952311 0.18140249 -0.07451072 -0.023379898 -0.15960674 -0.13415791
-0.06439596 -0.15000962 -0.014084957 -0.1499301 0.032537956 0.084405065 0.058164362 -0.05795883
0.061201297 -0.09217239 0.11133987 0.13229086 0.010568163 0.01807119 -0.020970814 0.1323133
-0.081482984 -0.058737453 0.15829028 0.11478444 -0.039231114 0.01830069 -0.09145977 0.021566324
-0.06036276 0.05979742 -0.06697764 0.03151968 0.02959406 -0.01969604 -0.043834012 0.12400165
0.18228865 -0.11582175 -0.017335275 -0.062431592 0.041951817 0.14568488 -0.019350486 0.13763592
0.007067504 -0.028760508 -0.13624415 -0.029990468 0.163711 0.12975733 -0.031261183 0.021428915
-0.05419986 0.3379416 0.13590439 -0.10929026 -0.10241244 -0.026533695 -0.07013502 -0.01373438
0.07154061 -0.13768831 0.1663281 0.10732205 0.0024940057 0.16581906 -0.10858995 0.14245641
-0.14637505 -0.13358507 0.068501875 -0.16252513 0.0077940277 -0.10094268 0.020380106 -0.010687634
-0.1288144 0.05196131 0.14469492 -0.046861954 -0.064586386 0.096761845 -0.035504907 0.14912018
-0.1528516 -0.03262394 -0.061458703 -0.056557335 -0.11203652 -0.0013416 0.050022025 0.12877876
-0.16130021 -0.15011434 -0.04772447 -0.19056354 0.10365443 -0.11036023 0.07593917 0.04014004
0.073017694 -0.111578465 -0.13506219 -0.13810395 0.0077705863 -0.042836122 0.010580288 0.06904179
0.079069585 0.05337773 0.016717222 0.062769435 -0.08148259 0.15682943 0.03572974 -0.12336935
-0.10043463 0.14862962 -0.103281796 0.04014918 0.15684764 0.05331079 -0.06986035 -0.06621311
-0.0380376 0.16479754 -0.22470392 0.07804906 -0.047493167 -0.14586274 -0.14479853 -0.030722126
00000000: dbe1 683c 602b 81bc d500 313e cb57 c4bd
00000010: 7b41 d8bd b5f4 9d3d bc26 453e 68b8 353e
00000020: 17a8 8e3d e5b5 873d bb83 29bd 3909 3bbd
00000030: 7040 18be 9197 bebc 9e0f 45bd 542d ffbc
00000040: fa36 ebbd 44e2 5ebd 056e d13d d5eb 93bc
00000050: 8b6f 063e e327 d3bc df08 263d 3711 f83d
00000060: 4f04 d4bc 824d 05be 25bc 71bd e83f aebc
00000070: 2db3 a13d 3a3f 40be e63a 47bd 73d8 debd
00000080: 2360 093d dc9b 973d d6c5 e73d b911 0bbd
00000090: 1a85 933d 0869 633c 2c3b 8d3d 410c 873e
000000a0: 06cf 96bd 8971 d83c 7f97 8abd 1a7b b2bd
000000b0: d095 273d 4add bb3d 6ce5 0bbd 5751 bc3d
000000c0: 5999 4f3d ae69 0cbc b6fa b93d 0e19 5bbd
000000d0: 19fb 9c3c 56fe 8b3d 4bb4 13be 3238 4f3c
000000e0: 7b73 91bc 7995 aebd c196 f63b 7a06 8b3d
000000f0: dc4b eeba 3b90 e9bd 083e 75bd 13fd c9bd
00000100: 9935 08be 27a5 673e e56a 31bd c3ca b83d
00000110: 9a6b fc3c 65c7 96bd 8c66 24be 919a 45bd
00000120: cb6f 1a3e 872b 6e3d 0e69 283d 7f23 22be
00000130: 6cce 3c3d cd90 8fbe 2aa4 c63d 4249 22be
00000140: 4c9c 28be e5fd f4bd 696f 77bb 1deb 113e
00000150: 932b 7c3d ff41 03be 3866 b1ba 2184 4abd
00000160: a78a 343e ef8e 7e3e e62e 483d 89f2 0cbb
00000170: ffc1 613d 04f8 91bb 7026 97bd 859a f1bd
00000180: fd07 093e 5e2a d53d 72b4 ae3c 253d 613d
00000190: a458 0b3e c619 b23d 3f0b 863d 8a2b 0abe
000001a0: 06a5 07be ad62 6f3d 4402 533d 0e19 7abe
000001b0: fd93 c23b 4a26 ea3d 0360 9ebd d37c 203c
000001c0: 02ff b3bd 469b 763c 5011 c43c b6c2 0c3e
000001d0: 3151 cabd d5e2 ed3d d98a 0d3e bc18 5b3d
000001e0: f673 4bbe 6115 3ebe 03dd a23d 93c1 393e
000001f0: 1499 98bd 3387 bfbc f36f 23be b160 09be
00000200: 07e2 83bd 1f9c 19be 97c4 66bc 4787 19be
00000210: 8546 053d 90dc ac3d c13d 6e3d 3d66 6dbd
00000220: 36ae 7a3d e1c4 bcbd 2806 e43d 4177 073e
00000230: 1726 2d3c 080a 943c fcca abbc 237d 073e
00000240: 8de0 a6bd af96 70bd d916 223e 1b14 eb3d
00000250: ceb0 20bd 54eb 953c 434f bbbd dcab b03c
00000260: f13e 77bd 24ee 743d 932b 89bd c81a 013d
00000270: 3e6f f23c 9759 a1bc 4b8b 33bd 94f4 fd3d
00000280: e0a9 3a3e f433 edbd b502 8ebc 45b8 7fbd
00000290: abd5 2b3d 6b2e 153e e984 9ebc 6ef0 0c3e
000002a0: 8596 e73b 289b ebbc 9683 0bbe 92ae f5bc
000002b0: dba3 273e 1bdf 043e ba0b 00bd b18b af3c
000002c0: ac00 5ebd ae06 ad3e 852a 0b3e 92d3 dfbd
000002d0: 9dbd d1bd 315d d9bc f3a2 8fbd 2a06 61bc
000002e0: e283 923d 2afe 0cbe ea51 2a3e aacb db3d
000002f0: 7972 233b 79cc 293e 6864 debd 18e0 113e
00000300: 57e3 15be 86ca 08be b64a 8c3d fd6c 26be
00000310: 0b65 ff3b 09bb cebd 2ef4 a63c 301b 2fbc
00000320: ece7 03be 62d5 543d e82a 143e 52f2 3fbd
00000330: de45 84bd 132b c63d 986d 11bd f6b2 183e
00000340: 2185 1cbe aea0 05bd 1fbc 7bbd aaa8 67bd
00000350: 6773 e5bd a0d8 afba e5e3 4c3d 94de 033e
00000360: e22b 25be 93b7 19be bc7a 43bd 1723 43be
00000370: c648 d43d 8b04 e2bd ff85 9b3d e269 243d
00000380: 4d8a 953d 4083 e4bd be4d 0abe 1f6b 0dbe
00000390: 67a0 fe3b ee74 2fbd f258 2d3c c865 8d3d
000003a0: 3cef a13d 9ba2 5a3d 8ef2 883c 438d 803d
000003b0: 58e0 a6bd e597 203e 5959 123d 12a9 fcbd
000003c0: acb0 cdbd 5d32 183e 6885 d3bd 7773 243d
000003d0: ab9c 203e 6a5c 5a3d f112 8fbd bd9a 87bd
000003e0: 51cd 1bbd b0c0 283e c918 66be 30d8 9f3d
000003f0: 3288 42bd 0b5d 15be 1146 14be f8ac fbbc
