models/best_mlp_model.pth (torch, 711074 bytes, 11 tensors)

layers.0.weight f4 [512, 3]
000000 ab 0f 7c 3e 76 09 12 bf a7 9a 94 3f 16 3e 09 3f
       0.24615352 -0.57045686 1.1609696 0.5361036
000010 8e b7 47 bf 87 00 74 3f 55 94 25 bf f0 33 b8 be
       -0.7801446 0.95313305 -0.6467946 -0.35977125
000020 50 79 4a bf e7 ac 68 bf df 92 a8 be 02 ec 87 bf
       -0.7909136 -0.9088883 -0.32924554 -1.0618899
000030 65 59 26 bf b1 18 02 bf 63 d4 a6 bf 5b 1c 6e bf
       -0.64980155 -0.50818926 -1.3033565 -0.93012017
000040 12 51 84 bf 81 26 a2 3f 99 d4 62 3f ac 3a aa be
       -1.0337241 1.2668 0.8860565 -0.33247888
000050 e5 96 65 be ca 8d b1 3f 52 c6 52 bf 33 65 b3 bf
       -0.22420843 1.3871396 -0.8233386 -1.4015259
000060 70 b4 a4 be b8 9b 98 bf 30 48 30 3e e2 78 33 3e
       -0.32168913 -1.1922522 0.17215037 0.17526582
000070 28 81 55 bf b0 61 a7 bf 9d 9d 4a 3d 9d c6 50 be
       -0.834002 -1.3076687 0.049466718 -0.20388265
000080 d5 a9 8d 3f f7 d8 94 3f 10 58 8a bf d8 36 90 3e
       1.1067454 1.1628712 -1.0808125 0.28166842
000090 3d f5 95 bd e9 9e 85 bf 00 c9 94 bf 2c 8e 9b be
       -0.07322166 -1.043912 -1.162384 -0.30381906
0000a0 b7 f5 54 3f ff 42 ae bf 11 5c 33 be 34 a5 54 bd
       0.8318743 -1.3614196 -0.1751559 -0.051915362
0000b0 d0 ad 6d 3f 5f c8 fb 3e a9 b4 84 3f 2a 48 6f 3f
       0.9284334 0.4917631 1.0367633 0.9346949
0000c0 7a 54 42 bf cb 9c 99 bf 80 d1 a3 3d fb b6 ac 3f
       -0.7591015 -1.2000974 0.07998943 1.3493341
0000d0 84 5c 8e be 97 99 31 bf a4 52 51 3f 2f 60 8a 3f
       -0.2780496 -0.69374985 0.81766725 1.0810603
0000e0 a8 0b 0d 3f 6c dc b0 3e 42 d2 a4 3f b3 c8 8e 3f
       0.5509591 0.3454317 1.2876666 1.1154999
0000f0 f8 ce 89 bf 93 74 46 3f a5 5b b0 bf 3e 80 9f bf
       -1.0766287 0.7752163 -1.3777968 -1.2461011
000100 23 17 99 3f 77 4b 75 3f 27 08 9f 3e a4 e5 99 bf
       1.1960186 0.95818275 0.31060907 -1.2023206
000110 24 e0 9e bf db 9c e8 be 70 93 09 3f f5 b4 ae bf
       -1.2412152 -0.4543217 0.53740597 -1.3648974
000120 9e fc 0a bf 10 59 aa 3e 4a dd 7c 3f ed 27 98 bf
       -0.54291713 0.33271074 0.9877516 -1.1887184
000130 2d 1d 7c bf b3 e8 0c 3f c8 4e 61 3f 17 cc 8b be
       -0.9848202 0.5504257 0.88010836 -0.27304146
000140 08 fb ee be e0 76 c5 be f8 f0 b1 bc ee 76 38 bf
       -0.46675897 -0.38567257 -0.021721348 -0.7205647
000150 38 98 f0 3e cd f0 6f be 77 16 5a be 6a 98 9a 3f
       0.46991134 -0.23431702 -0.21297632 1.2077763
000160 9c 21 5c 3f b7 8d 75 bf 4a 6f 33 3f 59 13 8c bf
       0.85988784 -0.95919365 0.7009169 -1.0943404
000170 55 a7 88 bf e0 0b 1d 3e 75 27 32 bf d0 df 11 3e
       -1.0676066 0.15336561 -0.69591457 0.14245534
000180 ca 7c ae 3f 7c dd 41 3f 89 ea 39 3f 71 30 6a 3f
       1.3631833 0.75728583 0.726235 0.91480166
000190 4c cd b0 bf de b8 2f 3f e0 f7 a9 be d4 46 8a be
       -1.3812652 0.6864146 -0.33196926 -0.27007163
0001a0 90 25 d5 bd 5b d4 00 3f be c9 5b 3f f6 91 2e be
       -0.10407555 0.5032403 0.8585471 -0.17047867
0001b0 0f 8e 07 bf 38 6e 1b 3e 88 ab d1 be 41 4f 48 be
       -0.5295114 0.15178764 -0.4095118 -0.19561483
0001c0 b6 4b 28 3c 63 8a 32 3e 63 b3 90 bf 65 67 23 bf
       0.010271957 0.17435603 -1.1304744 -0.6382964
0001d0 4b a6 87 3f 60 ce d3 bd 61 a8 6e bf b8 88 1f be
       1.0597624 -0.10342097 -0.93225676 -0.15579498
0001e0 9e c6 a0 bf f5 6c 63 3f 1c 14 88 bf fd 29 e6 3e
       -1.2560613 0.8883813 -1.0631137 0.4495391
0001f0 c5 b5 88 3f c5 a3 80 bf 8f 04 9d 3f b9 d6 a2 bf
       1.0680472 -1.0049978 1.2267016 -1.2721778
000200 f2 52 cd 3d d4 13 85 bf dd 23 a9 be 12 e2 8d 3f
       0.10025586 -1.0396676 -0.33035174 1.1084616
000210 cd 49 dd be 5d f8 b3 3e bf 63 76 3e e0 96 58 bf
       -0.43220368 0.35150424 0.24061488 -0.84605217
000220 3d ff 6e bf 28 87 a5 3f 21 3b 15 3f 83 85 91 3f
       -0.9335821 1.2931871 0.5829335 1.136887
000230 98 33 14 3f a6 67 d9 be 4c df b9 3e bc 30 e2 3e
       0.57891226 -0.4246189 0.36303174 0.44177806
000240 86 32 db be bb 5a b3 bf 64 6f ac 3f b8 93 1c 3e
       -0.42811984 -1.4012064 1.3471494 0.15290725
000250 6b c9 1c 3f 42 d1 1e bf df cd 25 bf 8f e0 6d bf
       0.6124484 -0.6203805 -0.6476726 -0.92920774
000260 de bf ac 3f f0 8b 9f 3f fd e3 a0 bf 83 d9 89 3f
       1.3496053 1.246458 -1.2569577 1.0769504
000270 90 34 e3 bd d8 ac 94 bf 60 42 af bd 5e 53 5e 3e
       -0.1109401 -1.1615248 -0.08557582 0.2171149
000280 d7 d7 61 3e 53 56 51 be 08 ba 50 3f 2e 76 95 3f
       0.22054993 -0.20443086 0.8153386 1.167669
000290 d7 c7 97 3b c3 c6 83 3f 19 a0 57 3f ce a5 8a 3f
       0.004631977 1.0295032 0.84228665 1.083185
0002a0 95 64 ac 3f 4e 3c a5 3f d6 c1 70 bf 4c 00 d5 3e
       1.3468195 1.2909029 -0.9404577 0.4160179
0002b0 c6 c0 30 3f 42 fa 8d 3d 33 bb b2 bf 02 41 92 3f
       0.6904415 0.069324985 -1.3963379 1.1426089
0002c0 48 a0 8a bf c5 14 15 bd bb f2 07 be b6 c1 08 3f
       -1.0830164 -0.03639676 -0.13276188 0.5342058
0002d0 1d 42 8d bf 18 2d 24 be de 5e 7a 3f 9f 02 56 be
       -1.1035801 -0.16032827 0.97801006 -0.20899437
0002e0 2d b3 1c 3d 0f ca 17 3f 2a d6 23 3f 3d a9 7b 3f
       0.038256813 0.5929269 0.63998663 0.9830511
0002f0 17 41 ee bd 6a 4c 77 be 7e 4e a6 3f 41 fb ad 3e
       -0.11633509 -0.24150243 1.2992704 0.33980754
000300 f5 d2 9a bf 39 86 1e 3f f9 66 71 bc ab 91 4c bf
       -1.2095629 0.6192356 -0.014734023 -0.7990977
000310 1d 20 b8 3e b7 a3 a7 bf dc 51 14 bf 76 1f 36 be
       0.35962 -1.3096837 -0.5793741 -0.17785439
000320 21 12 65 be e8 29 87 be 83 1b 06 3f 31 31 27 bf
       -0.22370197 -0.2639916 0.5238573 -0.65309435
000330 72 1a 8c bf b7 4c 85 3f 54 b1 90 3f fe 90 e9 3e
       -1.094557 1.0414037 1.1304116 0.45618433
000340 5d fc 9c 3f f5 cb 24 be 22 22 b4 be 66 01 4f 3f
       1.2264515 -0.16093428 -0.3518229 0.8086151
000350 6a 26 5c 3d 2e cd d9 be 38 97 b2 bf 48 01 72 be
       0.053747572 -0.42539352 -1.3952398 -0.23633301
000360 e1 dc 12 3e e9 a9 71 bf 14 f8 b3 bf fc 51 92 bf
       0.14342071 -0.9439989 -1.4060082 -1.143127
000370 c2 dc 4e 3e d8 17 9b bf e7 fa 96 be 11 58 e3 be
       0.202014 -1.2116652 -0.29488298 -0.44403127
000380 58 d7 86 bf 24 b8 79 bf d1 8a 88 3e a4 05 5f bf
       -1.0534468 -0.975466 0.2666841 -0.8711798
000390 de 0f fa 3d b6 ac 3e 3f 79 1e 40 3e 5a 65 a6 bf
       0.12210058 0.74482286 0.18761624 -1.299968
0003a0 e4 4d 92 3f d1 3e 37 3f ce c2 d6 3d d8 6e a3 bf
       1.143002 0.71580225 0.10486375 -1.2768202
0003b0 f2 43 9a be 59 94 80 3f 06 75 a3 be b4 f8 7e bd
       -0.30129963 1.0045272 -0.3192522 -0.0622489
0003c0 e3 a7 46 bf b4 c3 39 3f 8a d1 77 3f e8 91 a5 3f
       -0.77599925 0.72564244 0.96804106 1.2935152
0003d0 d1 4f 59 be d2 2f 29 bf 94 49 31 bf 4b c9 5d bf
       -0.21221854 -0.66088593 -0.69252896 -0.86635274
0003e0 2e 10 ca 3e 96 62 91 3f 30 7f cb be 35 7c 9f bf
       0.3946547 1.1358211 -0.39745474 -1.245978
0003f0 7e c4 b3 3f be 92 a1 3e 85 75 1f bf 75 9f 91 be
       1.404434 0.31557268 -0.62288696 -0.2844197

layers.0.bias f4 [512]
000000 e7 89 b8 3e 8f 7c f8 3e c4 4e 07 bf df b1 07 3d
       0.3604271 0.4853253 -0.5285456 0.033128615
000010 ae 54 81 3e f2 3a bb be 95 af b8 3e 45 68 2c 3e
       0.25259918 -0.3656841 0.36071458 0.1683665
000020 e0 ee 9e be ec 2f 0c 3f 78 a5 fe 3e 75 38 9a be
       -0.31041622 0.5476062 0.49735618 -0.30121198
000030 f8 c1 90 3d 08 84 07 3c 73 73 f2 3e e5 29 be 3e
       0.070682466 0.008271225 0.47353706 0.37141338
000040 a8 5a cf be 37 2c de 3e e2 41 09 bf 49 e1 c4 3e
       -0.40498853 0.43393108 -0.53616154 0.3845313
000050 70 aa 4e 3e 95 2a a1 3d e5 01 37 3e f0 cd 0c 3f
       0.20182204 0.0786945 0.17871816 0.55001736
000060 71 3f 62 be 80 05 f1 3d 07 81 80 be 7e b1 84 3e
       -0.22094513 0.11768627 -0.2509844 0.25916666
000070 3c e7 8e 3e 15 c0 09 3f b3 7f e7 3e d4 98 f1 be
       0.27910793 0.5380872 0.45214614 -0.4718691
000080 6a ba 51 be b2 b9 a5 3e d4 17 cf be d1 e4 80 3e
       -0.20481268 0.32368237 -0.40447867 0.25174573
000090 6b 9f a2 be e5 5d 03 3f ad 81 a4 be 30 39 40 be
       -0.3176225 0.51315147 -0.32130185 -0.18771815
0000a0 44 32 ae be d0 14 9c 3e 07 cd 34 3e d2 71 e8 be
       -0.34022725 0.3048463 0.17656337 -0.45399338
0000b0 83 dd 10 3d 44 be a5 3e 3f 05 a0 be 4e e4 ec be
       0.0353675 0.32371724 -0.31254002 -0.46267933
0000c0 5a 57 cb be 4d 54 cb bd 68 04 10 bd 47 31 93 be
       -0.3971508 -0.099281885 -0.035160452 -0.28748533
0000d0 18 89 13 bf 72 71 a6 3e a6 52 d1 be 63 36 bf bd
       -0.57631063 0.32508427 -0.40883368 -0.09336545
0000e0 8d b1 f8 3e 41 28 d9 3e ee ae 05 3f 3d af a4 3d
       0.4857296 0.42413524 0.52220047 0.080412365
0000f0 c6 6d 11 bf 1e b1 c5 bd 94 cc a4 be 03 c1 47 3e
       -0.56808126 -0.09652923 -0.3218733 0.19507222
000100 e3 95 fa 3e 63 94 ac 3e 75 ac 3b 3e fb b9 dd 3e
       0.4894248 0.3370696 0.18327506 0.43305954
000110 40 85 13 3e f0 d6 ad 3e 49 ef f0 3e f8 ac e0 bd
       0.144063 0.33953047 0.4705756 -0.10970491
000120 73 3a 09 bf e8 08 01 3f 2f 33 fc 3e 59 61 0e 3f
       -0.5360481 0.50404215 0.492578 0.5561729
000130 4a 06 12 3f 79 af 09 be 15 bc b7 3e 26 8d 13 3e
       0.57040846 -0.13445844 0.35885683 0.14409313
000140 11 83 8e 3e 00 1d c9 be 7c ad 92 3d 2e c4 2c be
       0.2783437 -0.39279938 0.07161996 -0.16871712
000150 96 79 e4 3e 7f 31 8c 3d ce 96 1a 3e 99 99 59 be
       0.44624013 0.06845378 0.1509659 -0.21249999
000160 1a 3a 74 be b2 84 b4 3e 8d 23 97 3c f5 1c af be
       -0.23850289 0.35257488 0.01844957 -0.3420178
000170 b7 a7 9b 3e 68 79 93 3e 13 39 9f be 60 0d 0e bf
       0.30401394 0.28803563 -0.31098232 -0.5548916
000180 f5 5b 95 3e 6d dd df 3e d0 7a 86 3e 74 9f 2b bc
       0.2917172 0.43723622 0.26265574 -0.010475028
000190 22 b6 b1 3d b6 37 f2 3e 8c 46 b4 3e 13 a4 30 3d
       0.08677317 0.4730813 0.35210073 0.043125223
0001a0 fc f9 3e be b7 cf dc 3e 71 86 04 bf 56 b7 01 bf
       -0.18650049 0.43127224 -0.5176764 -0.50670373
0001b0 ad 49 0c be 9f 37 7b be dc 72 b6 be 26 98 c5 be
       -0.1369998 -0.24532937 -0.35634506 -0.38592643
0001c0 1b b7 94 3e 3e 7b 41 be 55 0e 73 3c 0b 6c bd bd
       0.29045948 -0.1889467 0.01483496 -0.09249123
0001d0 fe 53 53 3e c2 0e 80 be af 0e eb 3d 68 8d 96 be
       0.20637509 -0.2501126 0.1147741 -0.2940476
0001e0 c5 15 aa be 70 75 d0 be da 58 01 3e b8 0c a5 3e
       -0.33219734 -0.40714598 0.1263155 0.32236266
0001f0 58 c8 60 bc d0 a3 cc 3e 61 52 17 3e ec 20 47 3e
       -0.013719641 0.3996873 0.14777519 0.19446152
000200 7a c6 8d be 21 d7 9a 3e 18 d5 57 be eb 81 02 bf
       -0.27690488 0.30242255 -0.21077383 -0.5097949
000210 81 d6 40 3e af 94 80 be 8c 86 ba 3e b9 e9 9d be
       0.18831827 -0.25113437 0.36430776 -0.3084238
000220 ef d9 90 3e 6c fb 0d 3f fb 25 ae 3d c1 63 a5 be
       0.2829127 0.55461764 0.08503338 -0.3230267
000230 11 b4 ff 3e ad 15 9a 3d 05 ed a0 be bb 00 2e bd
       0.49942067 0.075236656 -0.31430832 -0.042481165
000240 c6 20 29 be 1a ed bd be e6 6b bd be ff ed 78 3e
       -0.16516408 -0.37094957 -0.36996382 0.24309538
000250 b3 fe b7 be 16 f7 13 3b c1 9b a3 3e a0 2e ab be
       -0.35936508 0.0022577695 0.31954768 -0.3343401
000260 fa 65 c0 be 06 f9 07 bf 47 f2 27 3e 8d cf a1 be
       -0.37577802 -0.53114355 0.16401015 -0.3160366
000270 6f 6c d6 be ac 68 f0 be dc 84 06 3f 5c 8d 19 bd
       -0.41879603 -0.46954858 0.5254648 -0.037488326
000280 de 2e 6f be b8 42 70 3e 9a 6d bd 3d 2b a9 b9 be
       -0.23357722 0.23462951 0.092494205 -0.36261877
000290 77 3a c4 3e 4e 70 71 be f0 13 24 3e 5b ea f7 be
       0.38325855 -0.23577997 0.1602323 -0.48420987
0002a0 82 f2 cf 3e 2e d5 b6 be 56 97 7c 3e c9 15 51 bd
       0.40614706 -0.35709518 0.24667105 -0.051046167
0002b0 da 6a 92 bd 06 81 0d be 02 62 cc 3d 2b 9b 82 3e
       -0.071492866 -0.1381875 0.09979631 0.2550901
0002c0 dd 5c 81 3e 4b 37 31 3e 62 65 0d bf 4e 39 bd 3d
       0.25266162 0.17306249 -0.5523282 0.092394456
0002d0 2a 5d a8 bd 13 3f d5 3e b9 b3 96 be ec d4 26 3d
       -0.08220895 0.41649684 -0.29433993 0.040730402
0002e0 cc c2 83 3e 75 52 45 3e 56 fd 94 3e 7d 07 3c 38
       0.25734556 0.19269736 0.2909953 4.4829667e-05
0002f0 55 12 f1 be 68 5e 0e bf 0f 1f 58 bd 4a e4 a9 3e
       -0.470843 -0.556128 -0.052763995 0.33181983
000300 dc 3a 08 3f 0a f6 8e be 3c 39 75 be 33 5b 11 3f
       0.5321481 -0.27922088 -0.23947614 0.56779784
000310 5e d4 c9 3e 86 cc 68 be 39 5c 93 3e 47 07 75 3e
       0.39419836 -0.2273427 0.28781298 0.23928557
000320 02 3a 9e 3e 1b 35 04 3e 65 a9 e5 3e 4e 0c 90 be
       0.3090363 0.12910883 0.448558 -0.28134388
000330 c4 36 90 3e 01 f2 a7 3e 11 59 bd be e0 da 0a 3d
       0.28166783 0.32801822 -0.36982015 0.03390014
000340 ac 28 05 3b af 60 95 3d 2e 41 84 3d 52 ee b2 3e
       0.0020318432 0.072938316 0.064577445 0.3494745
000350 ee 06 01 3f 3e 53 cd be 4c ba 94 3d 74 48 8f be
       0.504012 -0.4010257 0.07262096 -0.27984965
000360 be 4c d4 be fc ef b5 3e fd 4d 5f 3e d9 f5 ae be
       -0.414648 0.35534656 0.21807094 -0.34171942
000370 b1 0b 05 bf 18 54 d7 3e 78 30 14 3e 1d 81 a1 be
       -0.51970965 0.42056346 0.14471614 -0.31543818
000380 7e 07 88 be 97 1c cc be 28 f4 13 be 0f ce 92 be
       -0.26568216 -0.39865562 -0.14448607 -0.28672835
000390 96 1e b7 bd 82 90 10 3f 25 eb 8c 3e e8 6f ef 3e
       -0.08941381 0.564705 0.2752315 0.46765065
0003a0 d7 e0 9a be bd 2b e2 3e 44 97 be be 95 66 0f bf
       -0.30249664 0.44173995 -0.37224782 -0.560159
0003b0 a9 00 8f be b9 b1 86 3d 4a 88 8a be 0c 13 18 be
       -0.2793019 0.06576867 -0.27057105 -0.14851016
0003c0 6c a6 f5 bd a0 b5 ef bd 47 63 97 be 14 1a d3 be
       -0.11994633 -0.11704564 -0.2956793 -0.41230834
0003d0 f0 30 f0 be 0f d6 bd 3c f2 2a 54 be 30 5c 09 be
       -0.46912336 0.02317336 -0.20719507 -0.13414073
0003e0 dc 7b 10 bf 9c d1 f3 3d 3f f8 80 3e 24 9a 8f 3e
       -0.56438994 0.11905214 0.25189397 0.28047287
0003f0 f5 f5 5d 3e cc e6 d4 3d d6 cd e2 be d6 3c f0 3e
       0.21675856 0.103955835 -0.44297665 0.46921414

layers.2.weight f4 [256, 512]
000000 28 94 56 bc 8a 16 1b bc 5a e4 35 3d 97 49 dc 3c
       -0.013096847 -0.009465823 0.044407226 0.02689056
000010 8c fe ab bd 1e 21 37 3d 2b f0 b6 bd 83 72 94 3d
       -0.0839816 0.044709317 -0.08932527 0.07248404
000020 8b 0f c2 3d a4 e2 38 3d bb ae d7 3d 74 70 c3 3c
       0.09475621 0.045138016 0.10531374 0.023857333
000030 9d b4 72 bd 8b db b2 3d af 3d 8d bc 61 0b fb 3c
       -0.059254277 0.08733281 -0.017241327 0.030645074
000040 51 15 8f 3d 9e 60 3a 3c fb 0a f7 bc ea be 58 bd
       0.06986488 0.011375574 -0.030156603 -0.052916445
000050 e4 15 6a bd 20 f6 3d bc 78 2d a3 3c e1 66 ad bd
       -0.057149783 -0.011594325 0.019919142 -0.08466888
000060 30 57 4f 3c 60 18 e7 3b 81 d8 48 bd cd 50 86 3d
       0.012655064 0.0070524663 -0.0490346 0.0655838
000070 af 97 a1 3d 6d f3 48 3d 26 de 8b bc 1d a4 97 3d
       0.078902595 0.049060274 -0.017073702 0.07404349
000080 9f 2c de bd 23 ac ac bd 0a 13 b9 bd 7f eb ad bd
       -0.108483545 -0.0843127 -0.090368345 -0.08492183
000090 ce f1 1d bd 03 39 63 3d 4d 63 9e bd 52 3d b7 bd
       -0.03856068 0.055474292 -0.07733784 -0.08947243
0000a0 e2 a6 84 bd b8 52 8a 3c 26 e0 bd 3d e4 e4 05 bd
       -0.06477143 0.016885146 0.092712685 -0.03268899
0000b0 4b d4 d7 bd 44 54 d4 bc ff 44 c9 3d e6 3a a6 bd
       -0.105385385 -0.025919087 0.09827613 -0.08116703
0000c0 3f d0 a6 3d 5e 15 4a 3d f6 43 9e bd 84 96 93 bc
       0.081451885 0.049336784 -0.07727806 -0.018016107
0000d0 d6 51 16 3d c4 43 d7 3d bb d8 8f bd 99 c4 dc bd
       0.03669914 0.10510972 -0.0702376 -0.107796855
0000e0 c6 eb 95 bd b0 5c a6 bc ac 28 83 bd c5 c6 dc 3d
       -0.07320361 -0.020307869 -0.06404242 0.107801
0000f0 9f c5 cf bd c1 4c 9d bd 1c a7 97 3d 10 c6 ec bc
       -0.10145115 -0.07680655 0.074049205 -0.028903037
000100 6e fe a2 bd d7 91 02 bd eb 6b d0 bc f4 2b 17 3d
       -0.07958685 -0.031877365 -0.025442084 0.03690715
000110 f3 dc 87 3d 6c df 08 bd 71 dd b1 bc eb 9c c0 3d
       0.066339396 -0.033416197 -0.021712037 0.0940493
000120 b0 2c c7 3d 83 6d a1 3d 71 24 d5 bd 0e be 7b bd
       0.0972532 0.07882216 -0.10407341 -0.061460547
000130 47 cc 9b 3d 07 ce 90 3d dd 26 aa 3d f1 87 ab bd
       0.07607322 0.070705466 0.08308194 -0.08375538
000140 80 91 3f 3c e9 b4 d9 3c 20 3d df bc 1e 56 d3 bc
       0.011692405 0.026575522 -0.027250826 -0.0257979
000150 e8 ee d9 3d 97 68 9a bd a9 22 7b bd d6 4f bd 3d
       0.10641271 -0.0753948 -0.06131235 0.09243743
000160 2d 75 c2 bd 84 1f a1 3c fe 41 c4 3d 2c 4b 0f bd
       -0.09495006 0.019668348 0.095828995 -0.0349838
000170 96 00 46 bd 00 97 8f b9 10 94 fc bb 6b 22 ca 3d
       -0.048340403 -0.0002738759 -0.00770808 0.09869846
000180 d9 64 02 3c ac c0 f9 bc b9 0c 35 3d 88 a7 97 bd
       0.007958614 -0.03048738 0.044201586 -0.07405001
000190 38 fb 4d bc f9 93 a5 ba d6 ea bb bd 95 1c 4d 3d
       -0.012572102 -0.00126326 -0.09175651 0.050076086
0001a0 aa 74 ba 3a cd 9f 13 bd cd 67 c5 3d c6 be dc bd
       0.0014225442 -0.03604107 0.09638939 -0.10778575
0001b0 34 59 4e 3c b4 da 08 bd de f8 6f 3d 62 a7 94 bd
       0.01259451 -0.033411697 0.058586948 -0.07258488
0001c0 95 06 c7 3d 95 bb a6 bd 53 55 68 3d b6 dd 78 3d
       0.09718052 -0.08141247 0.056721997 0.060758315
0001d0 e0 da dc bd d0 61 9a bd fb fa 9f bd d6 20 c5 bd
       -0.107839346 -0.075381875 -0.078115426 -0.096254036
0001e0 2e 59 b9 bd d6 a1 42 bd ae eb 1b bd b8 3d 71 bc
       -0.09050213 -0.04751762 -0.03806656 -0.014724188
0001f0 27 93 79 3d 2c 6c 57 bd d2 ec b0 bd 96 c4 97 bd
       0.06093135 -0.052593395 -0.0863892 -0.07410543
000200 af c4 a2 3d 29 53 f2 bb d0 11 c7 bd 35 a9 bf 3c
       0.07947671 -0.0073951674 -0.09720194 0.023396114
000210 46 5a d4 bd d5 08 98 bc 3d d9 86 3d a4 18 b2 3c
       -0.10368781 -0.018558899 0.06584404 0.021740265
000220 a1 5d d9 3b a9 d9 c5 bd 42 55 89 3d cb e2 ae bd
       0.006633476 -0.09660656 0.06705715 -0.08539351
000230 85 8b e1 ba 2f 8b 3b 3d 61 e1 70 bd 05 fa c2 bc
       -0.0017207718 0.045787033 -0.058808688 -0.02380086
000240 ce 0b 37 3d e5 46 c8 3d 94 c0 d9 bd a0 cd 47 bd
       0.044688992 0.09779147 -0.106324345 -0.048780084
000250 1b c3 1c bd ad 14 b7 bd fc 1f 79 bc 07 a8 46 bd
       -0.038272005 -0.089394905 -0.01520538 -0.048500087
000260 a9 13 a4 bd 05 47 90 bd 91 ed 3e 3d f8 5a 88 3d
       -0.080115624 -0.07044796 0.04661328 0.06657976
000270 c0 72 90 3a 15 e9 8c 3d e4 b3 00 3d f6 e8 95 3d
       0.0011020526 0.06880394 0.031421557 0.073198244
000280 0a 1b 21 bb 5a 6c 81 bd ae e6 66 3c 6a dc 61 3d
       -0.0024582767 -0.063194945 0.014093084 0.055141844
000290 90 f9 60 3c 86 28 0d 3d 08 18 36 3d 18 ad d7 bc
       0.013731375 0.034462474 0.04445651 -0.026327655
0002a0 9f 92 d1 3d 54 32 20 bd e9 c1 3d 3c 36 f7 49 3d
       0.10233044 -0.039110497 0.011581876 0.049308024
0002b0 4d ce ce bd c2 6d 71 3d d2 40 ab 3c 1d 6c d5 bd
       -0.100979425 0.058942564 0.020904932 -0.104210116
0002c0 f8 d4 24 bd fe e8 3b 3d 3b 3e 8c 3d f5 b2 e7 bc
       -0.040242165 0.045876496 0.06847807 -0.028283576
0002d0 4a a3 6b 3d 00 20 59 3c 45 36 c4 3d 1f e4 86 3d
       0.05752877 0.013252258 0.095806636 0.065864794
0002e0 cd 60 bd ba ec 22 69 3b ce 83 6e bd c7 eb 23 bd
       -0.0014448405 0.0035573794 -0.058231167 -0.040019777
0002f0 a8 1b fe bc ef e5 9e 3d 60 65 d2 3b 6b b8 a6 3b
       -0.031019047 0.077587 0.0064207762 0.0050879023
000300 8c 79 8c bd 0f 5d da bd 97 31 a8 bd 45 f4 af 3d
       -0.06859121 -0.10662281 -0.082125835 0.085915126
000310 13 6d af bd 4d 12 b8 3d 04 e2 c2 bc be e1 b6 3d
       -0.08565726 0.089878656 -0.023789413 0.08929776
000320 89 53 4a 3d 23 cb d0 3d 51 77 8f bd 0f 9a 2c bc
       0.04939607 0.10194995 -0.0700518 -0.010534777
000330 98 e0 ac bd 9b 4e 5e bb 60 b3 c0 bc 1c 41 20 bd
       -0.08441275 -0.0033921364 -0.023523033 -0.039124593
000340 4b 61 c5 bd 7a 35 3d 3c 87 10 ac 3c ab a8 95 3d
       -0.09637698 0.011548394 0.021003975 0.073075615
000350 b7 4b 9f bd 0b 28 87 3d c6 55 63 3d 95 31 1e bd
       -0.07778113 0.065994345 0.05550172 -0.038621504
000360 84 07 f2 3b ea 6b 0c bd 78 61 38 3c a4 ff bf bd
       0.00738615 -0.034282602 0.011253707 -0.093749315
000370 6a e1 08 3d 5f b3 85 3c 74 a3 5e 3a c8 5c 6b bc
       0.033418097 0.016320882 0.00084929843 -0.0143653825
000380 00 2b 83 bd d2 c8 92 bd 7a d5 a6 bc fd d4 13 3d
       -0.06404686 -0.0716721 -0.020365465 0.036091793
000390 dd 8d cc bd 41 c5 88 3d af 69 96 3d 72 67 be 3b
       -0.09987996 0.06678248 0.07344376 0.0058106715
0003a0 20 68 e8 bc 68 c6 e8 ba 50 4f d3 bd c0 7c b4 3d
       -0.028369963 -0.0017759325 -0.10317862 0.08812857
0003b0 ef 83 9a bd 41 7d 09 bd cd 15 5f bd 3f 0f 91 3d
       -0.075446956 -0.033566717 -0.05446415 0.07082986
0003c0 fd 1b d7 3b 72 17 bd bd 40 d9 a2 bd 3a 4e c2 3d
       0.0065646158 -0.092329875 -0.079515934 0.09487577
0003d0 74 a4 8f b9 02 68 dc bd 0a 0b b5 bd 04 5a 6f bd
       -0.00027397613 -0.107620254 -0.08839996 -0.058435455
0003e0 b0 4c 6f bd 66 78 98 3c e1 e2 d3 bd ca e3 d4 bd
       -0.058422744 0.018612098 -0.10346008 -0.1039501
0003f0 7d 69 19 bd 1e b6 1f bd ef 8e a8 bd b4 3c 9f 3d
       -0.037454117 -0.03899204 -0.082303874 0.0777525

layers.2.bias f4 [256]
000000 9b 7a b1 3c d8 7b 41 3c c6 d5 42 bc af e9 ed bc
       0.021664908 0.011809312 -0.011891788 -0.029042093
000010 42 42 1d bd 75 5b eb 3b 1d cb 07 bd 0e 67 6c bc
       -0.038393266 0.0071825334 -0.03315269 -0.014428867
000020 cd 40 ac 3c 36 67 1a 3d 4f 45 f3 3c d8 3f 03 bd
       0.021026993 0.037696086 0.029696135 -0.032043308
000030 f8 05 12 bb 9e 34 f0 bc 7c f2 fa bb f9 95 17 bd
       -0.002228139 -0.029321965 -0.007658301 -0.03700826
000040 08 eb b2 bc eb 67 28 bd ae f2 b4 bc 04 b1 f5 bb
       -0.021840587 -0.04111473 -0.022088375 -0.0074979085
000050 8a fc 9c 3c 28 76 29 bd a6 cc ba 3c 32 11 e7 3c
       0.019163389 -0.04137245 0.022802662 0.028206442
000060 06 32 be bc 82 dc e3 bb 5a 4f 8e 3c 2e 47 62 bc
       -0.023217212 -0.006953777 0.017371822 -0.013810916
000070 8f b7 3a bc e6 b4 26 3c 91 8c 1a 3a 7a 37 c2 bc
       -0.011396303 0.0101749655 0.000589558 -0.023708094
000080 ef 57 5f bc 82 b9 c1 3c df 64 35 bc bb 26 4a 3c
       -0.013631805 0.023648027 -0.011071413 0.012338336
000090 e7 5a 15 3d 20 28 c4 bb ce 8c 0c bd 37 3e 2c 3c
       0.036463644 -0.0059862286 -0.03431397 0.01051288
0000a0 05 38 17 3d 6e fc f2 3c f2 04 8a 3b d8 f3 ac bc
       0.03691866 0.029661383 0.0042120153 -0.021112368
0000b0 34 0f e0 bc 36 20 b9 3c 6e aa 05 bd d4 f6 bf 3c
       -0.027351 0.022598367 -0.032633238 0.023433127
0000c0 a6 d2 33 bd c0 26 06 3c f2 21 11 3c 90 10 12 3d
       -0.043902062 0.00818795 0.008858191 0.035660326
0000d0 dc c8 64 bc ec 8b 16 3d 83 f7 01 bd 7a 93 2d bd
       -0.013963904 0.036754534 -0.031730186 -0.042376973
0000e0 d2 5e 03 3d 9f 9e d3 bc 97 93 ff bc 91 ae ae 3c
       0.03207285 -0.025832472 -0.031198306 0.021323474
0000f0 5e 16 d5 bc 63 44 2b 3d 67 df 07 3d fb 4e 0a bd
       -0.026011642 0.041813266 0.033172037 -0.033766728
000100 76 7a 5b bc 5c a5 e9 3c bb 57 27 bd 30 9c a6 3c
       -0.013395896 0.028521232 -0.04085515 0.020338148
000110 7f 1f 2d 3d 25 21 09 3b 89 92 2b 3c 2d f0 b1 3c
       0.042266365 0.0020924297 0.010471948 0.02172097
000120 b1 67 99 3c c2 81 7b bc 75 b6 2c bd f8 0a 9e 3b
       0.018726202 -0.015350761 -0.042166192 0.004823085
000130 22 5e ad 3c 2b 19 11 bd 4b 73 00 3b 09 4d 8a bc
       0.02116305 -0.035424393 0.001959997 -0.016882436
000140 50 d3 cb 3c 5a 09 07 bd 8d 2f 8f 3b 21 69 28 3d
       0.024881035 -0.032967903 0.004369682 0.041115884
000150 32 0e 1d bd 1c f6 72 3b ad a7 51 bc 39 69 f4 3b
       -0.038343616 0.0037072962 -0.012796325 0.0074588326
000160 ec 8c f0 3c 9c 89 44 bc 1a f3 f8 3c dc 04 ac 3c
       0.029364072 -0.011995699 0.030389357 0.02099841
000170 4c 14 c4 bb c4 66 7c 3c c6 75 ef bc ff a7 d4 bc
       -0.005983865 0.015405361 -0.029230963 -0.025959013
000180 bf 3b 14 3d a7 90 10 bd 6a 96 ab 3c 97 45 76 bc
       0.03618979 -0.0352942 0.020945746 -0.01503124
000190 68 dd be 3c e9 03 01 bd ff 7c 84 bc c9 5a 0a 3d
       0.023298934 -0.03149787 -0.016172884 0.033777986
0001a0 96 14 ed bc b4 29 15 3d f2 d6 d2 3c 36 9b fe bc
       -0.02894048 0.036416724 0.02573726 -0.03107987
0001b0 e2 2e 6a 3c 98 a8 a6 bc 23 01 87 bc 53 42 08 bd
       0.014293404 -0.020344064 -0.016480034 -0.033266377
0001c0 81 2b 2c bc 28 67 2d 3c f9 6b de 3c 7e 6d fd bc
       -0.010508419 0.010583676 0.027151095 -0.030935999
0001d0 de 5b 24 3d 9b e0 0c 3d 6e 04 1f bd db 23 37 3c
       0.040126674 0.034393888 -0.038822584 0.011177982
0001e0 17 ce 11 3d 9b 12 8f 3c d3 f6 01 bc 8d 5a cc 3b
       0.035596933 0.017464926 -0.007932383 0.0062363804
0001f0 4e fa 8e bc 6e 4a 1f bd e3 2d ce bc bb 2e 24 bd
       -0.017453339 -0.03888934 -0.025168365 -0.04008363
000200 5f f5 2d 3d c8 d9 0e 3c 9b 6c 2a bd 42 9e 20 bd
       0.042470332 0.008718915 -0.04160748 -0.039213426
000210 0e 17 28 bd 81 59 44 bc 31 c2 37 bd 0d 4a e0 bc
       -0.04103761 -0.01198423 -0.04486293 -0.02737906
000220 6b c2 38 3c a9 f9 26 3d ee 68 00 3c 6c 42 32 bd
       0.011276822 0.04076544 0.007837517 -0.043520376
000230 0f 27 d6 bc 7e f8 b2 bc 10 3d 06 3b 33 5e 21 39
       -0.026141671 -0.021847006 0.0020483173 0.00015389248
000240 46 2c 0f bd 34 02 26 bc 43 c0 ec bc 6a 58 99 3c
       -0.03495433 -0.010132361 -0.028900271 0.018718917
000250 cd 10 92 bc 2e 56 7f bc 4b d2 12 bd 54 65 95 3c
       -0.017830277 -0.015584512 -0.035845082 0.018236794
000260 1e 71 2c 3c 12 8a eb 3b 88 54 29 bd 38 56 bd 3c
       0.010525016 0.00718809 -0.04134038 0.023112401
000270 e1 ce e3 3c aa 18 04 bd 39 d2 62 bc 77 75 32 bd
       0.027808608 -0.032250084 -0.013844066 -0.043569054
000280 c6 dc 17 3d 3b 78 02 3d 96 6e f0 3c 78 07 21 bd
       0.03707578 0.031852942 0.029349606 -0.039313763
000290 c2 73 1b 3c a9 35 d6 bc 2c ee 23 3d 0b 78 1a 3d
       0.009488048 -0.026148634 0.04002206 0.03771214
0002a0 41 2d 24 3d c7 45 ad 3a a4 af 13 bd ab 91 b6 3b
       0.04008222 0.0013219648 -0.036056176 0.005571564
0002b0 e7 e4 18 bc 1a 43 2d bd 1f 19 41 3c a8 f7 27 bb
       -0.009331918 -0.04230032 0.0117857745 -0.0025629792
0002c0 ff e9 20 3d 20 5b cb ba ce ad bb 3c 76 b5 40 bc
       0.039285656 -0.0015514828 0.022910025 -0.011762014
0002d0 a8 81 ed 3b 23 9a e2 bb 6d c2 22 3d 10 10 29 3d
       0.0072481222 -0.006915347 0.0397362 0.041275084
0002e0 8e f1 c1 3c bd 5a 32 bd 66 32 d0 3c 65 f4 19 bd
       0.023674753 -0.043543566 0.025414657 -0.03758659
0002f0 1c 44 50 3c 19 2f 85 bc ea af 1d 3d a7 9c 2e bc
       0.012711551 -0.01625781 0.038497843 -0.010657466
000300 f0 b7 6c 3c ef 68 89 bc ea 73 9a 3c de c4 da 3c
       0.014448151 -0.016773669 0.0188541 0.026705202
000310 4d 1e c0 3b d4 cd 0a 3d 20 25 82 ba f1 c0 0b bb
       0.005862987 0.0338877 -0.0009929277 -0.002132472
000320 cb ed 14 3d 5a 4a 05 bc 8f 33 21 3d 08 94 87 bb
       0.03635959 -0.008135403 0.03935581 -0.0041375197
000330 39 94 bd 3c 89 3d d1 3c ec 80 17 bd 72 40 2d bc
       0.023141967 0.025542038 -0.036988184 -0.010574447
000340 e3 59 e1 bc e0 8f 09 bd 8b 19 93 bc 2c 66 ba 3c
       -0.027508682 -0.033584476 -0.017956516 0.022753797
000350 3e ce a6 bc bf 0e 28 bd 0b ca 1c bd fb ba 0a bd
       -0.020362016 -0.041029688 -0.03827862 -0.033869725
000360 9a b7 95 3c 48 34 9f 3c 38 d8 e1 bb 69 68 0b bd
       0.018276025 0.01943411 -0.0068922304 -0.03403512
000370 71 d2 22 3d 71 9c f6 bb ea d2 fe 3b 21 dc a0 3c
       0.039751474 -0.0075259735 0.0077766078 0.019636216
000380 ac 2a 1f 3c 3d 5f 26 3d c5 fb 3b bc 19 b6 6d bc
       0.009714764 0.04061817 -0.011473601 -0.0145087475
000390 d0 6c c4 bc 9b ca 15 3d a5 6d a1 bc 02 4c 16 bd
       -0.023977667 0.036570173 -0.019705603 -0.03669358
0003a0 8e fb a7 bc d7 db f1 3c c1 53 01 3b 76 2a b6 bc
       -0.020505693 0.029523773 0.001973376 -0.022237044
0003b0 46 2b 9f 3b 94 fd 23 bc db d4 f7 bc 98 eb d3 bc
       0.0048574535 -0.010009188 -0.030252865 -0.025869176
0003c0 3b 60 8c bc fb 63 33 bd 1b e7 da bb a7 dd c9 bb
       -0.01713573 -0.04379652 -0.006680382 -0.006160456
0003d0 f1 06 83 ba e5 3f e6 3c 84 2b 4d 3a 23 ec 91 bb
       -0.0009996576 0.02810664 0.0007826614 -0.0044531985
0003e0 0b eb b4 39 dd c4 0b 3d b0 14 ee bb 5b ca d4 bc
       0.00034507396 0.03412329 -0.0072656497 -0.025975397
0003f0 9c 56 64 3c 2f 80 c2 bc 2e d7 f8 3c b8 90 f9 bc
       0.013936665 -0.023742763 0.030376043 -0.030464515

layers.4.weight f4 [128, 256]
000000 e4 9e 01 3d 8a 24 a8 bd 60 77 db bb 22 97 30 3d
       0.03164567 -0.08210094 -0.00669758 0.04311288
000010 da 2b 4c 3d 76 3d df bd 3a a4 5f bb f5 fa 08 3e
       0.049846508 -0.109003946 -0.0034124986 0.13376983
000020 b5 cd 18 be 0d b1 08 3e 42 a3 cf 3d 3c ca b1 3d
       -0.14922221 0.1334879 0.10138561 0.08681151
000030 f9 4a 97 3d 36 50 1d be b5 ab 1d 3e d8 9b 43 bc
       0.07387347 -0.1536263 0.15397532 -0.0119390115
000040 46 9a 6b 3d ba 13 b8 3d 76 93 07 be 88 5b b1 bd
       0.057520173 0.089881375 -0.13239846 -0.08660036
000050 36 ce 7c bc 51 2d 67 bc 28 13 d9 bd 14 d8 67 3c
       -0.015430024 -0.014109925 -0.10599357 0.014150638
000060 75 79 8e 3d 8e 04 9c 3d a3 48 90 bd 80 84 ae bb
       0.0695676 0.07618056 -0.07045104 -0.005325854
000070 ea 66 77 3d 02 5e 05 be 28 b3 a3 bd e1 37 18 bd
       0.06040088 -0.13024142 -0.07993156 -0.037162665
000080 aa ce 8e bd 58 e1 8e 3c 36 ab f7 3c ea c7 e1 bd
       -0.06973012 0.017441437 0.030233007 -0.11024459
000090 42 ae 0e be fe 5b e2 bd 23 5a 0d 3d 1e 4f d8 bd
       -0.13933662 -0.11052702 0.03450979 -0.105619654
0000a0 b0 5e 46 3d 98 f2 1a 3d 87 45 15 3c 04 a5 94 bd
       0.048430145 0.03782901 0.009110815 -0.07258037
0000b0 ad cc 05 3e d2 a7 b0 3d d1 62 0f be 7d cc 0b 3e
       0.13066359 0.08625759 -0.14002539 0.13652225
0000c0 d1 6f 15 3e 08 90 24 3d b4 c3 a6 3d f1 69 a7 3d
       0.14593436 0.04017642 0.08142796 0.081745036
0000d0 fa 12 f4 bd 12 d1 0f be 22 5d 98 3d 0d 7e 0e 3e
       -0.11917682 -0.14044598 0.07439639 0.13915272
0000e0 84 1d 08 3d ab 36 e2 3d cf 92 17 3e 33 1f 18 3e
       0.033231273 0.11045583 0.14802097 0.14855652
0000f0 35 69 f2 3d ba ec 8d bd 86 ea 3b bd 3b 58 97 3d
       0.11836473 -0.06929918 -0.045877956 0.073898755
000100 95 4b d2 bd 96 6f e6 bd 61 14 68 bd 14 37 95 bd
       -0.102683224 -0.11251752 -0.05666006 -0.07285896
000110 a4 e4 6f bd a9 05 d9 b9 ad cc e5 3d f0 22 a3 3d
       -0.058567658 -0.00041393682 0.112206794 0.07965648
000120 f3 77 13 bb 91 ed cc bd 35 4a c5 bd d0 16 82 bc
       -0.0022501915 -0.1000625 -0.096332945 -0.015880018
000130 f4 c5 de bd 7b df 9d 3d b8 c9 ac 3d ed ed 1c bd
       -0.108776 0.07708641 0.08436912 -0.03831284
000140 2b cd 9a 3d 28 85 52 3d ff 64 b0 bd 32 80 01 be
       0.07558664 0.05139652 -0.086130135 -0.12646559
000150 ea 87 58 bd f2 5b a9 3d e2 d7 9a bb 6f 1a 0c be
       -0.052863993 0.0826949 -0.0047254423 -0.13681959
000160 ff ef 53 bd ee ec e1 3d ae 8d ee 3d cd 20 ef 3c
       -0.05174255 0.11031519 0.11648117 0.029190445
000170 99 2e e5 3d ba b5 a5 3d 4d c3 69 bd d5 42 e4 bd
       0.111905284 0.08091302 -0.05707102 -0.1114556
000180 00 80 83 b9 02 ac d8 3d 90 4e 58 bd 7e c1 c1 bd
       -0.00025081635 0.10579683 -0.052809298 -0.09460734
000190 12 91 69 bd 44 6f be 3c 0d b2 a7 3d 8a 90 ef 3d
       -0.057023115 0.023246415 0.08188257 0.116974905
0001a0 bb f2 15 3e e8 57 15 be d3 04 95 bd 26 9f 97 bd
       0.14643376 -0.14584315 -0.07276311 -0.07403402
0001b0 4e da ec 3d 60 0f 2e bc 1e e5 79 bd 25 0a 2f bd
       0.11565076 -0.010623783 -0.06100952 -0.042734284
0001c0 68 21 25 bd d9 fd 1b 3e ef e4 11 3e 5c 87 a5 bc
       -0.04031506 0.15233554 0.14247487 -0.020206146
0001d0 a7 9e 2e 3c 81 6f f2 bc 9e 62 1a bc 32 a9 05 be
       0.010657943 -0.029594185 -0.009422926 -0.13052824
0001e0 18 3f a0 bd d9 ea 21 3d 9c bb 9a 3d 0a 34 c5 3d
       -0.07824534 0.03953061 0.07555315 0.09629066
0001f0 ab 59 cb 3b 8e 6a 94 bd a6 58 92 3d 5a 97 09 3e
       0.0062057576 -0.07246886 0.071458146 0.13436642
000200 82 a1 de bc 75 6d 17 3e 5c d2 05 be 1c 22 c8 bd
       -0.027176622 0.14787848 -0.13068527 -0.09772131
000210 69 79 1a bd 5d ea 08 3e 5c 7b 06 3e 12 86 18 3e
       -0.037713442 0.13370652 0.13132995 0.14894894
000220 22 27 91 3d 1c 2a 1e 3d d9 d0 63 3d 00 7c ba 3d
       0.07087542 0.038614377 0.055619095 0.091056824
000230 5a 3e 52 bd 44 6e e5 bd 5a 20 95 3d 84 3e eb 3b
       -0.051328994 -0.11202672 0.07281561 0.0071790833
000240 55 34 38 bd f5 48 d7 bd 51 1a 47 3c 9c ac 84 bc
       -0.044971783 -0.10511962 0.01215227 -0.016195588
000250 c8 11 84 bd 79 9c ac bd f9 c1 22 3d 4c 04 d0 3b
       -0.06448704 -0.08428282 0.039735768 0.0063481685
000260 8b cd bc bd 7a 61 e6 3d cb 82 d5 3d ae 7b a5 3d
       -0.09218892 0.11249061 0.104253374 0.08080231
000270 d0 b8 0a be c0 2c d2 bd 75 92 8e 3d de 08 00 3e
       -0.13547063 -0.10262442 0.06961528 0.12503383
000280 85 4f 42 3d 38 a3 08 be 64 87 18 3e 33 f7 e6 3c
       0.047439117 -0.13343513 0.14895397 0.028194046
000290 1d dd 8b 3d 9d 74 d7 3c 8a e0 f8 3d f1 a5 d6 bd
       0.068292834 0.026300723 0.121522024 -0.104808696
0002a0 28 a4 0d be 49 d8 19 be 05 81 a7 3d 40 0a a4 3d
       -0.13832152 -0.15023912 0.081789054 0.080097675
0002b0 20 e4 a5 bc 35 0c 5b 3d 42 d6 df bd db a8 7a bd
       -0.02025038 0.05347844 -0.10929538 -0.06119619
0002c0 eb 31 03 be d1 53 0b 3e 92 e4 9f 3d 68 47 5b bc
       -0.12812011 0.13606192 0.07807268 -0.013383724
0002d0 8b 44 0d be c1 bb f0 bd 87 1c 01 3e 00 6d 45 bd
       -0.13795678 -0.11754561 0.12608539 -0.048199654
0002e0 28 7b 5a 3d 6d 24 da bc 44 5e a8 bd d0 3d 00 3e
       0.053340107 -0.026628697 -0.08221105 0.1252358
0002f0 10 1a 5f bd 4e 58 a7 bd ab c7 1e be a4 1e 2e bd
       -0.054468215 -0.0817114 -0.15505855 -0.04250969
000300 5e d6 e6 3d cd 4a 9b bb 83 93 f6 bd f0 c3 15 3d
       0.11271356 -0.0047391416 -0.120398544 0.036563814
000310 24 93 ee 3d 4c 4f 21 be 81 3c 06 3e f8 71 b3 bd
       0.116491586 -0.15752906 0.13109018 -0.08761972
000320 62 ab f4 3d 16 89 94 3c 74 f4 ac 3d 38 7e bd 3c
       0.11946751 0.018131774 0.08445063 0.023131475
000330 4c 1a ab bd 92 3d 8b bc 28 74 a0 3d 01 a4 2f bd
       -0.08354625 -0.016997132 0.07834655 -0.042881016
000340 47 2c 6c bd c7 0a b5 3d 8c cd c7 3d 98 b1 d5 bd
       -0.057659414 0.08839946 0.09756002 -0.10434264
000350 4a 6a b5 3d b0 e6 3f 3d 7b 52 12 3e f3 7f d6 bc
       0.08858164 0.04685086 0.14289276 -0.026184058
000360 ac d1 a1 3d 00 cf d8 bd 7c c0 4d 3d 83 64 03 be
       0.0790132 -0.10586357 0.050232396 -0.12831311
000370 73 c1 56 3d 71 d4 36 3d 03 3f e9 3d b5 20 92 bd
       0.05243058 0.044636194 0.11388972 -0.071351446
000380 14 b3 ee bc af de 0a be 53 d9 56 bd 9a 3c d7 bd
       -0.029138125 -0.1356151 -0.05245335 -0.10509606
000390 53 cd ec 3c 69 9e 85 bc 9b e1 9b 3d 10 db 8e bd
       0.0289065 -0.016310887 0.0761139 -0.069753766
0003a0 02 25 93 3d 2c 0a 8a bc 63 80 b5 bc 8e aa 0b bd
       0.07184793 -0.016850553 -0.022155946 -0.0340982
0003b0 58 ef a3 3d 75 9a 0b bd 2f 4a 12 3e 7d 6e 6c 3d
       0.080046356 -0.03408285 0.14286111 0.057722557
0003c0 65 f5 96 bc 7e 74 0a bd 7f 99 dd bd f1 15 a8 bd
       -0.01842756 -0.0338025 -0.10820293 -0.0820731
0003d0 31 70 b1 bd 99 f4 e7 3d 2f d7 cd bd 66 4b 36 3d
       -0.08663977 0.1132595 -0.10050809 0.0445055
0003e0 d7 81 ba bd 9b 38 15 3d 14 23 41 bd da 2f fe 3d
       -0.09106796 0.036430936 -0.047152594 0.12411471
0003f0 68 da ff bc 8b 1f 2a 3c 59 28 91 3d 91 78 f2 bb
       -0.031232074 0.010383497 0.07087774 -0.0073996265

layers.4.bias f4 [128]
000000 f4 b7 27 3d 09 53 6a 3d 8e 47 a5 3a 98 6d 59 3d
       0.040946916 0.057208095 0.0012609826 0.053083032
000010 4c 35 9b bc f9 b5 1a 3d 46 39 0d bd c5 36 3c bd
       -0.018946312 0.0377712 -0.03447845 -0.04595067
000020 b1 46 e2 bb 02 bb 99 3c 1e 4f 9b bc 23 9e 38 3c
       -0.0069053997 0.01876593 -0.018958624 0.0112681715
000030 04 10 7e bd 4a de 66 bd 2a b6 da 3c ff 27 3e bc
       -0.062026992 -0.056364335 0.02669819 -0.0116062155
000040 9a 09 ca bb 4a bf f8 3c 07 a4 34 bd 09 c1 6c bd
       -0.0061656954 0.030364651 -0.04410174 -0.05780128
000050 58 57 4e bd 54 2d 56 bc 9d 2f 9e ba 6d 73 f6 3c
       -0.050376266 -0.0130723305 -0.0012068633 0.030084336
000060 a4 4c 61 3d a2 62 86 3c 18 08 5a 3d d0 a6 31 3d
       0.05500473 0.016404454 0.053230375 0.043371975
000070 9f 42 6a 3d b9 8e 50 3b 6e 95 2c 3d 3d bd 34 3c
       0.05719244 0.003182335 0.042134695 0.011031446
000080 27 f8 64 3d d8 f1 4d bc 6d 89 5a 3d 0d bb 55 3d
       0.05590072 -0.012569867 0.053353716 0.05218034
000090 50 77 6f bd 5e 2b b3 3c 73 6a 42 bd 4b 42 bc bc
       -0.058463395 0.021871265 -0.0474648 -0.02298083
0000a0 0b a9 7c 3d 81 6e 3a bd fc 9e 65 3d a6 c6 0e bd
       0.06168465 -0.04551554 0.056059822 -0.034857415
0000b0 3c fe 1f bd 46 0a 1d 3c 9a c4 0e 3d db 50 64 bc
       -0.039060816 0.009584969 0.034855463 -0.013935293
0000c0 90 f2 12 3d 30 ed 22 3c 02 06 9d 3c 7a 28 81 3d
       0.035875857 0.009944245 0.019167904 0.063065484
0000d0 05 9d 74 bd 97 a7 bb 3c 9e 02 63 3c 33 88 81 bd
       -0.059720058 0.022907062 0.013855604 -0.06324806
0000e0 a8 a8 1c ba ce 49 04 bd 48 09 35 3d 60 a5 4a bd
       -0.00059760595 -0.032296948 0.044198304 -0.04947412
0000f0 f0 bd 59 3c 14 2c 57 bd 8a 30 ca 3b 92 3c d2 3b
       0.013289914 -0.05253227 0.006170337 0.006415912
000100 3a e3 8c 3c 10 80 79 3d 20 11 54 3c 77 d8 0c bd
       0.017198194 0.060913146 0.012943536 -0.034386124
000110 99 07 a2 3c 31 d3 e1 3c 38 fb 09 bd c0 2b 8d 3b
       0.019779013 0.027566524 -0.033686846 0.004308194
000120 97 f6 0d 3c a1 03 6b bd 08 39 df bc cc 5c 6e bd
       0.008664749 -0.057376508 -0.027248874 -0.058193967
000130 93 e3 06 3c 4b b6 87 3b ea 78 77 bd 8b 96 5f 3d
       0.008232969 0.004141604 -0.060418047 0.05458693
000140 7d 3e 7e 3b 5b 43 e1 bb 38 6c 7d bd 48 f9 51 3d
       0.003879457 -0.0068744845 -0.061870784 0.051263124
000150 f1 d9 74 bd dc 5e 01 3d 98 eb 0c 3b c4 43 6b bd
       -0.059778158 0.031584606 0.002150273 -0.057437673
000160 73 b2 df bc a9 25 58 3d 20 75 0e 3d 8f d6 01 3d
       -0.02730677 0.05277029 0.034779668 0.03169876
000170 0f 9a 2d 3c 73 b8 dd 3c 4d 7a 1b bb c4 fe 78 bd
       0.010595812 0.027065491 -0.002372402 -0.06078984
000180 38 40 67 bc 38 3f f3 bc b7 84 32 3d 04 17 dc 3c
       -0.014114432 -0.029693231 0.043583598 0.026866443
000190 82 45 34 3d 0c 2e 70 bc 18 be 86 3c 8e 43 05 3d
       0.0440116 -0.014659416 0.016448066 0.03253513
0001a0 8a b4 bd 3c e6 7f e4 bc 2f 9d cc 3c 64 cc 99 bc
       0.023157377 -0.027893018 0.024977295 -0.018774219
0001b0 cd 1d 35 3d 22 b7 96 3b 0f 59 9f bb 97 1a 1b bd
       0.044217873 0.004599468 -0.0048629115 -0.037867155
0001c0 cd e5 a1 3b 6e f4 d3 bc 24 87 d2 bc 1e cd 03 3d
       0.0049407245 -0.02587339 -0.025699206 0.032178037
0001d0 7d 96 fe bc 3f 26 81 bd b2 65 d2 bc c8 32 3b bd
       -0.031077618 -0.06306123 -0.025683258 -0.045702726
0001e0 2c 09 83 3c 57 62 a6 bc 21 fa e8 bc 76 71 4a bd
       0.015995584 -0.020310564 -0.028439583 -0.04942461
0001f0 2f 24 4b bd f7 28 fa bb e2 e6 3a bd fc 76 bc bc
       -0.049595054 -0.007634278 -0.045630343 -0.023005955

layers.6.weight f4 [64, 128]
000000 65 26 d8 bd d4 fc f7 bd a3 b2 04 be 18 8d 3a be
       -0.10554198 -0.1210877 -0.1295877 -0.18217885
000010 97 df 32 3e fe bd 8d 3d 45 28 2d 3e 93 5f f6 bd
       0.17468105 0.06921004 0.16909893 -0.12029948
000020 34 5b 27 be ab 5a 13 3e dc 9f 60 3d 5e 94 8e 3d
       -0.16343385 0.14390056 0.054839954 0.069618925
000030 c4 37 8f bd f3 80 5c 3e 00 65 37 bd 50 2f 90 bd
       -0.06993058 0.21533565 -0.044774055 -0.07040274
000040 c0 f9 90 3c 65 ef 0d be f8 4e ec 3c 7a 33 fe 3d
       0.017697215 -0.13860853 0.028846249 0.12412162
000050 ec 30 0d bd 73 39 1e 3e 44 a1 ce bd 88 ed f9 bc
       -0.034470484 0.15451603 -0.10089353 -0.030508772
000060 ce ef a3 3d 88 d3 80 3c d2 fb 3e be 1a 40 2d be
       0.080047235 0.015725866 -0.1865075 -0.16918984
000070 90 ed 71 bc 68 9c 90 bd 4a cb 9a bd 85 38 5b 3e
       -0.014766112 -0.07061082 -0.075583056 0.21408279
000080 12 8d b9 bd d8 18 89 bd 4c 92 f5 bd 06 54 d3 3d
       -0.0906011 -0.06694192 -0.119907945 0.103187606
000090 79 f0 05 3e 52 63 19 be 0e a0 b2 3d 54 a1 3f bd
       0.13080014 -0.14979294 0.08721934 -0.046784714
0000a0 40 6f 91 3b ec ae a1 bd 7c 93 47 be f2 3f 36 be
       0.004438311 -0.07894692 -0.19489855 -0.1779783
0000b0 7c a5 1d bd ef f9 0c 3e ce c2 1c be 96 13 e5 bd
       -0.038487896 0.13767217 -0.15308687 -0.11185376
0000c0 58 13 f1 3c 3f d2 43 3e 52 1a 56 be 25 f1 34 3e
       0.02942817 0.19123171 -0.20908478 0.17670114
0000d0 6a e6 9c 3d f4 9b 33 3d 1b 35 fa bd 02 f3 8f bd
       0.076611355 0.0438499 -0.1221716 -0.07028772
0000e0 7d cc 3f be 74 1c 50 bd 51 bd 3c 3e c0 77 2a bd
       -0.1873035 -0.050808385 0.18431593 -0.04161811
0000f0 da 2a f1 3d 51 ee 3c 3e 00 c5 77 bb 92 e7 da 3d
       0.117757514 0.18450285 -0.003780663 0.106887
000100 88 fe c3 3c 87 1b 00 3e 6d 3f 1a 3e cc 09 bb bd
       0.02392508 0.12510501 0.15063258 -0.09132728
000110 06 73 bd 3d 26 99 93 bd a8 17 fb bc cf f1 3d be
       0.092504546 -0.07206945 -0.030650929 -0.18549274
000120 03 e1 ff bd 90 f6 21 bc 7a ee ac bd 8c 7a 83 bd
       -0.124940895 -0.009885445 -0.08443923 -0.06419858
000130 da 43 92 3d 22 44 08 be aa 68 8d 3d 8b 62 18 3e
       0.07141848 -0.1330724 0.06904729 0.14881341
000140 62 40 eb 3d 24 e6 23 bd 2e 72 9b 3d 0a e7 1d be
       0.114868894 -0.0400144 0.075901374 -0.15420166
000150 0a b1 d6 3d 95 12 17 3e 20 d1 b7 3c ff a7 34 be
       0.10482986 0.14753182 0.022438586 -0.1764221
000160 68 4a 55 be 74 04 1e be a8 3a eb bd 68 82 45 be
       -0.20829165 -0.15431386 -0.11485797 -0.19288027
000170 90 db 2a 3c 60 bf fc bb 24 0d 1b 3d 1a b4 f5 bd
       0.010428324 -0.0077132434 0.03785433 -0.11997242
000180 c2 1f 1a be c4 88 02 be c2 f3 cc 3d b2 55 d3 3d
       -0.15051177 -0.12747484 0.100074306 0.103190795
000190 6a 53 c4 3d 7f 57 2f 3e 25 27 26 3e 62 72 d3 3d
       0.095862225 0.17123221 0.1622587 0.10324551
0001a0 d2 4c ab 3d 77 a0 fa bd 74 1f 16 be c0 16 03 be
       0.08364262 -0.122376375 -0.14660436 -0.12801647
0001b0 60 d8 ef bc c3 54 2f 3e 3b cb 2a 3e 19 bc 06 3e
       -0.02927798 0.17122178 0.16679089 0.13157691
0001c0 81 b8 2a 3e 98 fd 97 3c 02 4e e9 bd 5f 9d 56 3e
       0.16671945 0.01855354 -0.11391832 0.2095847
0001d0 62 87 4f be 20 58 a0 bd d0 38 89 3c 22 01 50 be
       -0.20266488 -0.078293085 0.016750723 -0.20312932
0001e0 6a 02 8b 3d d5 9f 4e 3e 90 af 09 3c 9a af fd 3d
       0.0678757 0.20178159 0.008403674 0.12387009
0001f0 4e de b2 bd f0 15 f1 3c a0 d4 9a bc 28 9f ac 3c
       -0.087338075 0.029429406 -0.018900216 0.021071985
000200 04 82 7e bd 0a b1 b1 3d 47 5a f5 bd db bb 17 3e
       -0.06213571 0.08676346 -0.1198011 0.14817755
000210 16 d0 ba 3d 54 02 b0 bc e8 c0 31 3e bc 3b 45 3e
       0.091217205 -0.021485485 0.17358744 0.19261068
000220 f7 d4 0d bd e4 1b 22 be f6 b5 18 be c4 12 dc bd
       -0.034626927 -0.15830952 -0.14913163 -0.10745767
000230 de 0a a5 3d 76 b8 01 bd fd 0f 84 3d d1 0b e6 3d
       0.080587134 -0.031670056 0.06448362 0.112327226
000240 9c 6c 58 3d 16 79 56 3e 6d 9c 5f 3c e0 9b 85 bd
       0.052837953 0.20944628 0.013648135 -0.065238714
000250 bb a8 4a be 57 7f 11 be b7 cc a5 bb 33 1a 29 be
       -0.19790928 -0.14208733 -0.0050598043 -0.165139
000260 91 cf 42 3d 91 b6 99 3d 58 d0 01 3e 7d 40 ec 3d
       0.047561232 0.07505525 0.12677133 0.11535738
000270 e0 26 6e 3d 9c 6d 14 be 53 0a f0 bd ba 46 42 3e
       0.058142543 -0.14494938 -0.11720719 0.18972293
000280 77 e5 f2 bd ee 33 c6 3d a7 0e 47 be bd 7e 22 3e
       -0.11860173 0.096778736 -0.19439183 0.1586866
000290 94 74 07 3d 7c 76 26 3d 04 42 5f bd a5 d4 b8 3b
       0.033070162 0.04064034 -0.054506317 0.0056405836
0002a0 ea c4 57 3e 58 1a 56 3e 76 b2 20 be 33 26 2c be
       0.2107121 0.20908487 -0.15693077 -0.16811447
0002b0 dc a7 42 3e 1b 52 b9 bd 73 37 0f 3e 26 56 29 3e
       0.19009346 -0.090488635 0.13985996 0.1653677
0002c0 6f 5c 7d ba ac 58 3d 3e 55 0c 65 3c ea d3 0b 3e
       -0.0009664958 0.18490857 0.013979991 0.13655058
0002d0 07 06 50 be 5b 67 3d bd 0d 36 b3 bd 16 b2 08 3e
       -0.20314799 -0.046241146 -0.08750544 0.13349184
0002e0 d3 4b 61 bc ca 9b a3 bd 9d 52 cd bd cd 59 bd 3d
       -0.013750988 -0.07988699 -0.10025523 0.09245644
0002f0 e2 9e 0a be fc 9f 34 be 68 b1 e9 3c 18 5a 0d 3e
       -0.13537171 -0.17639154 0.028526977 0.138039
000300 ac 7b 3c be 10 fe 32 bc 85 e6 f8 bd 93 6c 1a 3c
       -0.18406552 -0.010924831 -0.12153343 0.0094253
000310 c7 ed 9d 3d d6 c8 b2 bd ad 36 f0 bb 38 bf 43 be
       0.07711368 -0.08729713 -0.0073307366 -0.19115913
000320 86 4f a3 bc a6 53 0b bc 91 4c d5 bd 0f 1c b4 bd
       -0.01993538 -0.00850383 -0.104149945 -0.08794414
000330 c5 32 2f 3e c2 f2 4a 3d 01 bd db bd 4e 04 2f 3e
       0.17109211 0.04954792 -0.10729409 0.17091486
000340 ad 36 0b be 27 d0 70 bd 00 d4 2f bc 5e bc 97 3d
       -0.13595076 -0.05879226 -0.010731697 0.07408975
000350 4e f8 5a 3e 82 36 51 be 70 16 a4 bd b2 e7 46 3e
       0.21383783 -0.2043095 -0.08012092 0.19424322
000360 51 ca 2f be 5e b4 9a 3b 05 e4 f5 bc 7b a4 b8 3d
       -0.17167021 0.0047212085 -0.030015955 0.09015747
000370 2f 91 1d 3e a5 b7 0b 3e 78 fb 33 be 11 e5 3a 3e
       0.15387414 0.13644274 -0.17576396 0.18251444
000380 0f 5a 27 3e 03 69 c9 bd 88 59 dc bd 45 55 b6 bd
       0.16342948 -0.098344825 -0.10759264 -0.089029826
000390 26 14 0a 3e 13 bb 23 bd da 82 90 3d fd 41 74 3d
       0.13484249 -0.03997333 0.07056208 0.059633244
0003a0 96 50 4c 3d 51 4b 40 be 34 14 b0 bd 76 c3 b7 bd
       0.04988154 -0.18778731 -0.085976034 -0.08972828
0003b0 26 26 e1 3d 20 44 07 bc 03 41 45 bd 3b ad 7d bd
       0.10993604 -0.008255988 -0.048157703 -0.061932784
0003c0 1f 0d a2 3d fa 30 3a bd 58 31 fd 3c 99 a6 e5 bd
       0.07912659 -0.045456864 0.030907318 -0.112134166
0003d0 ba 80 fb 3d d2 b3 3d be b9 2a 86 bd 2b 15 4b 3e
       0.12280412 -0.18525627 -0.065511174 0.19832294
0003e0 12 96 8d 3d e6 f5 63 bd 7e 93 46 be f0 94 f7 bc
       0.06913389 -0.05565443 -0.19392201 -0.030222386
0003f0 1e 87 de bd 5a fa 97 3d 2f 54 ae bd f4 37 24 be
       -0.10865615 0.07420798 -0.085121505 -0.1603697

layers.6.bias f4 [64]
000000 64 c7 ab bd 55 a0 c6 bc 8e ca bd bc d6 48 f9 bc
       -0.0838764 -0.024246374 -0.023167875 -0.030430239
000010 b4 7f 32 bb ed 9d 8d 3d 3c 12 87 3d 90 2d 6d bd
       -0.0027236762 0.069148876 0.06595275 -0.05790478
000020 64 20 8a 3d f4 e7 ea 3c f1 21 87 3d 3c 7a a4 3d
       0.06744459 0.028675057 0.06598271 0.08031127
000030 fd 34 4c bc 8b ed 0c bc 95 67 84 3d 0e b1 30 3d
       -0.012463805 -0.0086015565 0.06465069 0.043137603
000040 7d 39 00 bd 60 ad d5 bc b0 da 7f bd 5f be 8e bd
       -0.031304825 -0.026083648 -0.062464416 -0.06969904
000050 4c 1f a4 3d 79 e9 b3 bc 2b 4a 13 3c 59 93 50 3d
       0.08013782 -0.021961914 0.008989851 0.05092177
000060 7a 05 42 bd 22 dd 34 3d 67 0d b4 3d 0c db 66 3d
       -0.047368504 0.0441562 0.08791619 0.056361243
000070 3b c8 aa 3c e2 14 25 bd 52 58 b1 bd 99 53 81 3d
       0.02084743 -0.04030312 -0.08659424 0.06314773
000080 c8 6e 05 3d 88 7d b3 3c 42 d3 21 3d 2a 39 37 3d
       0.032576352 0.021910444 0.03950811 0.04473225
000090 a6 67 68 bc 6b d1 16 bd 35 d1 1f 3d 06 fb da bc
       -0.014184868 -0.03682081 0.039017875 -0.026731025
0000a0 9b d0 6f 3b 0c 0b 57 bd a6 10 bf bb 19 2d 1d 3d
       0.0036592844 -0.05250077 -0.005830842 0.038373087
0000b0 33 5a a3 bc d8 cb 61 3d d6 4a 2c bd a7 78 81 bd
       -0.019940471 0.05512604 -0.042063557 -0.06321841
0000c0 95 85 8e bd f0 37 bd 3b 0a a3 ee 3c a6 b9 54 3c
       -0.069590725 0.0057744905 0.029130477 0.012983715
0000d0 b2 8b 87 3d c6 24 65 3d ed ab 26 3d 88 05 50 bd
       0.06618442 0.055943273 0.040691305 -0.050786525
0000e0 58 04 c5 3b 00 9e 77 3b 25 da 82 3d 7f c7 78 bd
       0.0060124807 0.0037783384 0.06389264 -0.06073713
0000f0 91 a1 ab bd d6 a1 24 3d 1d be a5 3d bc 16 99 3d
       -0.08380426 0.0401934 0.08092902 0.07475039
