models/data_best_model.pth (torch, 117602 bytes, 14 tensors)

conv1d.weight f4 [64, 5, 3]
0	0xbd7967c2	-0.060889967
1	0x3e0ce83f	0.1376047
2	0xbdf1040a	-0.117683485
3	0x3e4b8a63	0.19877009
4	0xbe72024d	-0.2363369
5	0xbe5b5418	-0.21418798
6	0x3e250720	0.16115999
7	0x3d60b327	0.054858353
8	0xbd5c7360	-0.053820968
9	0xbe014a82	-0.12626079
10	0xbceb7463	-0.028742021
11	0xbde05f49	-0.10955674
12	0x3e852996	0.2600829
13	0x3e880416	0.26565617
14	0xbdfe5389	-0.12418277
15	0xbde0f44e	-0.109840974
16	0xbdd8cecb	-0.10586318
17	0xbe37bede	-0.17943904
18	0xbdfe6863	-0.12422254
19	0x3e2052ab	0.15656535
20	0x3d625558	0.05525717
21	0x3ceaab1f	0.02864605
22	0xbd89750c	-0.06711778
23	0x3e590b9d	0.21195836
24	0xbe83a4d9	-0.25711706
25	0xbdb6b53c	-0.089212865
26	0x3d1725a3	0.036901128
27	0xbd66e9f7	-0.05637547
28	0xbe2fd89f	-0.17172478
29	0x3e5dad1e	0.2164807
30	0x3dceeee4	0.101041585
31	0x3a0b30eb	0.00053097185
32	0x3e4f93ff	0.202713
33	0x3e80d5ab	0.25163016
34	0x3e516cb3	0.20451622
35	0xbd402e79	-0.04691932
36	0xba9bc147	-0.0011883163
37	0xbb1debb2	-0.0024096784
38	0xbe0a244c	-0.13490409
39	0x3dd67d0f	0.10473072
40	0xbdd3cd17	-0.10341852
41	0xbe332681	-0.17495157
42	0xbca932c2	-0.020654086
43	0x3ce0e123	0.027451104
44	0xbcae7c66	-0.021299552
45	0xbe88e366	-0.2673599
46	0x3e529d04	0.20567709
47	0x3e092ee6	0.13396797
48	0x3e1ab104	0.15106589
49	0xbe3e2273	-0.18567829
50	0xbd6455da	-0.055745937
51	0xbe4788cd	-0.19485779
52	0xbd95688b	-0.072953306
53	0xbe1d3450	-0.15351987
54	0xbe02f48a	-0.12788597
55	0x3bd05c4b	0.0063586584
56	0x3e5b8c0e	0.21440145
57	0xbd4f8e26	-0.050672673
58	0x3e3213b0	0.17390323
59	0x3e93cef6	0.28868836
60	0x3e42b691	0.19014956
61	0x3dd0bf5a	0.101927474
62	0x3da061de	0.07831167
63	0x3c066e33	0.0082049845
64	0xbd5173d1	-0.05113584
65	0xbd907cb5	-0.07055036
66	0x3d3fae4a	0.046797074
67	0x3d336bf0	0.04380411
68	0x3ba2fb50	0.0049738064
69	0xbd2c21e1	-0.042024497
70	0xbe6910c2	-0.22760299
71	0xbd1fe14e	-0.039033227
72	0x3e68d411	0.22737147
73	0xbe1489f9	-0.14505757
74	0x3e572d84	0.21013457
75	0x3e9211db	0.28529248
76	0xbe24c4bd	-0.16090675
77	0x3b911ce4	0.004428493
78	0x3e718d7e	0.23589131
79	0x3d488505	0.048954982
80	0xbe56f0e3	-0.20990328
81	0x3e102129	0.1407515
82	0x3d1f2761	0.038855914
83	0x3d6f8619	0.058477495
84	0x3e78a99d	0.24283452
85	0xbd8dd445	-0.06925253
86	0x3da1d520	0.079019785
87	0x3e3c48b2	0.18387106
88	0x3d4917d6	0.049094997
89	0xbe10b0e4	-0.14129978
90	0x3e177330	0.14790034
91	0xbd3611f3	-0.04445071
92	0xbe20b468	-0.1569382
93	0x3e0f70ce	0.14007875
94	0x3e1c7d79	0.15282239
95	0xbe5f228a	-0.2179052
96	0x3e30f936	0.17282566
97	0x3c24147a	0.010014648
98	0xbe5f1470	-0.2178514
99	0x3df79c56	0.120903656
100	0x3d788de0	0.060682178
101	0x3c331be1	0.01093194
102	0xbe1d3d31	-0.15355374
103	0xbe6a2cfd	-0.22868724
104	0x3e591eb4	0.21203119
105	0x3de336a8	0.11094409
106	0xbe366745	-0.17812832
107	0xbdbd7466	-0.09250717
108	0xbe1c45eb	-0.15261047
109	0x3e80652c	0.25077188
110	0xbe03a74e	-0.1285679
111	0xbe780681	-0.24221231
112	0xbe614b1a	-0.22001305
113	0x3e4a0f1b	0.19732325
114	0xbbbb4818	-0.0057153814
115	0xbe5270af	-0.20550798
116	0x3e5c1897	0.21493755
117	0x3cf6b1c5	0.030114064
118	0x3df8c6f1	0.1214732
119	0xbd92f85e	-0.071762785
120	0xbde5ce9c	-0.11221048
121	0x3d3f57cf	0.0467146
122	0x3e020ed4	0.12700969
123	0x3e49b11a	0.19696465
124	0xbe3be33d	-0.18348403
125	0x3e6990d9	0.22809161
126	0x3e8762a0	0.26442432
127	0xbe47e75e	-0.19521853
128	0x3d22805a	0.039673187
129	0xbd505819	-0.050865266
130	0x3da9bd5b	0.0828807
131	0xbe14b9a9	-0.14523949
132	0x3dfcceb3	0.12344112
133	0xbe426ea9	-0.18987526
134	0xbe4adf0a	-0.19811645
135	0xbdbcc225	-0.09216718
136	0xbd2498e1	-0.04018486
137	0xbdf6e837	-0.1205601
138	0xbe1733f3	-0.14765911
139	0x3c4c1f10	0.012458578
140	0x3e1e2dbf	0.15447138
141	0x3e195acd	0.14976044
142	0x3e7700bb	0.24121372
143	0x3e178fd7	0.14800964
144	0x3e563ed8	0.2092241
145	0xbd4fb7fc	-0.05071257
146	0xbdb96eff	-0.09054374
147	0xbe10b861	-0.14132835
148	0xbe827f97	-0.25487968
149	0xbe9cb04a	-0.30603248
150	0x3e4ff523	0.20308356
151	0xbe8df7d1	-0.2772813
152	0xbe66f728	-0.2255522
153	0xbe765ceb	-0.24058883
154	0x3d0c2d0a	0.03422264
155	0x3dd047de	0.101699576
156	0xbe0e324e	-0.13886377
157	0xbe56b9dd	-0.20969339
158	0xbc6477d4	-0.013944585
159	0x3d885b4f	0.06658041
160	0x3e15f23f	0.14643191
161	0x3e3c53d9	0.1839136
162	0xbd089d73	-0.03335328
163	0x3e168109	0.1469766
164	0xbdb3f20d	-0.08786402
165	0x3e0c1142	0.13678458
166	0xbd0e40c9	-0.034729753
167	0xbc4c876d	-0.01248346
168	0x3e3de04a	0.1854259
169	0xbdec0ee2	-0.11526276
170	0xbdd7ad30	-0.1053108
171	0x3d27f475	0.041004617
172	0x3e963b62	0.2934218
173	0x3ddadb99	0.10686416
174	0xbe73da73	-0.238138
175	0xbe23bb4a	-0.15989414
176	0x3df73c83	0.120720886
177	0xbe893967	-0.26801607
178	0xbe1713e6	-0.14753684
179	0xbdcf03d3	-0.10108151
180	0x3e1b84c9	0.15187372
181	0xbe6af664	-0.22945553
182	0xbdc60ac8	-0.09670025
183	0xbe1250c8	-0.14288628
184	0xbe1e371d	-0.15450712
185	0xbe488c05	-0.19584663
186	0x3e7f31d5	0.24921353
187	0xbccf0947	-0.025272978
188	0x3e53b477	0.2067431
189	0xbdb39005	-0.08767704
190	0x3e70b6ce	0.23507234
191	0x3d780a7b	0.06055687
192	0x3ea5c2b9	0.32375124
193	0xbdeb2dbc	-0.114833325
194	0x3c6e300d	0.014537823
195	0x3dab4746	0.08363204
196	0x3da8f01f	0.082489245
197	0xbe148a1f	-0.14505814
198	0x3ca08d13	0.01959852
199	0x3d1562a4	0.036471024
200	0xbdbcb9d2	-0.0921513
201	0x3e691804	0.22763067
202	0x3c096d85	0.008387928
203	0x3d351bda	0.044216014
204	0x3e27e6cb	0.16396634
205	0xbe304452	-0.17213562
206	0xbd7f0c08	-0.062267333
207	0x3e7c9c3c	0.24668974
208	0xbe881e5a	-0.26585656
209	0x3d2d1585	0.04225685
210	0x3e169d7b	0.14708512
211	0xbd53c0a1	-0.051697377
212	0x3d3a8820	0.045539975
213	0x3d102508	0.035191566
214	0xbe3e2083	-0.1856709
215	0x3d95c7da	0.07313509
216	0xbd0c8a69	-0.034311686
217	0x3e572379	0.21009625
218	0x3e0f7dac	0.14012784
219	0x3dc8f177	0.09811681
220	0xbdc81960	-0.09770465
221	0xbe40441d	-0.18775983
222	0x3d6a3497	0.05717906
223	0x3e290327	0.16505109
224	0xbe0b9e03	-0.13634495
225	0xbde89611	-0.11356748
226	0x3c9948b2	0.018711422
227	0x3e384867	0.1799637
228	0xbe7cd9ca	-0.24692455
229	0x3e6e60f2	0.23279169
230	0xbe8b0979	-0.27155665
231	0xbe06a063	-0.1314712
232	0x3e54bc7b	0.20775025
233	0xbdf2e44e	-0.11859952
234	0x3ddb3a6d	0.10704503
235	0x3d09664a	0.033544816
236	0x3cf10a3b	0.029423824
237	0x3cec61d0	0.028855234
238	0x3d549e81	0.051908974
239	0xbdd7ee98	-0.10543555
240	0x3e0eab37	0.13932501
241	0xbe4cd858	-0.20004404
242	0x3e029600	0.12752533
243	0x3e2519d3	0.16123132
244	0x3e12ff86	0.14355287
245	0x3d05fcaa	0.032711662
246	0xbe517db3	-0.20458107
247	0x3d022010	0.03176886
248	0xbd60baf2	-0.054865785
249	0x3cbe036a	0.023194987
250	0xbe452e3e	-0.19255921
251	0xbdc9e126	-0.09857397
252	0xbebe3442	-0.37149245
253	0x3c342174	0.010994304
254	0x3dee8093	0.11645617
255	0xbdc40a7b	-0.095723115

conv1d.bias f4 [64]
0	0xbd09d87e	-0.03365373
1	0xbddaba61	-0.1068008
2	0xbec9e343	-0.394312
3	0xbc302529	-0.010751047
4	0xbec0dda3	-0.37669095
5	0x3df13440	0.11777544
6	0xbd54759f	-0.051869985
7	0x3e8ff16e	0.28113884
8	0xbc2f39b3	-0.010694909
9	0x3caeca69	0.021336751
10	0x3e86cf2a	0.2632993
11	0x3e6bd61f	0.230309
12	0xbdd75d9e	-0.10515903
13	0x3d1b6c9a	0.037945367
14	0xbe91a54f	-0.28446433
15	0xbda10599	-0.07862396
16	0x3de7fe71	0.11327828
17	0x3e55da80	0.20884132
18	0x3e7b6282	0.24549296
19	0xbea2f584	-0.3182794
20	0xbd0c8648	-0.034307748
21	0xbeb76680	-0.3582039
22	0x3df56161	0.11981464
23	0xbdeb071e	-0.11475967
24	0x3eb33eaa	0.35008746
25	0xbd4ac598	-0.049504846
26	0xbd8ba079	-0.06817717
27	0xbdaac2a1	-0.08337904
28	0xbea0c4df	-0.314002
29	0x3e5d8234	0.216317
30	0xbe7081e8	-0.23487055
31	0xbdc465a2	-0.095896974
32	0xbe5e2f34	-0.21697694
33	0x3dbb85cc	0.09156379
34	0x3e8e19f2	0.2775417
35	0xbec3e7cc	-0.38262784
36	0xbcc03d69	-0.023466783
37	0x3e972d8f	0.29526946
38	0x3e8df743	0.27727708
39	0xbe40f9fe	-0.18845364
40	0x3e94998f	0.29023406
41	0x3ec6d777	0.38836262
42	0xbecfa395	-0.4055449
43	0x3d571ab7	0.05251571
44	0x3e1978a4	0.14987427
45	0xbcc9645c	-0.024583988
46	0xbe068416	-0.13136324
47	0xbca7817a	-0.020447481
48	0xbe03da0a	-0.12876144
49	0x3e8dca71	0.27693513
50	0xbe519772	-0.20467928
51	0x3e788c43	0.24272256
52	0xbc343966	-0.011000013
53	0x3e586940	0.211339
54	0x3ea93922	0.330514
55	0xbe6e3670	-0.23262954
56	0x3c9584b8	0.018251762
57	0xbef617e5	-0.48065105
58	0xbc881548	-0.01661171
59	0xbe6a2ece	-0.22869417
60	0xbe7b30fe	-0.24530408
61	0xbec864ca	-0.39139396
62	0xbd18af79	-0.03727672
63	0x3e89d875	0.26922956

batchnorm.weight f4 [64]
0	0x3f8c5a30	1.0965023
1	0x3f53a2f6	0.82670534
2	0x3f7fe245	0.99954635
3	0x3f62d82d	0.8861111
4	0x3f7fa00b	0.9985358
5	0x3f5aae89	0.8542257
6	0x3f825f94	1.0185418
7	0x3f56f475	0.8396676
8	0x3f6a52b8	0.9153247
9	0x3f690009	0.9101568
10	0x3f66b267	0.9011597
11	0x3f7e246c	0.99274325
12	0x3f66de8c	0.9018333
13	0x3f4f0cc5	0.8087886
14	0x3f7c0c8b	0.9845664
15	0x3f64f9fb	0.8944394
16	0x3f6fa428	0.9360986
17	0x3f6d4279	0.92679554
18	0x3f661d97	0.898889
19	0x3f788da1	0.9709111
20	0x3f630a0d	0.8868721
21	0x3f7b1d1a	0.9809128
22	0x3f53d08d	0.827401
23	0x3f4bdced	0.7963398
24	0x3f803938	1.0017462
25	0x3f60612b	0.87648267
26	0x3f595eef	0.8491048
27	0x3f6d8476	0.92780244
28	0x3f7de348	0.9917493
29	0x3f76022f	0.9609708
30	0x3f670334	0.9023926
31	0x3f7cadd1	0.9870272
32	0x3f462b08	0.7740941
33	0x3f6a90fb	0.9162747
34	0x3f6d72bc	0.92753196
35	0x3f7c614e	0.98585975
36	0x3f866e9f	1.0502509
37	0x3f6bb74a	0.9207655
38	0x3f636d9d	0.8883913
39	0x3f5da390	0.865777
40	0x3f74a9e2	0.9557172
41	0x3f75799c	0.95888686
42	0x3f7a07da	0.9766823
43	0x3f4dba3a	0.80362284
44	0x3f6d9100	0.9279938
45	0x3f546389	0.8296438
46	0x3f6d32c6	0.926556
47	0x3f427e0c	0.7597358
48	0x3f6fe591	0.93709666
49	0x3f623964	0.8836882
50	0x3f505e7a	0.8139416
51	0x3f6adbfc	0.9174192
52	0x3f788bbb	0.9708821
53	0x3f6e964b	0.9319808
54	0x3f713a6c	0.9422977
55	0x3f7fbb27	0.99894947
56	0x3f5c7ad3	0.86124915
57	0x3f7076bc	0.93931174
58	0x3f586b05	0.845383
59	0x3f7a58b8	0.97791624
60	0x3f6b21df	0.9184856
61	0x3f7fc9e6	0.9991745
62	0x3f85d531	1.0455686
63	0x3f785adf	0.9701366

batchnorm.bias f4 [64]
0	0xbc65a362	-0.014016004
1	0x3cd52395	0.026017943
2	0xbd0c8c55	-0.03431352
3	0xbc6c00ee	-0.0144045185
4	0xbd881056	-0.06643741
5	0x3c689707	0.014196164
6	0x3de1052c	0.109873146
7	0x3d9f216f	0.07770049
8	0x3db7db5c	0.08977386
9	0x3d403d4a	0.04693345
10	0x3d964ec4	0.07339242
11	0x3d0c9c49	0.034328733
12	0x39faf16c	0.0004786359
13	0xbd68b1ac	-0.056810066
14	0xbd08def7	-0.03341576
15	0xbb6dc740	-0.0036282092
16	0x3d8d49f6	0.068988726
17	0x3c8901cb	0.016724488
18	0x3c8293bd	0.015939588
19	0xbd8c35e2	-0.06846215
20	0x3d75ca6c	0.060007498
21	0xbd69d380	-0.057086468
22	0x3d92647c	0.07148072
23	0xbd1c4adf	-0.03815734
24	0x3cdd781e	0.027034815
25	0xbd25267e	-0.040319912
26	0xbc0c22c1	-0.008553208
27	0xbac1bcb1	-0.0014780966
28	0xbd8fe3a9	-0.070258446
29	0x3da0c6b8	0.078504026
30	0x3b929b73	0.0044740974
31	0xbc2c5622	-0.010518583
32	0xbc5a1357	-0.013310275
33	0x3cade3d0	0.021226794
34	0x3d05b42e	0.032642536
35	0xbd7c2419	-0.061557863
36	0x3d4bb646	0.049734376
37	0x3d5f7797	0.05455741
38	0x3dcc6e5c	0.09981987
39	0x3c787a74	0.015165914
40	0x3d17a7be	0.037025206
41	0x3d3c7040	0.046005487
42	0xbcae32b1	-0.021264406
43	0xbd524c80	-0.051342487
44	0x3d458196	0.048219286
45	0xbd1d87fc	-0.038459763
46	0xbc1e3626	-0.009656465
47	0x3bbe5b2a	0.0058092074
48	0xbcf28c52	-0.029607926
49	0x3da36c5a	0.07979651
50	0xbd5eba8b	-0.05437712
51	0x3d97da10	0.07414639
52	0x3ce78312	0.028260741
53	0x3d737f5a	0.059447624
54	0x3d5854e0	0.052815318
55	0xbd90c655	-0.07069079
56	0x3d4bb5b1	0.04973382
57	0xbdcd140b	-0.100135885
58	0x3dc69ad7	0.09697502
59	0xbd0d67bf	-0.034522768
60	0xbd638f2b	-0.055556457
61	0xbd8f07d7	-0.06983917
62	0x3c26cdd4	0.010180909
63	0x3dae3b45	0.085073985

batchnorm.running_mean f4 [64]
0	0x3dac8bda	0.08425112
1	0x3c5ac9af	0.013353749
2	0xbeb25317	-0.34829018
3	0x3d92efd1	0.071746476
4	0xbea02bbf	-0.31283376
5	0x3e595e39	0.2122735
6	0x3ceeaf67	0.029136373
7	0x3eb5290e	0.35382885
8	0x3d924578	0.07142156
9	0x3d847afe	0.064687714
10	0x3e99d3ad	0.30044308
11	0x3e8afd23	0.27146253
12	0xbd2ff08f	-0.042954024
13	0x3e0da61d	0.13832898
14	0xbe8581b5	-0.2607552
15	0x3ceb9f30	0.02876243
16	0x3e36eb76	0.17863259
17	0x3e85fd99	0.26170042
18	0x3ebd046e	0.36917442
19	0xbe8a7d0e	-0.27048534
20	0x3db5fc32	0.08885993
21	0xbeb757e2	-0.35809237
22	0x3e33e49c	0.17567676
23	0xbd941347	-0.07230239
24	0x3ed3b0ea	0.41345912
25	0x3c9cbbd4	0.019132532
26	0x3d2fbf75	0.042907197
27	0x3cc052ec	0.02347704
28	0xbe9cebca	-0.30648643
29	0x3e81c298	0.25343776
30	0xbe0fa660	-0.14028311
31	0x3cfb373e	0.03066599
32	0xbdf7d932	-0.121019736
33	0x3e5c4709	0.21511473
34	0x3eaa838d	0.3330349
35	0xbebe5eee	-0.371818
36	0x3d80fac0	0.06297827
37	0x3ec2ea93	0.3806959
38	0x3ea9b0b0	0.33142614
39	0xbd171d3e	-0.036893122
40	0x3ec58b0b	0.38582644
41	0x3ee60a80	0.44929886
42	0xbeb94aff	-0.3619003
43	0x3da39b23	0.07988574
44	0x3e7933bd	0.24336143
45	0x3ca51918	0.020153567
46	0xbd8411aa	-0.06448682
47	0x3d37c5e8	0.044866472
48	0xbc4a9b5c	-0.012366142
49	0x3ed85c75	0.4225804
50	0xbe50e7a2	-0.20400861
51	0x3e92b094	0.28650343
52	0x3d70db86	0.058803104
53	0x3ea32f08	0.3187182
54	0x3ed1eea5	0.41002384
55	0xbe57ca11	-0.21073176
56	0x3e0bc981	0.13651086
57	0xbedea785	-0.43487182
58	0x3e067084	0.13128859
59	0xbe714ba8	-0.23564017
60	0xbe548d0d	-0.20756932
61	0xbebbac3a	-0.36654836
62	0x3d15b748	0.036551744
63	0x3ea06d6a	0.31333476

batchnorm.running_var f4 [64]
0	0x3dfdb04d	0.12387142
1	0x3e926d39	0.28598955
2	0x3e9d52ee	0.30727333
3	0x3dd4c476	0.103890345
4	0x3e7ae3c6	0.24500951
5	0x3f9046a6	1.127156
6	0x3d83f5cd	0.06443367
7	0x3e5f5831	0.21810986
8	0x3d999ac2	0.07500221
9	0x3e0b4599	0.13600768
10	0x3e3862a8	0.18006384
11	0x3e1a4d91	0.15068652
12	0x3df8d67a	0.12150283
13	0x3e4e5596	0.20149836
14	0x3e1200b7	0.14258085
15	0x3dae4675	0.08509532
16	0x3e1e4c43	0.15458779
17	0x3e05d324	0.13068825
18	0x3e3a0c2d	0.18168707
19	0x3e75033a	0.23927012
20	0x3ded8123	0.115968965
21	0x3e3ce024	0.18444878
22	0x3e0098c3	0.12558274
23	0x3e053668	0.13009036
24	0x3e9922b0	0.29909277
25	0x3d3b9012	0.045791693
26	0x3e6449f6	0.22293839
27	0x3df412c9	0.119176455
28	0x3e287357	0.16450249
29	0x3de76a0c	0.11299524
30	0x3e96e929	0.29474762
31	0x3e14d68f	0.14534973
32	0x3e869066	0.26282042
33	0x3f5229b3	0.8209488
34	0x3e51a8f8	0.20474613
35	0x3e85ecfd	0.2615737
36	0x3d95c245	0.073124446
37	0x3e65f7f8	0.22457874
38	0x3e272d0e	0.16325781
39	0x3f1e9b1b	0.6195542
40	0x3e712261	0.23548271
41	0x3eb77e20	0.35838413
42	0x3ec4aab6	0.38411492
43	0x3f0e9635	0.5569795
44	0x3e583123	0.21112494
45	0x3dcf086a	0.10109027
46	0x3e1b6b5e	0.15177676
47	0x3d611dac	0.054959938
48	0x3e2cd886	0.16879472
49	0x3fb66baa	1.4251606
50	0x3d796ef3	0.060896825
51	0x3de76535	0.112986006
52	0x3d63ef8a	0.055648364
53	0x3e4448fd	0.19168468
54	0x3e896051	0.26831296
55	0x3dcf5469	0.10123522
56	0x3f470a0c	0.77749705
57	0x3ef76985	0.48322693
58	0x402772d2	2.616383
59	0x3db6eedb	0.08932277
60	0x3e49936f	0.19685148
61	0x3ea62dbf	0.32456776
62	0x3d894cc1	0.06704093
63	0x3e11ebf0	0.1425016

lstm.weight_ih_l0 f4 [200, 64]
0	0xbdeea9f4	-0.1165351
1	0x3d83dd3b	0.06438681
2	0xbd3c8d4a	-0.04603318
3	0x3db4be54	0.08825365
4	0x3d3d7b22	0.046260007
5	0x3e017fa8	0.12646353
6	0xbe13e155	-0.14441426
7	0x3e014476	0.12623772
8	0x3db748fb	0.08949467
9	0xbc60183d	-0.013677654
10	0x3de1899c	0.11012575
11	0x3dedd8c2	0.11613609
12	0x3dcf97f3	0.10136404
13	0x3cc75676	0.02433322
14	0xbde8af69	-0.11361582
15	0xbdb1c943	-0.08680966
16	0x3bf528b2	0.007481658
17	0x3d50ea2d	0.051004577
18	0x3b9cd05f	0.004785582
19	0x3dc36a39	0.09541745
20	0x3dade6f7	0.08491319
21	0xbc8bc193	-0.017060077
22	0xbda50546	-0.080576465
23	0xbdda8431	-0.10669745
24	0x3df5faca	0.12010725
25	0xbb829476	-0.003984983
26	0x3bd48936	0.0064860834
27	0xbe04d36e	-0.12971279
28	0x3ddbc2e8	0.10730535
29	0x3d4d43eb	0.0501136
30	0xbd924d15	-0.071436085
31	0xbdcdbb83	-0.10045531
32	0x3d0a2d19	0.033734415
33	0xbcdd0c15	-0.0269833
34	0x3dd4d431	0.10392035
35	0x3d042516	0.03226193
36	0x3c8b412a	0.016998846
37	0xbd0b6178	-0.0340285
38	0x3d902aef	0.07039439
39	0xbdc3d021	-0.09561182
40	0x3caeab29	0.02132185
41	0xb8d4f54a	-0.000101546364
42	0x3d97672f	0.073927276
43	0xbd7061e0	-0.05868709
44	0x3cc684e9	0.024233298
45	0xbd003313	-0.03129871
46	0x3df17f38	0.11791843
47	0x3b48a9e7	0.0030618848
48	0xbd850224	-0.06494549
49	0xbdf64335	-0.120245375
50	0xbdc4b20d	-0.09604273
51	0xbda82051	-0.08209289
52	0x3dbd41b7	0.0924105
53	0xbc1c285f	-0.00953111
54	0xbd15a43d	-0.036533583
55	0x3e1115ff	0.14168547
56	0x3d72de3d	0.059293974
57	0xbdb45e52	-0.08807053
58	0xbd39cbe1	-0.04536045
59	0x3da127fc	0.078689545
60	0x3d753f13	0.059874605
61	0xbd489e3e	-0.048979037
62	0xbcb69287	-0.022286667
63	0xbd6092f0	-0.05482763
64	0xbdfd702b	-0.1237491
65	0x3dabc3c9	0.083869524
66	0x3dba079f	0.09083485
67	0x3e4fe665	0.20302732
68	0x3d843e47	0.06457191
69	0x3dffe677	0.124951296
70	0xbde08e6c	-0.10964665
71	0x3dd481de	0.10376333
72	0x3ce7022e	0.028199282
73	0xbe045a15	-0.12924989
74	0xbe076b50	-0.1322453
75	0x3d7fdfdc	0.06246935
76	0x3d47ce5a	0.048780777
77	0x3c738431	0.01486306
78	0xb772caf0	-1.4471574e-05
79	0xbd3888ae	-0.045052223
80	0xbccc9dd9	-0.024977611
81	0x3dbb60bb	0.09149309
82	0x3de8a68c	0.11359891
83	0xbd702689	-0.0586305
84	0xbdb8662c	-0.09003863
85	0xbd5bbec7	-0.053648736
86	0x3d762a78	0.060099095
87	0xbd45b0a6	-0.04826417
88	0xbdcb8751	-0.09937919
89	0x3cd37bf6	0.025815945
90	0x3e17e306	0.14832696
91	0x3d85c82e	0.06532322
92	0x3db2bf49	0.08727891
93	0x3d9a12f9	0.0752315
94	0xbdd48f51	-0.10378898
95	0xbd96d5a0	-0.073649645
96	0x3d4fd3b0	0.05073899
97	0xbe0916c8	-0.13387597
98	0x3dd659f7	0.10466378
99	0x3df0cabd	0.11757419
100	0x3e281a25	0.16416223
101	0xbd9940a4	-0.07483032
102	0xbd31c8f3	-0.04340453
103	0x3e15087d	0.1455402
104	0x3d8b5477	0.0680322
105	0xbd2cc5fb	-0.042180996
106	0x3bc86598	0.0061156265
107	0x3d96fc4a	0.07372339
108	0xbcbcc349	-0.023042338
109	0x3c61fb00	0.013792753
110	0x3d94b1ae	0.07260452
111	0x3e00a7b9	0.12563981
112	0xbc490b7b	-0.012270804
113	0xbde48650	-0.111584306
114	0xbd40c429	-0.047062073
115	0xbe054136	-0.13013157
116	0xbdeb9d39	-0.11504597
117	0xbd74b590	-0.059743464
118	0xbcb7e09f	-0.022445975
119	0x3e4689a2	0.1938844
120	0x3d892434	0.06696358
121	0x3e054317	0.13013874
122	0xbd2a73a6	-0.041614197
123	0x3d646016	0.055755697
124	0x3bf14e4a	0.007364069
125	0x3b2f3fc8	0.0026740897
126	0x3cd236fe	0.025660988
127	0xbe04bd81	-0.12962915
128	0x3e20ab2c	0.15690297
129	0x3e494bc9	0.19657816
130	0xbda85f3b	-0.08221289
131	0xbd764a8d	-0.06012969
132	0xbc0bc279	-0.008530253
133	0xbc33d070	-0.010974988
134	0x3e3fbebb	0.18725102
135	0x3c40bdb2	0.011763977
136	0x3e119786	0.14217958
137	0x3be3e89a	0.0069552185
138	0x3df405a8	0.11915141
139	0x3de28e39	0.11062283
140	0x3d6bba55	0.057550747
141	0xbdeec151	-0.11657966
142	0x3e1294df	0.14314602
143	0x3dcfaaf7	0.10140031
144	0x3e0b1ef8	0.13586032
145	0x3d5b13aa	0.05348555
146	0x3d8992ef	0.067174785
147	0xbdc80661	-0.09766842
148	0x3e535a30	0.20639873
149	0xbdac3403	-0.08408358
150	0x3d870655	0.065930046
151	0x3d2b4985	0.04181816
152	0x3e0906f4	0.13381559
153	0x3d97cf6c	0.074126095
154	0x3bd12a02	0.0063831815
155	0x3d81aa84	0.063313514
156	0x3c0d1cf3	0.008612859
157	0x3e10b6c8	0.14132226
158	0x3d87cbd0	0.06630671
159	0x3d55a1fc	0.052156433
160	0x3d702c7f	0.058636185
161	0x3deb8926	0.11500768
162	0x3cfc3c84	0.030790575
163	0xbd68c46d	-0.05682795
164	0x3e569d9d	0.20958562
165	0x3e29bc12	0.1657565
166	0x3d3cece7	0.046124365
167	0x3e865d97	0.26243278
168	0xbd89a87b	-0.06721588
169	0x3d907ad2	0.07054676
170	0x3c9deadc	0.019277029
171	0x3d432c35	0.04764958
172	0x3e57062d	0.2099845
173	0x3d9702ad	0.07373557
174	0x3dcf8d4a	0.101343706
175	0x3e642057	0.22277962
176	0xbb5f75c3	-0.003409729
177	0x3dde1de5	0.10845546
178	0xbd8893b7	-0.06668799
179	0x3d56cd2e	0.05244177
180	0x3dabc627	0.08387404
181	0x3c3edbad	0.0116490545
182	0xbc7ee8ca	-0.015558431
183	0x3d98b114	0.0745565
184	0x3d92e7de	0.071731314
185	0x3d894dac	0.06704268
186	0xbc5ab1eb	-0.013348083
187	0x3d9fe007	0.07806402
188	0xbd0c49fb	-0.03425024
189	0x3c1a54a3	0.009419593
190	0x3e29c4d3	0.16578989
191	0x3e32d070	0.17462325
192	0xbda7c202	-0.08191301
193	0xbcef27c9	-0.029193776
194	0xbe23472d	-0.1594512
195	0x3d1945f2	0.03742022
196	0xbccd9860	-0.025097072
197	0xbd709766	-0.058738135
198	0xbd52f399	-0.051501844
199	0x3d293181	0.041306976
200	0x3e140204	0.14453894
201	0x3d396a82	0.04526759
202	0x3d855de5	0.065120496
203	0xbcd384f6	-0.025820237
204	0x3e1df58c	0.154257
205	0xbd96a9b5	-0.07356588
206	0xbdf8dc85	-0.12151436
207	0x3e1bd175	0.1521662
208	0xbd16b96b	-0.036797922
209	0xbcae8366	-0.02130289
210	0x3d769708	0.06020263
211	0xbc089dcb	-0.008338402
212	0x3ce69744	0.028148301
213	0x3be6e4f0	0.0070463344
214	0x3e052811	0.13003565
215	0x3c01e300	0.007927656
216	0x3def1c75	0.116753496
217	0x3e008722	0.12551549
218	0x3e09c007	0.13452159
219	0xbd0f60e9	-0.03500453
220	0xbd2cdaa9	-0.042200718
221	0x3904d87f	0.00012669152
222	0x3d3bef3a	0.04588244
223	0x3ce398a6	0.02778275
224	0x3d04d358	0.032428116
225	0x3d17ed1e	0.037091367
226	0x3c100a4e	0.008791519
227	0xbe0cc971	-0.13748719
228	0x3e07b82a	0.13253847
229	0x3d99d9ce	0.07512246
230	0xbdbfee66	-0.09371643
231	0xbd95beef	-0.07311808
232	0x3e310e55	0.17290623
233	0x3dd77289	0.10519893
234	0xbe2157f4	-0.15756208
235	0x3dcb3667	0.09922486
236	0x3dfcbc53	0.123406075
237	0x3d40deed	0.0470876
238	0x3d60e2c8	0.054903775
239	0x3dd4d98c	0.10393056
240	0x3dd3ab97	0.103354625
241	0x3deae274	0.11468974
242	0x3daa6e6f	0.08321845
243	0x3d25c050	0.040466607
244	0x3dc20dfc	0.094753236
245	0xbda446dd	-0.080213286
246	0x3cb39972	0.021923754
247	0xbe0cfb17	-0.13767658
248	0xbd9ccb3b	-0.07655951
249	0xbe141a12	-0.1446307
250	0xbde57e69	-0.112057514
251	0xbdea849a	-0.11451073
252	0xbc113839	-0.008863502
253	0xbc43b769	-0.011945584
254	0xbdc739e3	-0.09727838
255	0x3bd667ce	0.006543136

lstm.weight_hh_l0 f4 [200, 50]
0	0x3d92bbc9	0.071647234
1	0x3d75afba	0.05998204
2	0x3d641e99	0.055693243
3	0xbe2c91ab	-0.16852443
4	0xbc8a0b6e	-0.016851153
5	0xbd5f4ae2	-0.054514773
6	0xbdabcddc	-0.08388874
7	0x3d07116d	0.032975603
8	0x3d8ad9cf	0.06779825
9	0x3db68b7d	0.08913324
10	0x3dc9a509	0.09845931
11	0x3bcc1068	0.0062275417
12	0x3d576de7	0.052595045
13	0x3e194c6d	0.1497056
14	0x3da65416	0.08121507
15	0x3d9f507b	0.07779022
16	0x3d902217	0.07037752
17	0xbd61dd52	-0.055142708
18	0x3ba694b0	0.005083643
19	0xbd945375	-0.07242481
20	0xbbd10af9	-0.006379482
21	0x3e34329d	0.17597432
22	0xbddd1f9c	-0.10797045
23	0xbe5bf862	-0.2148147
24	0x3e4da8a4	0.20083863
25	0xbdee2ad7	-0.11629265
26	0xbd980d82	-0.074244514
27	0x3e37fe6c	0.17968148
28	0xbd4c7fd8	-0.04992661
29	0xbd829023	-0.06375148
30	0x3e3a5be9	0.18199123
31	0xbdd24d71	-0.10268677
32	0xbdc6dae5	-0.097097196
33	0xbd99ee9e	-0.07516216
34	0x3d983f86	0.07433991
35	0xbc9e4ef1	-0.019324752
36	0x3cfcc064	0.030853458
37	0xbda193b4	-0.078895
38	0xbe2893f7	-0.16462694
39	0x3dde85d0	0.108653665
40	0xbe12265c	-0.14272445
41	0x3df797c2	0.120894924
42	0x3e266587	0.16249667
43	0xbdfd6792	-0.1237327
44	0x3e238843	0.15969948
45	0xbdc0415e	-0.09387468
46	0xbdb4c1b4	-0.088260084
47	0xbdb86bc1	-0.090049274
48	0xbceddc8d	-0.02903583
49	0xbdae5760	-0.08512759
50	0xbc146183	-0.009056452
51	0xbd2bd4c9	-0.041950975
52	0x3e26075b	0.16213743
53	0x3d46439f	0.048404332
54	0x3e13d43f	0.14436434
55	0x3dc2191b	0.09477445
56	0xbcb2a8f4	-0.021809079
57	0x3d36dc45	0.04464366
58	0x3aba82fd	0.0014229711
59	0xbe03bca4	-0.1286493
60	0xbce1b461	-0.027551832
61	0x3e040cd8	0.12895525
62	0x3e854359	0.26027945
63	0x3dd18415	0.10230271
64	0x3daf3fd0	0.08557093
65	0xbe09a495	-0.1344169
66	0xbde0e56f	-0.10981261
67	0x3db00b1d	0.0859587
68	0xbdb75b90	-0.08953011
69	0xbd08fff2	-0.033447213
70	0xbd1f986e	-0.038963728
71	0xbce1c952	-0.027561817
72	0xbd96d930	-0.07365644
73	0xbe14d06a	-0.14532629
74	0x3cefed7c	0.029288046
75	0x3b78df3f	0.0037974862
76	0x3dec9b18	0.11553019
77	0x3e1f8e96	0.15581736
78	0x3e14c433	0.14527969
79	0x3dc1bcef	0.09459864
80	0x3dc2bdb8	0.09508842
81	0x3c77b1b4	0.015118051
82	0x3d850388	0.06494814
83	0xbe207be1	-0.15672256
84	0x3e324aef	0.17411397
85	0x3d532dc9	0.051557336
86	0x3c1f6f48	0.009731121
87	0x3cf96f59	0.030448603
88	0xbe40537d	-0.18781848
89	0x3e2ae9ad	0.16690703
90	0xbe38e49e	-0.1805596
91	0x3e2734ea	0.16328779
92	0x3e268a34	0.16263658
93	0xbcfb439e	-0.03067189
94	0xbc764089	-0.015030035
95	0x3de272e9	0.110570736
96	0xbe590519	-0.21193351
97	0xbdc2e3e4	-0.09516123
98	0x3cc3ff0a	0.023925323
99	0xbe41b62e	-0.18917152
100	0xbd142144	-0.036164537
101	0x3eab5c74	0.33468974
102	0x3d1d1a1a	0.03835497
103	0x3e4570ab	0.1928126
104	0xbe7ed164	-0.24884564
105	0xbe12aafb	-0.14323036
106	0x3d8e1a44	0.069386035
107	0xbdb2d993	-0.08732905
108	0xbbeb813a	-0.007187036
109	0xbeb9bbf0	-0.36276197
110	0x3dde6640	0.108593464
111	0xbe25e114	-0.16199142
112	0xbd397d7f	-0.045285698
113	0x3c812d41	0.015768649
114	0x3e472e4d	0.19451256
115	0xbc39b8b4	-0.011335541
116	0xbe0528e0	-0.13003874
117	0xbe369ac4	-0.17832476
118	0x3e0354b8	0.12825286
119	0x3e72f0fb	0.23724739
120	0xbda25343	-0.07926037
121	0xbd3b5a2b	-0.045740288
122	0xbd539ad6	-0.051661335
123	0x3dc06931	0.09395064
124	0x3e05cdcb	0.13066785
125	0xbde8b8ea	-0.113633946
126	0xbd485fa3	-0.04891933
127	0x3ccb1d5f	0.024794279
128	0xbe0bc8b2	-0.13650778
129	0x3c26de34	0.010184813
130	0x3d14744c	0.03624372
131	0x3d4fd0fb	0.05073641
132	0xbe38f30f	-0.1806147
133	0x3e902895	0.28155962
134	0x3e10054d	0.14064522
135	0x3dfefc33	0.12450447
136	0xbe82cfb1	-0.2554908
137	0xbc7ae5c3	-0.0153135685
138	0xbe3d1ba1	-0.18467571
139	0xbeaadd6f	-0.33372065
140	0x3d54ca1c	0.05195056
141	0x3e337ae2	0.17527345
142	0x3e002d31	0.12517239
143	0xbd9e96ce	-0.077436075
144	0x3c0d38c9	0.008619496
145	0xbd4e7be4	-0.05041112
146	0xbdc12cd1	-0.09432376
147	0x3e292883	0.1651936
148	0xbe3a838f	-0.18214248
149	0x3d3b69b5	0.045755107
150	0x3e827d19	0.25486067
151	0xbbf08664	-0.0073402394
152	0xbd02fb5e	-0.031978004
153	0x3d83ac6e	0.06429373
154	0xbdf32135	-0.11871568
155	0x3e000a43	0.12503915
156	0x3c521fe6	0.012824988
157	0xbd32ffcf	-0.04370099
158	0x3e39aa1e	0.18131301
159	0xbd077378	-0.033069104
160	0xbd5f6f48	-0.054549485
161	0xbdbb86e9	-0.091565914
162	0x3e0145cb	0.1262428
163	0xbe04877f	-0.12942313
164	0x3cf308b3	0.029667234
165	0x3e30ee43	0.1727839
166	0x3bcbbd9e	0.0062176725
167	0xbd988993	-0.07448115
168	0xbd6f36c2	-0.05840183
169	0x3e3ff6ee	0.1874654
170	0x3d9515b1	0.07279528
171	0x3da6983a	0.08134504
172	0x3c7d39d7	0.015455685
173	0xbe223913	-0.15842085
174	0xbcf28e07	-0.02960874
175	0xbe5abbea	-0.21360746
176	0xbdc4399f	-0.09581303
177	0x3ce59ce8	0.02802892
178	0xbd1845ee	-0.037176065
179	0x3daad5df	0.08341574
180	0x3e12d006	0.14337167
181	0xbd0692c5	-0.032854814
182	0xbdc297a4	-0.095015794
183	0x3e27d4f5	0.1638983
184	0x3b8ed064	0.004358338
185	0x3a0aa90d	0.0005289473
186	0xbeb701a9	-0.35743454
187	0xbd83df34	-0.06439057
188	0xbdef5d53	-0.11687722
189	0xbdebe138	-0.115175664
190	0xbd55f91d	-0.052239526
191	0x3e80c5d9	0.25150946
192	0xbca30f9f	-0.01990491
193	0xbe5b40a1	-0.21411373
194	0xbdc5ee8e	-0.09664641
195	0x3e0848c4	0.13309008
196	0x3dd3e2fb	0.103460275
197	0x3d64c2ec	0.055849954
198	0xbe9ef18a	-0.31043655
199	0xbd68a78f	-0.05680042
200	0xbdd9d514	-0.106363446
201	0x3d654504	0.05597402
202	0x3e983e4f	0.29735038
203	0xbc63298b	-0.013864885
204	0xbd8eb849	-0.06968743
205	0x3c019c7e	0.007910846
206	0xbd7b301d	-0.06132518
207	0x3dfd5caa	0.1237119
208	0xbdde767e	-0.10862444
209	0x3d89ece2	0.06734635
210	0x3e404a49	0.18778338
211	0x3e312164	0.17297894
212	0x3e036354	0.1283086
213	0x3e485f2e	0.19567558
214	0xbdda8f26	-0.10671835
215	0xbe22d2a8	-0.15900671
216	0xbd9ec8c3	-0.07753136
217	0xbd296d1d	-0.041363824
218	0xbdb5b498	-0.08872336
219	0x3dd1169d	0.10209391
220	0x3e26d339	0.16291513
221	0x3dd2b07c	0.10287568
222	0x3dabad33	0.083826445
223	0xbe1fa9c0	-0.15592098
224	0xbd08d6e5	-0.033408064
225	0x3d136ac7	0.035990503
226	0x3c238893	0.009981292
227	0x3bc7bd1e	0.0060955426
228	0xbdedd4c9	-0.11612851
229	0xbe3db789	-0.18527044
230	0x3dfca799	0.12336654
231	0x3d1c96b5	0.038229663
232	0xbd83d674	-0.06437388
233	0xbe4a561e	-0.19759414
234	0xbd120f51	-0.035659138
235	0xbd94c3f1	-0.07263935
236	0x3d5fc032	0.05462665
237	0xbc5f05ca	-0.01361222
238	0xbd5780e0	-0.05261314
239	0xbd8d2303	-0.068914436
240	0xbe1500e0	-0.14551115
241	0x3e0e734e	0.13911173
242	0x3ca52744	0.020160325
243	0xbd99cf1e	-0.075102076
244	0xbcb4981f	-0.022045193
245	0xbe0fd888	-0.14047444
246	0x3d5ea68d	0.054358054
247	0x3abea43f	0.0014544799
248	0x3d0467d5	0.032325584
249	0x3c4223d1	0.01184936
250	0x3d44d482	0.048054226
251	0xbd5ce2f0	-0.053927362
252	0x3dcb38f2	0.09922971
253	0x3df34004	0.118774444
254	0xbe351892	-0.17685154
255	0x3dfdc999	0.12391967

lstm.bias_ih_l0 f4 [200]
0	0xbbaf678c	-0.00535292
1	0xbd43fc53	-0.047848057
2	0xbd87b710	-0.06626713
3	0x3d9943d7	0.074836425
4	0xbe1c5ecb	-0.15270536
5	0xbdf09ac4	-0.11748269
6	0xbe0f7790	-0.14010453
7	0xbcd973c6	-0.026544463
8	0xb95e87b0	-0.00021222117
9	0xbd747e32	-0.05969066
10	0xbe066a21	-0.13126422
11	0x3d11a3cc	0.0355566
12	0xbdd6f8b3	-0.10496654
13	0xbde9ba62	-0.11412503
14	0x3da61892	0.08110155
15	0xbd2aee6f	-0.041731294
16	0x3c9e73a6	0.019342255
17	0xbcc045b2	-0.023470733
18	0xbd34641a	-0.044040777
19	0xbca53551	-0.020167025
20	0xbe398c9d	-0.18120046
21	0xbd71aba0	-0.059001565
22	0xbe12a902	-0.14322284
23	0x3dc74a23	0.09730937
24	0xbc4f01ad	-0.012634677
25	0x3daa0c42	0.08303119
26	0xbd323927	-0.043511536
27	0xbdf43179	-0.11923499
28	0xbe3fc91d	-0.18729062
29	0xbde7fe57	-0.11327808
30	0xbe1a2af0	-0.15055442
31	0xbd9973f7	-0.07492822
32	0xbc79ff12	-0.015258567
33	0xbdafe0af	-0.08587777
34	0xbe0e8806	-0.13919076
35	0xbdd6de15	-0.104915775
36	0x3d8926e8	0.06696874
37	0xbdccba6a	-0.09996493
38	0xbd7145e8	-0.05890456
39	0xbd7d2300	-0.061800957
40	0x3d5f1a36	0.054468356
41	0x3dc653de	0.09683965
42	0xbdc05cef	-0.09392726
43	0xbe17668c	-0.14785212
44	0xbdce5197	-0.10074156
45	0xbcfb4934	-0.030674554
46	0xbc4586d2	-0.012056069
47	0xbd812a2b	-0.06306871
48	0xbde17e74	-0.11010447
49	0xbda99670	-0.08280647
50	0x3d26c428	0.040714413
51	0x3de92db8	0.11385673
52	0x3db4739c	0.08811113
53	0xbcf1e9b6	-0.029530387
54	0xbd5bdfe6	-0.053680323
55	0xbd361635	-0.044454772
56	0x3d900b61	0.0703342
57	0xbcd19097	-0.025581641
58	0xbdfa1848	-0.122116625
59	0x3ceaeda0	0.028677762
60	0x3e062a8d	0.1310217
61	0x3d85250b	0.06501206
62	0x3e374bb5	0.17899974
63	0xbc286c6b	-0.010279755
64	0x3ca90119	0.020630406
65	0xbd706ee4	-0.058699504
66	0xbd40c9ac	-0.04706733
67	0xbd8e7c1c	-0.06957266
68	0x3d04cbf0	0.032421052
69	0x3cb03d50	0.021513611
70	0x3e3b5cdd	0.18297143
71	0xbd9627ce	-0.07331811
72	0x3e00ae3d	0.12566467
73	0x3a5063d8	0.0007949448
74	0x3e0b4e06	0.13603982
75	0xbe15b4ed	-0.14619799
76	0xbd8ffa12	-0.07030119
77	0x3db88279	0.09009261
78	0xbc81d43d	-0.015848273
79	0x3de5168c	0.11185941
80	0x3d9c51d8	0.07632798
81	0x3d5dc6a4	0.054144517
82	0x3e053115	0.13007005
83	0xbd0de27e	-0.034639828
84	0x3c08778b	0.0083292825
85	0x3e3e8f79	0.18609418
86	0xbdb2ad31	-0.0872444
87	0x3d881023	0.06643703
88	0xbcb4488f	-0.022007255
89	0xbd21a17e	-0.03946065
90	0x3d045ac4	0.032313123
91	0x3e2cff36	0.1689423
92	0x3db4ee73	0.08834543
93	0xbd2ad9e3	-0.0417117
94	0xbd9f58d2	-0.07780613
95	0x3cb951ba	0.022621978
96	0xbd0d4ab5	-0.034495074
97	0xbdd0f6af	-0.10203301
98	0xbd66fb55	-0.056392033
99	0x3dddf3ab	0.108374916
100	0xbd53146b	-0.051533144
101	0x3dddda11	0.108326085
102	0xbdf851e6	-0.12124996
103	0xbcdef41a	-0.027216006
104	0xbcfab375	-0.03060315
105	0x3d4f8d59	0.05067191
106	0xbd82fc95	-0.063958324
107	0x3c5e1317	0.013554356
108	0xbd12f4c1	-0.035877947
109	0xbd476da1	-0.048688535
110	0xbded1e0f	-0.11577999
111	0xbd95d9e8	-0.07316953
112	0xbe24453d	-0.16042037
113	0x3e504ad0	0.20341039
114	0xbdf59216	-0.11990754
115	0x3d210b17	0.039317217
116	0x3d8df78f	0.06931984
117	0xbd826d87	-0.06368547
118	0x3d88b532	0.06675185
119	0xbd007be1	-0.03136814
120	0x3db66b65	0.08907203
121	0x3cfc1937	0.030773742
122	0xbd9711bd	-0.0737643
123	0x3d833021	0.06405664
124	0xbc9f4ce0	-0.019445837
125	0x3e073ed2	0.13207558
126	0xbd4d9024	-0.05018629
127	0xbe10a6d1	-0.14126135
128	0x3e2f4906	0.171177
129	0xbd9dc2f2	-0.077031985
130	0x3d3e51a3	0.046464574
131	0x3cdb313b	0.026756873
132	0xbe0f9f17	-0.14025532
133	0x3d44788c	0.047966525
134	0x3d3957ad	0.04524963
135	0xbe0e6d6b	-0.13908927
136	0x3e484f6f	0.19561552
137	0x3d53b05d	0.051681865
138	0xbdac84ee	-0.08423792
139	0x3b521c4d	0.0032060326
140	0x3de175c9	0.11008794
141	0x3d864fca	0.06558187
142	0xbdd10253	-0.102055214
143	0xbd0576ef	-0.032584127
144	0x3dafc253	0.08581986
145	0xbd722d5d	-0.059125293
146	0x3dc38ff4	0.09548941
147	0x3dccd3b1	0.100013144
148	0x3d9b7ced	0.07592187
149	0x3db47b83	0.088126205
150	0x3c210e11	0.009830014
151	0xbe19cbab	-0.150191
152	0x3df01249	0.117222376
153	0x3daaf951	0.083483346
154	0x3c9601ab	0.018311342
155	0x3d1084c1	0.035282854
156	0x3de70b11	0.112814076
157	0x3ca35ff3	0.019943213
158	0xbb822c86	-0.0039725928
159	0x3e304560	0.17213964
160	0xbdb9ecce	-0.0907837
161	0x3dcb6083	0.099305175
162	0x3e667978	0.22507274
163	0xbc3a26a1	-0.011361749
164	0x3842d568	4.6451954e-05
165	0x3cdb2cbb	0.026754728
166	0x3e3e0a39	0.18558587
167	0x3d9f9fdb	0.07794162
168	0x3da8b3c7	0.08237415
169	0x3c8ea539	0.017412769
170	0x3db9c8fc	0.09071538
171	0xbc15281f	-0.009103804
172	0x3d9269f5	0.07149116
173	0x3d90e7d2	0.07075466
174	0xbd844672	-0.06458749
175	0x3e033af9	0.12815465
176	0x3c0f20f6	0.008735886
177	0x3cb90f79	0.022590386
178	0x3c49454f	0.012284591
179	0x3e36ce59	0.17852153
180	0x3c64ea65	0.0139719
181	0xbdfd585b	-0.12370368
182	0x3b16c7f2	0.002300736
183	0x3ddf590e	0.10905658
184	0xbd132e25	-0.03593268
185	0x3b96cc89	0.004602019
186	0x3de3160d	0.1108819
187	0xbd574d78	-0.052564114
188	0xbceff186	-0.029289972
189	0x3b0ea102	0.0021763449
190	0xbd2bd575	-0.041951615
191	0xbb7c767c	-0.003852277
192	0x3e321b7b	0.17393295
193	0xbd305462	-0.043049224
194	0xbdab91cc	-0.08377418
195	0xbe26d5f1	-0.1629255
196	0x3e1583f9	0.14601125
197	0xbd90efac	-0.07076964
198	0x3d4b3450	0.049610436
199	0x3d1217e0	0.0356673

lstm.bias_hh_l0 f4 [200]
0	0x3c8b36aa	0.01699384
1	0x3cd66fdd	0.026176387
2	0x3cf50c7c	0.02991318
3	0xbc73074b	-0.014833282
4	0x3c7298b4	0.014806915
5	0xbe6ebf37	-0.2331513
6	0xbd61c444	-0.055118814
7	0xbe01c49c	-0.12672657
8	0x3bb7a587	0.005604449
9	0x3d2a91c2	0.04164291
10	0x3da4d9eb	0.08049377
11	0xbda0a2cd	-0.07843552
12	0xbc4c5201	-0.012470723
13	0x3d89ae60	0.067227125
14	0x3dc0d770	0.094160914
15	0x3d6a248b	0.057163756
16	0xb7dfe42c	-2.6689922e-05
17	0xbcf29686	-0.02961279
18	0xbd92470c	-0.07142457
19	0x3c6ae6f2	0.014337288
20	0xbe1b4eef	-0.1516683
21	0xbe603568	-0.21895373
22	0xbd24c959	-0.040231083
23	0x3e0523c3	0.13001923
24	0xbdef28ea	-0.116777256
25	0x3daf7cf2	0.08568753
26	0x3d54cc88	0.05195287
27	0x3db462af	0.08807885
28	0xbe75d92b	-0.24008624
29	0xbd0b0231	-0.033937637
30	0x3ac8f674	0.0015332238
31	0xbd8d8b96	-0.069113895
32	0xbde4303c	-0.111420125
33	0xbd8e8571	-0.06959046
34	0xbe2ef8b1	-0.17087056
35	0xbcd22b10	-0.0256553
36	0xbe0e85bc	-0.13918203
37	0xbe1e63ac	-0.1546771
38	0xbe3964f8	-0.18104923
39	0x3d17003e	0.036865465
40	0xbe2b6756	-0.16738638
41	0xbcf67afd	-0.030087942
42	0xbde99c66	-0.11406784
43	0xbe02f876	-0.12790093
44	0xbc573876	-0.01313602
45	0xbe398b51	-0.18119551
46	0xbda0452f	-0.07825696
47	0xbceb4d55	-0.028723398
48	0xbd227471	-0.03966183
49	0x3c839916	0.016064208
50	0xbca6fb12	-0.020383392
51	0xbd0ff620	-0.035146832
52	0x3e0ecea3	0.13946013
53	0x3dade5ca	0.084910944
54	0xbde8255c	-0.11335251
55	0xbdeb5eef	-0.114927165
56	0x3d53b143	0.05168272
57	0xbe25747f	-0.16157721
58	0x3d16a87d	0.036781777
59	0xbda7941b	-0.08182546
60	0x3e2539f1	0.16135384
61	0xbde65e3f	-0.11248445
62	0x3e8862e9	0.26637962
63	0xbc9d9edf	-0.019240795
64	0x3cbf1b18	0.023328349
65	0x3dbfaac6	0.09358744
66	0xbe109aab	-0.14121501
67	0xbdd8c198	-0.105838
68	0x3e3ceef9	0.18450536
69	0x3d965929	0.07341225
70	0x3e2c62db	0.16834585
71	0x3d2aa9e9	0.041665945
72	0x3bb3eb1e	0.0054906746
73	0x3e01d5ab	0.12679164
74	0x3d23a1d2	0.039949246
75	0xbe104a8b	-0.14090936
76	0xbe077b77	-0.13230692
77	0x3d3bb6d7	0.045828667
78	0x3d4a9524	0.049458638
79	0x3da5ad92	0.080897465
80	0xbd9ab91c	-0.07554838
81	0x3e008d02	0.1255379
82	0x3e2443ab	0.16041438
83	0x3cba416d	0.022736276
84	0x3deb9df4	0.115047365
85	0x3d475841	0.04866815
86	0xbd1585d7	-0.036504593
87	0xbdbeb2ad	-0.093114235
88	0xbdea6cb1	-0.114465125
89	0xbd2d8974	-0.042367414
90	0xbe09cd0e	-0.13457128
91	0x3d80c3bc	0.06287333
92	0xbd24d2f8	-0.040240258
93	0x3e02bc87	0.1276723
94	0xbd8b182f	-0.06791722
95	0xbdc21d52	-0.09478249
96	0x3aa41845	0.001251944
97	0xbd9cc74e	-0.07655202
98	0x3deb07ac	0.11476073
99	0xb9e9ace4	-0.00044570037
100	0xbe248c95	-0.16069253
101	0xbe1efe2d	-0.15526648
102	0xbe1cc805	-0.15310676
103	0xbdc51438	-0.09622997
104	0x3d06a6bb	0.03287385
105	0xbdde5fe7	-0.10858136
106	0xbd805def	-0.062679164
107	0xbde3a853	-0.1111609
108	0xbe1003b8	-0.14063919
109	0xb9cf223c	-0.00039507623
110	0xbce65cda	-0.028120447
111	0x3d80c4fa	0.0628757
112	0xbcd7e0c3	-0.026352292
113	0xbd3b24ba	-0.045689322
114	0xbdb1bbe6	-0.08678417
115	0x3d6e3775	0.058158357
116	0xbd320d4d	-0.043469716
117	0x3e0fe7aa	0.14053217
118	0xbc7649c8	-0.015032239
119	0xbde1814a	-0.11010988
120	0x3bff649c	0.007793976
121	0xbde7ad7d	-0.11312387
122	0xbd175a03	-0.036951076
123	0xbce40d09	-0.027838247
124	0x3dc6b708	0.09702879
125	0xbd3706fa	-0.044684388
126	0x3e376fdb	0.17913763
127	0xbd4c48bb	-0.04987405
128	0x3e33e681	0.17568399
129	0x3d8e3b6c	0.069449276
130	0x3d66f5b3	0.05638666
131	0x3e434e74	0.19072896
132	0x3d6393ea	0.055560984
133	0x3d8c0576	0.06836979
134	0x3e031eeb	0.12804763
135	0xbe5d6285	-0.21619613
136	0x3da58750	0.080824494
137	0xbad38d1b	-0.0016140075
138	0x3da378da	0.07982035
139	0xbd7e358f	-0.062062796
140	0x3de4e12d	0.11175761
141	0xbdcac904	-0.09901622
142	0xbdabda3b	-0.083912335
143	0xbd4f4443	-0.05060221
144	0xbe20eca3	-0.1571527
145	0x3d807ddb	0.06274005
146	0xbd3e7ce9	-0.046505842
147	0x3e0929ce	0.13394853
148	0xbde74937	-0.112932615
149	0xbd960863	-0.073258184
150	0x3e299104	0.16559225
151	0x3d389061	0.045059565
152	0x3db644f1	0.08899868
153	0x3e3a03ff	0.18165587
154	0x3d16c656	0.03681024
155	0x3db88e35	0.09011499
156	0x3d4dc785	0.050239105
157	0xbddb2c1e	-0.10701774
158	0x3c13205e	0.008979885
159	0x3d21169e	0.03932821
160	0x3cc5bbe0	0.024137437
161	0x3da0a03d	0.07843063
162	0x3e481e6a	0.19542852
163	0x3dc689c0	0.096942425
164	0xbc0bb22e	-0.008526368
165	0xbdeed3e6	-0.1166151
166	0xbca24274	-0.019807078
167	0x3de94dbd	0.113917805
168	0xbe07ec6e	-0.13273785
169	0xbdcba197	-0.0994293
170	0xbdb7ae8e	-0.089688405
171	0xbd2cbd96	-0.04217299
172	0xbd4fe3aa	-0.050754227
173	0x3d605930	0.054772556
174	0x3dc098a8	0.09404117
175	0xbd6c97d1	-0.05776197
176	0x3e204015	0.15649445
177	0x3e742755	0.23843129
178	0xbd440ad7	-0.0478619
179	0x3e255cb1	0.1614864
180	0xbc5e2737	-0.013559154
181	0x3b962359	0.0045818505
182	0x3cd4536c	0.025918685
183	0x3d62c859	0.055366848
184	0xbe050365	-0.12989576
185	0x3e2225bb	0.15834706
186	0x3d3058d7	0.043053474
187	0xbd92f0e8	-0.071748555
188	0x3de6e5e8	0.1127432
189	0xbd63ab4f	-0.055583294
190	0xbd26553b	-0.040608626
191	0x3e0d4d1d	0.13798948
192	0x3d653f16	0.055968367
193	0xbd81c7b4	-0.063369185
194	0xbc896afd	-0.016774649
195	0xba97cc1c	-0.0011581215
196	0xbd1f4cbc	-0.03889154
197	0x3d83cecb	0.06435927
198	0x3dcf26f4	0.101148516
199	0x3d71d40b	0.05904011

dense1.weight f4 [50, 50]
0	0xbde5efc7	-0.112273745
1	0xbc2ff7f0	-0.010740265
2	0xbd86e7e2	-0.06587197
3	0x3dd29223	0.102817796
4	0x3d55da1d	0.052209962
5	0x3d803849	0.062607355
6	0x3beadeca	0.007167672
7	0x3db19907	0.08671766
8	0xbcc0389d	-0.023464495
9	0xbcae650e	-0.021288421
10	0x3c725406	0.014790541
11	0xbccb75d5	-0.02483646
12	0x3ba45d62	0.005016015
13	0xbd453939	-0.048150275
14	0x3d12e5d4	0.035863712
15	0xbda27ceb	-0.079339825
16	0x3d0c6ac3	0.034281503
17	0x3cb69353	0.022287047
18	0xbd3212ec	-0.043475077
19	0xbd746a3d	-0.05967163
20	0x3d99831b	0.074957095
21	0xbd3ee4bb	-0.046604853
22	0x3d5df6e6	0.05419054
23	0xbdd02cd3	-0.101647995
24	0xbb64f9f6	-0.0034939027
25	0xbd2db1ec	-0.042406008
26	0x3e0ffc5e	0.14061114
27	0x3d8eabb6	0.06966345
28	0xbb19fdf1	-0.0023497308
29	0x3d80c293	0.06287112
30	0xbca909a9	-0.02063449
31	0x3e15c134	0.14624482
32	0xbbbfddc0	-0.005855292
33	0xbe2329b8	-0.15933883
34	0xbc054afb	-0.0081355525
35	0x3ce96e3a	0.028494943
36	0xbc8df4f1	-0.017328711
37	0xbd6f5bf2	-0.058437295
38	0x3a0cfeb7	0.00053785316
39	0x3c2f5af3	0.010702836
40	0x3dfb52d2	0.12271656
41	0x3d7968c3	0.060890924
42	0x3d9b3c26	0.07579832
43	0x3e145793	0.14486532
44	0xbdb94628	-0.09046584
45	0xbe05515f	-0.13019322
46	0xbc8cf1bc	-0.017205112
47	0xbe0edcf9	-0.13951482
48	0xbcc03a16	-0.023465198
49	0xbd6e8150	-0.05822879
50	0x3dbe5df6	0.092952654
51	0x3de916c1	0.11381293
52	0xbdba375b	-0.090925895
53	0x3d2a36a7	0.041556027
54	0x3c77276c	0.0150850825
55	0x3ce9b594	0.028528966
56	0x3dc79a63	0.09746244
57	0xbd695746	-0.056967996
58	0x3c56262b	0.013070623
59	0xbdb778f1	-0.089586146
60	0x3c95e37d	0.018296951
61	0xbd984bba	-0.07436319
62	0xbc0c49e6	-0.008562541
63	0x3c58d198	0.013233565
64	0x3dfca799	0.12336654
65	0x3dd32e43	0.10311558
66	0xbb27fe05	-0.0025633585
67	0xbca9b74c	-0.020717286
68	0xbd1e861d	-0.03870212
69	0xbb301b6a	-0.0026871809
70	0xbc7c357d	-0.015393612
71	0xbd8ab8d9	-0.06773538
72	0xbd064e69	-0.03278962
73	0xbdbc38dc	-0.091905326
74	0xbdbef033	-0.09323158
75	0x3db95f41	0.09051371
76	0x3c35cffe	0.0110969525
77	0x3dc9602e	0.09832798
78	0xbdbb3d88	-0.091425955
79	0x3d0a28b2	0.033730216
80	0x3c367d14	0.011138219
81	0x3e3586e1	0.17727233
82	0xbd8b91be	-0.068149075
83	0xbcb1a854	-0.02168671
84	0x3ce44da0	0.027869046
85	0x3dd92d6f	0.10604369
86	0xbdbf3bf9	-0.09337611
87	0xbdeb81e5	-0.11499385
88	0xbdad01cc	-0.08447608
89	0xbe0a42af	-0.13502
90	0xbb2f6534	-0.0026763203
91	0x3baf44df	0.0053487862
92	0x3ca43613	0.020045316
93	0x3c9cdfd6	0.019149702
94	0xbc5525df	-0.013009517
95	0x3df484fe	0.11939429
96	0x3e0b7119	0.13617362
97	0xbcf4210d	-0.029800916
98	0xbdaa95fd	-0.08329389
99	0x3dee8ab6	0.11647551
100	0x3db1c5ab	0.0868028
101	0x3e26c35e	0.16285464
102	0x3d364f17	0.04450902
103	0x3da81f67	0.082091145
104	0xbd8cf852	-0.06883301
105	0xbe056a52	-0.13028839
106	0xbe158c82	-0.1460438
107	0xbd986e5b	-0.07442924
108	0x3dfee7f9	0.12446589
109	0xbe007c86	-0.12547502
110	0xbda9c177	-0.082888536
111	0x3c29c8e1	0.010362835
112	0xbd1e6531	-0.038670722
113	0xbbde79ea	-0.0067894356
114	0x3dddd1fd	0.10831068
115	0x3d9ce2ee	0.07660471
116	0xbb41cdda	-0.002957216
117	0xbdce9006	-0.10086064
118	0xbca624ce	-0.020281222
119	0xbdc2e4a2	-0.095162645
120	0x3c9c166f	0.019053666
121	0xbde0ed20	-0.10982728
122	0x3ddc1b36	0.107473776
123	0xbd407f66	-0.046996497
124	0xbe04af81	-0.12957574
125	0xbcd7f12d	-0.026360119
126	0xbe0b3ca6	-0.13597354
127	0xbd8e0f18	-0.06936473
128	0xbd8d108f	-0.06887924
129	0x3ca99e9b	0.020705512
130	0x3d04b88f	0.03240257
131	0xbda61d1f	-0.08111023
132	0x3cee2e20	0.029074728
133	0xbd4c5b0e	-0.049891524
134	0x3c96bbca	0.018400092
135	0x3e2cbca8	0.16868842
136	0xbe13fd15	-0.14452012
137	0x3d3dd6c3	0.04634739
138	0xbd39854a	-0.04529313
139	0x3ce89d99	0.02839546
140	0xbdcba50f	-0.09943592
141	0xbe12a597	-0.1432098
142	0x3d53a337	0.051669326
143	0xbce96370	-0.028489798
144	0xbc84f1d9	-0.016228603
145	0x3d2451f3	0.040117215
146	0xbccbab35	-0.024861911
147	0x3c97588c	0.01847484
148	0x3d34adb4	0.04411097
149	0xbddce7e1	-0.10786415
150	0x3df07157	0.11740368
151	0x3dbd9a03	0.09257891
152	0x3e956556	0.29178876
153	0x3cdada1a	0.026715327
154	0xbdcc3354	-0.099707276
155	0x3d2363c3	0.039890062
156	0xbd4655c2	-0.04842163
157	0xbcf03a66	-0.029324722
158	0x3d43a38d	0.047763396
159	0xbb0917bd	-0.002091869
160	0xbca8e12c	-0.020615183
161	0x3d99c6bb	0.07508608
162	0xbcd18cf6	-0.02557991
163	0x3c392934	0.0113013275
164	0x3d0a22b4	0.0337245
165	0x3dc63ef1	0.09679974
166	0x3d9831e5	0.074313916
167	0xbdd25ed9	-0.10271997
168	0x3d1034e2	0.035206683
169	0x3d76539a	0.060138322
170	0x3daf0ea9	0.08547718
171	0x3d000b1f	0.031260606
172	0x3de563b0	0.112006545
173	0xbd881986	-0.06645493
174	0x3d17d72a	0.03707043
175	0xbe125b3c	-0.14292616
176	0xbe21877a	-0.15774336
177	0x3d2c5db3	0.042081546
178	0xbdf4d4cc	-0.1195465
179	0x3e1e4d33	0.15459137
180	0x3cdb9857	0.02680604
181	0x3e56d4cb	0.20979612
182	0xbe210858	-0.15725839
183	0x3cb19c50	0.02168098
184	0xbdfad4cd	-0.1224762
185	0x3d368af6	0.044566117
186	0xbe333fae	-0.1750476
187	0xbdea60b9	-0.1144423
188	0x3b50e77b	0.0031876254
189	0xbdae0aa2	-0.08498122
190	0x3d2ce11e	0.042206876
191	0xbe0f54b3	-0.13997154
192	0xbd740cad	-0.0595824
193	0xbdf51b07	-0.11968046
194	0xbcda0b8b	-0.026616832
195	0x3da4d021	0.0804751
196	0x3e70fa46	0.23532972
197	0x3d9bcd2e	0.07607494
198	0xbd649034	-0.055801585
199	0xbe657f23	-0.2241178
200	0xbc3dae20	-0.011577159
201	0x3da4e004	0.0805054
202	0xbdd86b00	-0.10567284
203	0xbd654b23	-0.05597986
204	0xbc942613	-0.018084561
205	0x3e0d64b4	0.13807946
206	0xbd15f08a	-0.03660635
207	0xbc901f8e	-0.017593171
208	0xbda2c13e	-0.07947014
209	0xbc97d0f8	-0.018532261
210	0xbd6fb44b	-0.05852155
211	0x3d34c9c1	0.04413772
212	0x3e9a8947	0.3018286
213	0x3d9402f6	0.07227127
214	0xbd8f7813	-0.07005324
215	0x3d04a6a3	0.03238548
216	0x3e0aa2b2	0.13538626
217	0x3bbdb72e	0.005789659
218	0x3e05b194	0.13056022
219	0xbd2dc323	-0.042422425
220	0x3e280cef	0.16411184
221	0xbe28b9f5	-0.16477187
222	0x3da0c7a8	0.078505814
223	0x3d3cd62e	0.046102695
224	0x3df9bf9b	0.12194749
225	0x3c2bbe0d	0.010482323
226	0x3dafacbe	0.0857787
227	0xbe1b260f	-0.15151237
228	0xbd687d69	-0.056760225
229	0x3d1d33bf	0.038379427
230	0x3d4e8f1f	0.05042946
231	0x3c880c50	0.016607434
232	0x3db22cf0	0.086999774
233	0xbdaf3765	-0.085554875
234	0x39f34d15	0.00046406002
235	0x3deeb03e	0.11654709
236	0xbd5f2d33	-0.054486465
237	0xbd3e9821	-0.0465318
238	0x3daa9432	0.08329047
239	0xbd7758f8	-0.06038758
240	0xbbd49ee3	-0.0064886673
241	0x3c39e013	0.011344927
242	0xbdde9106	-0.10867505
243	0x3dcaf5a9	0.09910137
244	0x3bc82d20	0.006108895
245	0xbbc38d88	-0.0059677996
246	0x3d7953c8	0.060870916
247	0xbdec3cec	-0.115350574
248	0xbcd48d60	-0.02594632
249	0xbda19d90	-0.07891381
250	0x3da9fbc0	0.082999706
251	0x3de39636	0.11112635
252	0xbddbec57	-0.107384376
253	0x3dc15e6f	0.0944184
254	0xbe2268f2	-0.15860346
255	0x3db8f2db	0.09030696

dense1.bias f4 [50]
0	0x3e436806	0.1908265
1	0x3e492dd5	0.1964639
2	0x3e03f177	0.1288508
3	0x3db8fe63	0.090328954
4	0xbd656052	-0.05600006
5	0x3e69b866	0.22824249
6	0x3e7a2d8e	0.2443144
7	0x3e6d735f	0.23188542
8	0x3e3ba638	0.18325126
9	0x3ca3952b	0.01996859
10	0xbd9e00ad	-0.07714973
11	0x3d2b0ce2	0.041760333
12	0x3e583095	0.21112283
13	0xbe1bd7ad	-0.15218993
14	0x3e42d346	0.19025907
15	0x3e941a36	0.28926247
16	0x3e7786bf	0.24172495
17	0x3ea0fd7e	0.314434
18	0x3e23a60b	0.15981309
19	0x3db60139	0.08886952
20	0x3e5f5f6a	0.21813741
21	0x3c54ed59	0.012996041
22	0x3e7e3626	0.24825343
23	0x3e819c65	0.25314632
24	0x3e7d1d4a	0.24718204
25	0x3e9887f6	0.2979123
26	0x3e1d8142	0.15381339
27	0x3e6ee9ba	0.23331347
28	0x3e9eaba2	0.3099032
29	0x3e0a267e	0.13491246
30	0x3d816afc	0.06319234
31	0x3d21d9c3	0.039514314
32	0x3e93b137	0.28846142
33	0x3d91d676	0.07120983
34	0x3e553699	0.20821609
35	0x3e89ed79	0.2693899
36	0x3e1d9f2b	0.15392749
37	0x3d6bd46f	0.05757564
38	0x3e88019f	0.26563737
39	0x3e114ad3	0.141887
40	0x3e71489f	0.23562859
41	0x3e9f859e	0.3115663
42	0x3dd22611	0.10261167
43	0x3dc50dcb	0.096217714
44	0x3e62534d	0.22102089
45	0x3e2f2148	0.1710254
46	0x3e022457	0.12709175
47	0x3e478112	0.1948283
48	0x3c48c347	0.012253589
49	0xbd467257	-0.048448887
